bots/Deadpool.chatbot/converted_model.tflite (tflite, 569032 bytes, 4 tensors)

in/MatMul_bias f4 [128]
0.24864615 0.23396756 0.18371135 0.16520016 0.15751535 0.1411701 0.30786037 0.3029372
0.22098751 0.23019582 0.24461961 0.24128635 0.2454306 0.25335136 0.20906208 0.18852775
0.23381141 0.24177139 0.15462661 0.12794767 0.2035436 0.22517577 0.18868358 0.19874077
0.3190883 0.1703396 0.26907587 0.32375455 0.19029711 0.17702909 0.21592423 0.23725519
0.13930538 0.3024803 0.24045989 0.1723336 0.2311447 0.20216365 0.20415302 0.18223259
0.23747525 0.23931967 0.25024232 0.22667181 0.2600784 0.21537831 0.2859807 0.14229272
0.23733042 0.13672478 0.28827208 0.17844495 0.27729112 0.13682464 0.17208587 0.2902785
0.1330885 0.18898496 0.24742146 0.15202554 0.22517772 0.27515164 0.20900188 0.28572124
0.26021475 0.23129636 0.26084593 0.2113102 0.15774365 0.27203584 0.14461508 0.1845824
0.21207061 0.28246284 0.14241612 0.2019634 0.170823 0.18784097 0.27781722 0.19900441
0.21550626 0.27655023 0.16982028 0.28243017 0.3218367 0.16736375 0.19616158 0.18540275
0.285978 0.27673012 0.20106566 0.20092991 0.21661599 0.22658312 0.16904524 0.21101435
0.19695857 0.1564633 0.12573943 0.17378339 0.1408232 0.18178229 0.23559119 0.16454662
0.28242603 0.27669427 0.19001575 0.21845773 0.24267517 0.2400531 0.21642229 0.14080456
0.23185006 0.22549136 0.24083433 0.24469034 0.220663 0.24496898 0.16543233 0.31420386
0.2399822 0.14913987 0.23359188 0.2615747 0.1765705 0.20393996 0.22864424 0.16370505
00000000: 199d 7e3e 3195 6f3e d41e 3c3e 3b2a 293e
00000010: b44b 213e e58e 103e e09f 9d3e 961a 9b3e
00000020: 8d4a 623e 74b8 6b3e 907d 7a3e c513 773e
00000030: 2952 7b3e 45b7 813e 5f14 563e 6b0d 413e
00000040: 426c 6f3e eb92 773e 7056 1e3e b704 033e
00000050: bc6d 503e 7a94 663e 4536 413e b382 4b3e
00000060: 8b5f a33e 816d 2e3e 50c4 893e 28c3 a53e
00000070: 3fdd 423e 1d47 353e 3e1b 5d3e 06f3 723e
00000080: 12a6 0e3e b3de 9a3e 1e3b 763e 3878 303e
00000090: 32b1 6c3e fd03 4f3e 7d0d 513e 2e9b 3a3e
000000a0: b62c 733e 3710 753e c31f 803e a81c 683e
000000b0: ff28 853e 228c 5c3e 106c 923e 2fb5 113e
000000c0: bf06 733e 9501 0c3e 6698 933e 46ba 363e
000000d0: 1af9 8d3e c21b 0c3e 4737 303e 629f 943e
000000e0: 5a48 083e 4685 413e 0d5c 7d3e 95ac 1b3e
000000f0: fd94 663e ade0 8c3e 9704 563e 0e4a 923e
00000100: de3a 853e f4d8 6c3e 998d 853e b361 583e
00000110: 8d87 213e 4848 8b3e fa15 143e 2b03 3d3e
00000120: 0a29 593e f89e 903e 88d5 113e 7ecf 4e3e
00000130: 39ec 2e3e 6259 403e 0f3e 8e3e d0c7 4b3e
00000140: acad 5c3e fe97 8d3e 5ee5 2d3e b09a 903e
00000150: c8c7 a43e 6761 2b3e 95de 483e 38da 3d3e
00000160: b56b 923e 92af 8d3e 28e4 4d3e 92c0 4d3e
00000170: 95d0 5d3e 6805 683e 321a 2d3e 2514 583e
00000180: 82af 493e ea37 203e d6c1 003e 46f4 313e
00000190: f533 103e 2325 3a3e d13e 713e e97e 283e
000001a0: 259a 903e dfaa 8d3e 7d93 423e 62b3 5f3e
000001b0: d77f 783e 7bd0 753e ce9d 5d3e 122f 103e
000001c0: 1a6a 6d3e 35e7 663e 469d 763e 1b90 7a3e
000001d0: 7bf5 613e 26d9 7a3e 1867 293e 54df a03e
000001e0: e5bd 753e 1fb8 183e b632 6f3e 1eed 853e
000001f0: e6ce 343e a3d5 503e b721 6a3e 4ca2 273e

in/kernel/transpose f4 [128, 1064]
-0.018565089 -0.07323852 -0.11195024 -0.106583096 -0.06250189 -0.17015256 0.1036111 0.18961814
0.08318751 -0.09685043 0.17156552 0.08592529 0.095233366 0.27266964 0.2403699 0.10387134
0.21118028 -0.07022402 -0.10165053 -0.14431791 0.17890252 0.21401359 0.09212491 0.22477901
-0.088071376 0.22207196 0.11777316 -0.122730255 0.12385873 -0.1010711 -0.023116812 0.16965126
0.15170167 0.163205 0.1533912 0.14374697 -0.12458281 0.12025453 0.20581451 -0.10653028
-0.16365659 -0.076259665 -0.2422553 -0.12666248 -0.088587075 -0.10188063 -0.070243664 -0.12175701
-0.10939357 0.1358278 0.15724184 0.0688344 -0.07283308 -0.038160376 -0.17995492 -0.121750206
0.15319946 -0.19717155 0.12639748 -0.041492507 -0.03761634 -0.09083769 0.10768651 -0.06343725
0.19422677 0.18458915 0.1992267 -0.11606571 -0.04693664 -0.05940924 -0.106477596 -0.22218144
0.05083924 0.17449032 0.033663563 0.11942152 0.1637646 0.12105466 -0.11508018 -0.0069351043
-0.079282336 0.019763414 0.01276379 -0.09533067 -0.089627735 0.12520182 0.09353301 -0.052939296
-0.06683356 -0.034802586 0.05855655 -0.05377085 -0.072760925 -0.10843073 0.004915647 0.067620106
-0.20060755 -0.093571655 0.09179427 0.0023259723 0.051992305 -0.093238935 -0.07006139 -0.12182236
-0.085369945 -0.051693473 -0.09541683 0.17215903 -0.12506084 -0.03899534 0.07386191 -0.06565168
-0.16128024 0.18494572 -0.043811955 -0.09673729 -0.095121816 -0.06601767 -0.1440839 -0.23934087
-0.15669665 0.06594057 0.1380111 0.20359953 0.07043819 0.14127867 -0.1942852 -0.09816036
0.037785277 0.010982812 -0.051856875 0.117228575 0.1267286 0.11555912 0.1119018 0.16264881
0.074866876 0.11480243 -0.21108443 0.15685746 -0.24012084 -0.041503876 -0.06370904 0.123820186
-0.0749466 0.10869413 0.06509474 0.0802906 0.084335126 -0.13540259 -0.25363338 -0.070667304
-0.12788743 -0.15042597 -0.04003261 0.16304415 0.11150983 -0.10699202 -0.061524976 0.12456383
-0.09202799 0.12717217 0.2267661 -0.07983605 0.11483456 -0.02810714 -0.08427422 -0.0013289574
0.13812768 -0.16252121 -0.11162252 0.07554374 -0.049187638 0.29375148 -0.2090694 0.16689682
-0.045605328 -0.17600323 -0.06341094 0.117940135 -0.06570328 -0.031237785 0.18750684 0.03157002
0.1783155 0.1927604 -0.05931203 0.16396348 0.20650983 -0.08506942 0.10113258 0.07595467
0.11816744 -0.046974078 -0.16928798 0.10923113 0.15395506 0.0307986 0.12565568 0.051008947
-0.12518513 -0.23218897 0.07677294 -0.124428615 0.14026068 -0.03780552 0.120469026 -0.056213375
0.120181955 -0.065821774 0.027332082 0.13445672 0.18514699 -0.034483425 -0.21409793 0.069663286
0.1850464 0.10266713 0.12455081 -0.1481016 -0.051690925 -0.10312279 0.06911482 -0.109944075
0.014497776 0.16740301 0.17611837 0.17662476 0.14317109 0.016411506 -0.15829875 0.16023459
-0.13630962 -0.04210194 -0.20468682 -0.12772937 0.17634061 -0.13727413 -0.18940298 -0.08528477
-0.09074141 -0.02298795 0.19069847 -0.068017066 0.1704943 0.1518677 0.3560777 0.035009205
0.21077609 0.29006556 0.2264357 -0.09498784 -0.0026831946 -0.051252082 0.17112005 -0.065565646
00000000: d015 98bc 14fe 95bd 2b46 e5bd 3d48 dabd
00000010: fe00 80bd 793c 2ebe 0e32 d43d 422b 423e
00000020: 375e aa3d 8559 c6bd dfae 2f3e 99f9 af3d
00000030: b609 c33d 5b9b 8b3e 8723 763e 7fba d43d
00000040: a53f 583e 9cd1 8fbd 272e d0bd 13c8 13be
00000050: 3932 373e 6126 5b3e fcab bc3d 782c 663e
00000060: c45e b4bd d566 633e 0e33 f13d 005a fbbd
00000070: a5a9 fd3d 5dfe cebd 785f bdbc 0fb9 2d3e
00000080: af57 1b3e 361f 273e 9512 1d3e 6832 133e
00000090: 4625 ffbd 0248 f63d 0ac1 523e 8c2c dabd
000000a0: 9895 27be 072e 9cbd c611 78be cfb3 01be
000000b0: 246d b5bd cba6 d0bd e9db 8fbd bd5b f9bd
000000c0: bc09 e0bd 7116 0b3e 0104 213e 0df9 8c3d
000000d0: 8329 95bd 0e4e 1cbd 1a46 38be 2c58 f9bd
000000e0: 52e0 1c3e 57e7 49be 576e 013e 0cf4 29bd
000000f0: 9713 1abd 1c09 babd bf8a dc3d 64eb 81bd
00000100: 62e3 463e f004 3d3e 1602 4c3e dcb3 edbd
00000110: a240 40bd 1a57 73bd ed10 dabd 8883 63be
00000120: cf3c 503d 97ad 323e cee2 093d 4593 f43d
00000130: e8b1 273e 81eb f73d 28af ebbd df3f e3bb
00000140: c75e a2bd e2e6 a13c 371f 513c ba3c c3bd
00000150: bf8e b7bd e834 003e 3c8e bf3d e0d6 58bd
00000160: 09e0 88bd 288d 0ebd fed8 6f3d d33e 5cbd
00000170: ae03 95bd ee10 debd 7013 a13b 697c 8a3d
00000180: 116c 4dbe 7fa2 bfbd a2fe bb3d 576f 183b
00000190: e2f5 543d 0ef4 bebd 597c 8fbd 007e f9bd
000001a0: 70d6 aebd 89bc 53bd e669 c3bd 754a 303e
000001b0: f30f 00be 94b9 1fbd ea44 973d 6374 86bd
000001c0: a626 25be 6962 3d3e 2a74 33bd 331e c6bd
000001d0: 3acf c2bd 4634 87bd bb8a 13be c615 75be
000001e0: 1675 20be d90b 873d c852 0d3e 657c 503e
000001f0: e641 903d 5bab 103e b3f2 46be 4c08 c9bd
00000200: bcc4 1a3d 41f1 333c e067 54bd 8915 f03d
00000210: 24c5 013e 43aa ec3d c52c e53d 698d 263e
00000220: ce53 993d 891d eb3d 8426 58be 3e9f 203e
00000230: 3de2 75be f8ff 29bd e379 82bd 7095 fd3d
00000240: 9a7d 99bd 079b de3d 6450 853d 666f a43d
00000250: e5b7 ac3d faa6 0abe 3cdc 81be 05ba 90bd
00000260: ecf4 02be 4409 1abe 3cf9 23bd 0cf5 263e
00000270: 445f e43d a21e dbbd 9d01 7cbd 521b ff3d
00000280: 2c79 bcbd 6c39 023e 5f35 683e 1581 a3bd
00000290: 622e eb3d f240 e6bc f697 acbd 6930 aeba
000002a0: 5871 0d3e f66b 26be 599a e4bd adb6 9a3d
000002b0: fa78 49bd 9866 963e 4a16 56be 00e7 2a3e
000002c0: a7cc 3abd 313a 34be 98dd 81bd 998a f13d
000002d0: 718f 86bd 62e6 ffbc cb01 403e 914f 013d
000002e0: 5798 363e fb62 453e 2cf1 72bd 0be6 273e
000002f0: 5077 533e e038 aebd 991e cf3d 1f8e 9b3d
00000300: c501 f23d e467 40bd d459 2dbe 92b4 df3d
00000310: 65a6 1d3e 584d fc3c e2ab 003e c2ee 503d
00000320: 8830 00be f2c2 6dbe 223b 9d3d 6ed4 febd
00000330: 7fa0 0f3e f6d9 1abd 77b8 f63d ff3f 66bd
00000340: f521 f63d 91cd 86bd 88e7 df3c 06af 093e
00000350: 2c97 3d3e 7e3e 0dbd 7d3c 5bbe a0ab 8e3d
00000360: ce7c 3d3e 2543 d23d 7f14 ff3d f2a7 17be
00000370: ddb9 53bd 0b32 d3bd 128c 8d3d 5c2a e1bd
00000380: 1488 6d3c b26b 2b3e 6058 343e 1fdd 343e
00000390: 719b 123e 6c71 863c 1119 22be 8914 243e
000003a0: c094 0bbe 1573 2cbd 6c99 51be 7dcb 02be
000003b0: a292 343e 9791 0cbe dbf2 41be c8a9 aebd
000003c0: a2d6 b9bd 3a51 bcbc 7646 433e 884c 8bbd
000003d0: 0f96 2e3e 3583 1b3e d14f b63e d065 0f3d
000003e0: b0d5 573e 7983 943e c3de 673e fc88 c2bd
000003f0: 89d8 2fbb b4ed 51bd 183a 2f3e 4847 86bd

out/MatMul_bias f4 [44]
0.057987783 -0.03462473 -0.039980836 0.016487835 -0.043034203 0.07198918 0.081020996 0.054488853
0.010201754 -0.03294418 -0.16531135 -0.08014694 0.099741384 -0.03141409 -0.10503911 -0.026437068
0.009877269 0.052237585 -0.0043948106 -0.028749138 0.079094134 0.061743755 -0.037391976 -0.07922213
-0.026301937 0.008132029 -0.024643043 -0.01829488 -0.065215535 -0.03340102 0.055427436 0.023495303
0.016943645 -0.06623205 -0.033916544 -0.06086056 -0.027925562 -0.001100667 0.017045949 -0.026300818
0.057557277 -0.03864656 -0.011558274 -0.033814747
00000000: 9984 6d3d a9d2 0dbd f2c2 23bd 7f11 873c
00000010: a244 30bd 106f 933d 56ee a53d b42f 5f3d
00000020: 4225 273c 7af0 06bd 6147 29be 1424 a4bd
00000030: 3645 cc3d 10ac 00bd bf1e d7bd 8d92 d8bc
00000040: 45d4 213c 14f7 553d 5802 90bb 5083 ebbc
00000050: 1bfc a13d 05e7 7c3d 5428 19bd 363f a2bd
00000060: 2977 d7bc 343c 053c 35e0 c9bc 25df 95bc
00000070: b98f 85bd 82cf 08bd e107 633d 3979 c03c
00000080: 66cd 8a3c aba4 87bd 13ec 0abd ec48 79bd
00000090: 26c4 e4bc 4244 90ba f2a3 8b3c d074 d7bc
000000a0: 2ec1 6b3d db4b 1ebd ea5e 3dbc 5581 0abd

out/kernel/transpose f4 [44, 128]
-0.3287935 0.25716707 0.31464806 -0.3978855 -0.52253944 -0.4226289 0.12987389 -0.38954845
-0.5645769 -0.5449717 0.2453389 -0.33872676 0.2016955 -0.66729945 -0.69696915 -0.65397394
-0.39513394 -0.43571976 -0.29780933 0.30041414 -0.75676847 0.3104779 -0.3720553 -0.3111544
-0.38031328 0.23105696 0.051143695 -0.40627363 -0.4041161 0.2884215 0.23749565 -0.513185
-0.3873603 0.209288 -0.42802393 0.3235801 0.31211945 -0.977685 -0.78276247 -0.74086857
-0.6720612 0.30321002 0.25329402 0.29223225 0.2570048 -0.68836206 -0.548797 0.13905641
-0.61135507 -0.37563246 0.24728069 0.18538135 0.20425758 -0.4657915 -0.707531 0.40031597
-0.38809243 0.2658925 -0.7320287 0.23245886 0.28435504 -0.7414861 0.30557033 -0.21929504
-0.6734634 -0.6550509 -0.45117387 0.21610095 0.09710199 0.3302912 -0.4295327 -0.6528145
0.28913203 -0.15744309 -0.52994484 -0.13762406 -0.8714691 0.2560561 0.15819556 -0.758539
-0.57566434 0.38463387 -0.5883102 0.3034965 0.35957292 -0.41407102 -0.9213538 0.24223563
0.2786598 -0.49797493 0.25852278 0.26285854 0.2710294 0.1926268 0.23713365 -0.6437181
-0.35588333 0.19942518 -0.66584235 -0.35042098 0.2703092 -0.37621015 -0.44087774 -0.5180316
0.2499442 -0.3446274 0.28969282 0.25488734 -0.5095298 -0.025425194 0.30120912 0.2107807
-0.33631113 0.21176824 -0.41180104 0.28841078 0.2257838 -0.8126498 0.21735573 0.3641006
-0.8671215 0.08198083 0.037997317 0.20361124 -0.5974014 0.18056561 0.26307887 -0.7013553
0.19857529 -0.6784041 -0.30725172 -0.11732845 -0.7674752 0.29557583 -0.30142948 -0.788086
0.19882098 -0.61011195 0.27979377 0.15976863 -0.024190744 0.25153932 -0.64422876 -0.7106967
0.2939531 -0.38339505 0.054647893 0.4267942 0.15884373 -0.5886654 -0.50773954 -0.07918192
-0.26997313 0.25445485 0.2745744 0.26639253 0.359109 -0.011830189 -0.4976793 -0.7276551
0.2399572 -0.038659837 -0.17765224 0.32563335 -0.35878244 -0.36203957 -0.40790594 -0.6106191
0.12107362 -0.18254894 -1.1792612 -0.52042425 -0.33528844 0.18832591 -0.20378706 -0.21894757
0.18996093 0.17255059 0.158286 -0.51959217 -0.7421688 -0.20496516 0.08047588 0.07345997
0.1865212 -0.7751738 -0.58024114 0.27820975 -0.24079455 -0.46161288 0.24013434 -0.24663535
-0.6523128 -0.42668235 0.25318116 0.22445852 0.18032053 0.23900844 -1.1825562 0.27417597
-0.23972166 0.18901943 -0.5095501 0.3012032 0.19117436 0.14102134 -0.79976106 -0.17130476
0.3222825 -0.46677577 0.16254187 0.272273 0.19600062 -0.45103464 0.3563606 0.26606226
-0.42150024 -0.6243702 -0.6634088 -0.010190427 -0.11131132 0.07938913 -0.038932584 -1.1277153
0.30374545 0.25016078 -0.377085 -0.2390876 0.23878902 -0.24514922 0.23184834 0.21017721
0.20411122 -0.27039176 -0.29259294 0.24140702 0.14729702 -0.7481482 0.25960737 -0.569469
-0.09304308 0.21809739 -0.022509856 -0.12618239 -0.39073643 -0.5512884 -0.3987374 -0.4644875
0.26554656 -0.41161728 -0.64720726 0.351182 0.117805175 0.26292098 0.014544334 -0.60655993
00000000: 9f57 a8be 67ab 833e 8d19 a13e a6b7 cbbe
00000010: 25c5 05bf d162 d8be a9fd 043e e572 c7be
00000020: 1d88 10bf 4483 0bbf 1f3a 7b3e 986d adbe
00000030: 4489 4e3e 23d4 2abf 926c 32bf d66a 27bf
00000040: ff4e cabe a916 dfbe 777a 98be e2cf 993e
00000050: 94bb 41bf f6f6 9e3e 087e bebe a14f 9fbe
00000060: 6cb8 c2be 329a 6c3e 0d7c 513d 1903 d0be
00000070: 4ee8 cebe fcab 933e 0f32 733e 1860 03bf
00000080: 1754 c6be 984f 563e f425 dbbe 4aac a53e
00000090: 1fce 9f3e 9049 7abf 1f63 48bf 90a9 3dbf
000000a0: 340c 2cbf 583e 9b3e c1af 813e 779f 953e
000000b0: 2296 833e 7f38 30bf f67d 0cbf ce64 0e3e
000000c0: c481 1cbf e652 c0be 2637 7d3e 9cd4 3d3e
000000d0: e628 513e 397c eebe c020 35bf 37f6 cc3e
000000e0: 0db4 c6be 1023 883e 3c66 3bbf b209 6e3e
000000f0: fc96 913e 08d2 3dbf b773 9c3e e18e 60be
00000100: 1968 2cbf 6ab1 27bf 4300 e7be 9149 5d3e
00000110: 68dd c63d ee1b a93e b6eb dbbe da1e 27bf
00000120: 1d09 943e c338 21be 77aa 07bf 52ed 0cbe
00000130: 9918 5fbf c919 833e 04fe 213e 9d2f 42bf
00000140: bd5e 13bf bbee c43e 7f9b 16bf e563 9b3e
00000150: f119 b83e 1e01 d4be d8dd 6bbf 9e0c 783e
00000160: 7fac 8e3e 92f6 febe 195d 843e 6595 863e
00000170: 5ec4 8a3e f63f 453e 2ad3 723e b6ca 24bf
00000180: 5736 b6be 1d36 4c3e a574 2abf 616a b3be
00000190: f865 8a3e 9e9e c0be baba e1be b89d 04bf
000001a0: 5ff1 7f3e 0173 b0be 9e52 943e 9880 823e
000001b0: 8c70 02bf 7f48 d0bc 1538 9a3e e5d6 573e
000001c0: f930 acbe c6d9 583e 96d7 d2be 94aa 933e
000001d0: de33 673e d109 50bf 8092 5e3e 656b ba3e
000001e0: adfb 5dbf 91e5 a73d 13a3 1b3d 777f 503e
000001f0: 4cef 18bf 31e6 383e 46b2 863e 058c 33bf
00000200: 5257 4b3e e4ab 2dbf 1950 9dbe e649 f0bd
00000210: 4179 44bf b755 973e f754 9abe 01c0 49bf
00000220: ba97 4b3e 4c30 1cbf 2141 8f3e 639a 233e
00000230: ab2b c6bc c3c9 803e 2dec 24bf 38f0 35bf
00000240: 0581 963e 5b4c c4be 78d6 5f3d c584 da3e
00000250: eea7 223e c7b2 16bf 38fb 01bf 212a a2bd
00000260: eb39 8abe e847 823e 0495 8c3e 9a64 883e
00000270: 23dd b73e 69d3 41bc d2cf febe 9b47 3abf
00000280: 57b7 753e c759 1ebd 78ea 35be 6ab9 a63e
00000290: 55b2 b7be 405d b9be 0cd9 d0be 8951 1cbf
000002a0: 72f5 f73d 1cee 3abe 08f2 96bf 863a 05bf
000002b0: edaa abbe 82d8 403e 8ead 50be cb33 60be
000002c0: 1e85 423e 1ab1 303e ba15 223e fe03 05bf
000002d0: c6fe 3dbf 63e2 51be 8ad0 a43d 2e72 963d
000002e0: 6aff 3e3e ca71 46bf af8a 14bf 8271 8e3e
000002f0: d992 76be 8658 ecbe c7e5 753e fa8d 7cbe
00000300: f9fd 26bf 1c76 dabe f6a0 813e 74d8 653e
00000310: f2a5 383e a1be 743e 005e 97bf cb60 8c3e
00000320: 9879 75be 4f8e 413e e071 02bf 4e37 9a3e
00000330: 36c3 433e e667 103e 24bd 4cbf 846a 2fbe
00000340: 3602 a53e 3cfd eebe 6071 263e 5e67 8b3e
00000350: 63b4 483e 03ee e6be e674 b63e 5039 883e
00000360: e1ce d7be bad6 1fbf 29d5 29bf c0f5 26bc
00000370: 30f7 e3bd c596 a23d c677 1fbd fa58 90bf
00000380: 8684 9b3e 1315 803e 4911 c1be 61d3 74be
00000390: 1c85 743e 6608 7bbe a769 6d3e b238 573e
000003a0: 8802 513e ca70 8abe bece 95be 6733 773e
000003b0: 08d5 163e a486 3fbf 42eb 843e b8c8 11bf
000003c0: 5f8d bebd ec54 5f3e 9766 b8bc f535 01be
000003d0: 9b0e c8be 3d21 0dbf 4f27 ccbe 4ed1 edbe
000003e0: b8f5 873e 80bf d2be 60af 25bf 21ce b33e
000003f0: d743 f13d 949d 863e 5c4b 6e3c 8347 1bbf
