bots/ru/Terminator.chatbot/converted_model.tflite (tflite, 300660 bytes, 4 tensors)

in/MatMul_bias f4 [128]
000000 aa e9 14 3e cc d4 34 3e c8 2e f9 3d fe 6b 8a 3e
       0.14542261 0.176593 0.12167126 0.27035517
000010 22 e1 67 3e d8 f0 a3 3e 6e 00 57 3e e0 df 4e 3e
       0.22644475 0.32019687 0.20996258 0.20202589
000020 8a af 1a 3e 0b a2 5c 3e 11 60 64 3e 74 f8 59 3e
       0.15106025 0.2154619 0.22302271 0.21286184
000030 b9 5b 46 3e 4a f5 94 3e fb 3c 4f 3e 9c 1e 54 3e
       0.19370927 0.2909339 0.20238106 0.20714802
000040 2a 24 07 3e 68 15 82 3e 12 6f 18 3e 46 26 34 3e
       0.13197389 0.25406957 0.1488612 0.17592725
000050 06 45 4d 3e 2d f7 5a 3e 44 61 39 3e 9b 23 67 3e
       0.20045862 0.21383353 0.1810351 0.22572176
000060 6c 96 7e 3e 45 50 fa 3d a1 2e 74 3e b7 60 82 3e
       0.24862069 0.122223414 0.23845913 0.25464413
000070 bd 4a ec 3d ac 9e 63 3e 9e 73 2a 3e fd d7 47 3e
       0.11537693 0.22228497 0.16645667 0.19515987
000080 f2 20 6f 3e db 13 ee 3d 11 ac 10 3e 52 e5 77 3e
       0.23352411 0.11624881 0.14128138 0.24208573
000090 d2 b9 88 3e 4c 91 5b 3e 29 9d 29 3e 6e 47 21 3e
       0.2670427 0.21442145 0.16563858 0.15749905
0000a0 52 55 2e 3e 6d af 66 3e 0b 7b 2a 3e 4c 24 18 3e
       0.17024735 0.22527857 0.166485 0.14857596
0000b0 ba 49 61 3e d9 0f 71 3e 23 aa 29 3e e6 70 3b 3e
       0.2200078 0.23541202 0.16568808 0.18304786
0000c0 ca 29 73 3e b8 4f 66 3e 6c a5 5d 3e 63 1e e7 3d
       0.2374641 0.22491348 0.21645135 0.11285093
0000d0 b5 21 34 3e c1 3c 14 3e 3c 84 22 3e 49 bb 5d 3e
       0.17590983 0.14476301 0.15870756 0.21653475
0000e0 8a 5e 8d 3e 12 24 02 3e a7 2e 4b 3e e0 e2 2b 3e
       0.2761119 0.12709072 0.19842015 0.16785765
0000f0 df fa 12 3e aa 4f 71 3e 05 9f 36 3e 56 3c 07 3e
       0.14353512 0.23565546 0.17834099 0.1320661
000100 2c ff 85 3e e2 e5 91 3e a8 ab 69 3e 4c 87 4d 3e
       0.26171243 0.284957 0.22819388 0.20071143
000110 5d 17 67 3e d7 1d 28 3e 83 f2 68 3e 0b 5f 0e 3e
       0.22567506 0.16417633 0.22748761 0.13903444
000120 d8 15 53 3e cc 2f 39 3e ce ea e1 3d 19 33 0d 3e
       0.20613801 0.1808464 0.110311136 0.13789023
000130 1a b2 10 3e ad 52 08 3e 6d 07 4b 3e ca 0c 28 3e
       0.1413044 0.13312788 0.19827051 0.16411129
000140 e3 96 75 3e ff bf 86 3e 45 cc 27 3e 63 ad 68 3e
       0.2398334 0.26318356 0.16386516 0.22722392
000150 b6 86 31 3e 68 fd 58 3e 97 95 6b 3e b9 95 5a 3e
       0.17336544 0.21190417 0.23006283 0.21346177
000160 c4 71 30 3e e9 02 67 3e 01 59 57 3e 5a 7d 08 3e
       0.17230898 0.22559704 0.21030046 0.13329068
000170 e7 71 82 3e 36 a2 3f 3e 9d d1 1d 3e 9c 88 2e 3e
       0.25477526 0.18714222 0.15411992 0.170443
000180 f4 4b f7 3d c3 c3 01 3e 7b e3 40 3e 9a 8c 0e 3e
       0.12075034 0.12672333 0.18836777 0.13920823
000190 b6 5c 8e 3e 01 c2 13 3e bd b3 4d 3e e2 23 4f 3e
       0.27805108 0.14429475 0.20088096 0.20228532
0001a0 d5 cc 26 3e b5 fb 5b 3e 7a ad 5f 3e 57 f2 54 3e
       0.16289075 0.21482737 0.2184352 0.2079557
0001b0 75 15 32 3e 9b 29 5d 3e 6f 60 e3 3d 72 9f 6c 3e
       0.17390998 0.21597902 0.111023776 0.23107699
0001c0 c9 c8 80 3e 3c bc 53 3e 83 3f 2e 3e 4a 63 36 3e
       0.25153187 0.20677274 0.17016415 0.17811313
0001d0 41 85 6f 3e 5f 3c 1f 3e 9a ec 0f 3e c0 23 05 3e
       0.23390676 0.15550373 0.140551 0.13001919
0001e0 2d 5a 37 3e c5 fc 54 3e 2e e0 65 3e 36 68 3d 3e
       0.17905493 0.20799549 0.22448799 0.18496785
0001f0 dc af 57 3e 68 00 90 3e 8d f9 11 3e c4 af 24 3e
       0.21063179 0.2812531 0.14255352 0.16082674

in/kernel/transpose f4 [128, 561]
000000 e8 8d 33 bc 29 f0 05 3d b6 9b b8 3d 28 f4 d7 3d
       -0.010959126 0.032699738 0.090140745 0.10544616
000010 35 95 f8 bd e6 65 c2 3d 4f 1e 01 bd b0 df 4e 3c
       -0.12137834 0.09492092 -0.031523045 0.012626573
000020 6f 26 85 bd 7b f8 f7 bc cd 4b 86 3d 01 05 5b bd
       -0.06501471 -0.030269852 0.065574266 -0.05347157
000030 68 36 30 3e f9 e6 90 3c 74 4f 26 3e 07 15 80 3c
       0.17208254 0.017688261 0.16241246 0.015635027
000040 6a ac 00 3d ad 25 35 3e f3 89 67 3e 24 2b 9e 3d
       0.031414427 0.17690153 0.22611217 0.07723072
000050 4b 7e 91 3d b8 8f 15 be 38 09 eb bd 48 0b 36 3e
       0.071041666 -0.14605606 -0.11476368 0.17777741
000060 cc 26 99 3e 6a 31 84 ba b2 1a 30 3e e1 34 16 be
       0.29912412 -0.0010085527 0.17197683 -0.14668609
000070 06 d3 f5 bd 5c 53 47 3e 30 6a 4d 3e 80 a2 0a 3b
       -0.1200314 0.19465393 0.20060039 0.0021153986
000080 1e 96 bd bd 3c 5e bb bd 3e 18 14 3e c5 65 fc bd
       -0.09257148 -0.09148833 0.14462373 -0.123240985
000090 11 dc d6 bc 77 f5 c3 bd 58 ad bb bd c4 c3 13 bd
       -0.026227983 -0.09568303 -0.09163922 -0.03607537
0000a0 77 a1 3d bd 5b cc 08 3e 65 e4 47 3e 21 5e 8b 3d
       -0.046296563 0.13359205 0.1952072 0.06805063
0000b0 4d 3f 18 3e c0 51 b2 3a b4 60 01 3e e5 8f b5 bd
       0.14867897 0.0013604686 0.12634546 -0.08865336
0000c0 c5 ce 4e bd 8f 1b 37 3c 9a 11 0f 3e fd 4f 5c 3e
       -0.05049016 0.011176004 0.13971558 0.21514888
0000d0 cc 91 c0 bd be eb e7 3d 35 72 cd 3d 8c 2d 4f 3c
       -0.094028085 0.11324261 0.10031549 0.012645137
0000e0 26 33 5c bd f9 38 ce 3d 77 e5 32 3c 24 1f 2b 3e
       -0.053759716 0.100694604 0.0109189665 0.16711098
0000f0 d2 68 f4 3d 7a 1b 92 bd b8 1d f0 bc 40 3f 0e 3e
       0.119340554 -0.07134147 -0.029311046 0.13891315
000100 e8 2e 0a 3e ca 06 b3 bd 81 23 80 bd 22 46 74 bd
       0.13494456 -0.08741529 -0.06256772 -0.059637196
000110 bf 5b 8a 3d 17 04 72 3d cf 33 da bd 74 1e 15 be
       0.067557804 0.05908593 -0.10654413 -0.14562398
000120 df b3 91 bd e2 c3 70 be 85 12 e4 bd 70 d0 08 3d
       -0.07114386 -0.23512223 -0.11136345 0.033401906
000130 8a 2d 31 3e 7d 4a 0f be 73 6a ed 3d 45 59 6a be
       0.17302528 -0.13993259 0.11592569 -0.22885616
000140 73 3a f7 bd 44 92 2e 3e 2e 28 62 bc 52 34 41 bd
       -0.12071695 0.17047983 -0.013803525 -0.047169037
000150 85 b0 b4 3d 8c 7a 15 be e1 24 47 3e 95 2a c4 3d
       0.08822731 -0.14597529 0.19447662 0.095784344
000160 0c 82 1d 3c 96 27 af bd 18 5a 12 bc 2d 20 e5 bd
       0.009613525 -0.08552472 -0.008932613 -0.11187778
000170 b5 d4 f7 3d 96 b4 2a bd bd 04 13 be 71 14 d1 3d
       0.121011175 -0.041676126 -0.14357276 0.10208977
000180 70 94 dd bd 24 86 81 3d 2b bc ea 3c 4e 17 35 3e
       -0.10819328 0.063244134 0.028654179 0.17684671
000190 0b 6d b8 bd 88 3b 44 3e f6 02 25 3e 35 53 9a bc
       -0.09005173 0.19163334 0.16114411 -0.018838504
0001a0 f1 b0 35 3e f7 81 13 3e e2 82 6e 3e e4 32 d8 3d
       0.17743279 0.14405046 0.23292115 0.105565816
0001b0 a6 78 00 3e 6e ec a1 bd 80 87 b8 3d 8f ef 72 bd
       0.12546024 -0.079064235 0.090102196 -0.059310492
0001c0 9a 93 f8 bd c5 13 95 bc cc 50 4c 3e c3 c2 69 bd
       -0.12137528 -0.018197903 0.19952697 -0.057070505
0001d0 bc 7f 18 be 72 e6 ac bd 18 e2 cb 3c dd bb 9a bd
       -0.14892477 -0.084423915 0.024888083 -0.07555363
0001e0 3d 58 82 3e c1 43 08 bc b1 65 bb bc 54 d1 f2 3d
       0.25457945 -0.008316935 -0.022875639 0.118563324
0001f0 c0 4f 69 3d 95 7e 92 3d 5f 60 81 3c ca 22 00 3e
       0.05696082 0.0715305 0.015793024 0.12513271
000200 23 98 96 3c 5b 65 c4 bd 92 44 01 3e bc 38 fd 3c
       0.018383091 -0.095896445 0.12623814 0.030910842
000210 ff ed 3d 3e 6a 9b 14 3c 22 6f 3b 3e 7c 24 53 bc
       0.1854782 0.009070257 0.18304113 -0.0128871165
000220 32 6a a0 bd 50 be fc 3d f1 8d 75 bc 83 f7 6a bd
       -0.07832755 0.12340987 -0.014987455 -0.05736495
000230 d3 5d 9a bb 6f 54 43 3e cf 02 14 3d d2 a6 b4 3d
       -0.0047108917 0.19075178 0.03613549 0.08820881
000240 a3 f2 14 bc e0 96 9d 3c 61 6b 65 3e 00 e2 35 bc
       -0.009091052 0.019236982 0.22404243 -0.011101246
000250 ca 36 06 be 79 f1 15 be 9d 72 7c bd e5 63 9f 3d
       -0.13106838 -0.14642896 -0.06163274 0.07782725
000260 df 20 09 3e 55 e6 b3 bd d7 e7 cb bd 75 27 21 be
       0.13391446 -0.08784167 -0.09956329 -0.15737708
000270 2e c4 6e bd 69 ca 84 bd 63 91 c0 3d 3a 6a 5d 3d
       -0.05829256 -0.06483919 0.0940273 0.054056384
000280 a9 b4 21 3e 41 f5 61 3b a1 ac 15 3e 00 ea 05 3e
       0.15791573 0.0034478458 0.14616634 0.13077545
000290 fd 52 15 3e 50 2a 44 3e 78 2e 25 3e 06 2b ba 3d
       0.14582439 0.19156766 0.16131008 0.09090237
0002a0 2a 25 06 bd 70 c9 eb bc 72 86 e3 3d a8 85 f8 bd
       -0.032750286 -0.028782576 0.11109628 -0.12134868
0002b0 21 01 88 3d 00 c5 ca 3d 27 90 ea 3d ab 14 65 3e
       0.0664084 0.09900856 0.11453276 0.22371165
0002c0 e7 ae b1 3d 53 07 e1 bd 53 3a 88 bd 6a ff 39 3d
       0.08675938 -0.10987725 -0.066517495 0.045409597
0002d0 cd d6 80 3d f7 25 cc 3d 64 bd 08 be 40 b5 f8 bb
       0.0629097 0.09968179 -0.13353497 -0.007589966
0002e0 04 8f bc bd 03 d9 82 bd 2a a8 45 3e ca 68 df 3c
       -0.092069656 -0.06389048 0.19302431 0.027271647
0002f0 2d 66 40 3c 28 4d 1f 3e 4c 89 3a bc 0d 58 fa bb
       0.011743111 0.15556777 -0.011385273 -0.007639891
000300 bd 62 25 3e 80 9d 15 be e4 4f 18 be 4c bf 4b 3c
       0.16150947 -0.14610863 -0.14874226 0.012435745
000310 18 7d fa bc d6 1f bd bd 42 8d eb bd 98 ac 2d 3e
       -0.030577227 -0.09234588 -0.11501552 0.1696037
000320 1b 5c b7 3b c9 1a f5 3d fd 95 02 3e 80 1e b2 bd
       0.0055956966 0.119679995 0.12752528 -0.08697224
000330 88 63 3c bd f0 bc c1 3d 94 cd ba bd 9d 23 25 3e
       -0.045993358 0.09459865 -0.09121242 0.16126867
000340 3c 3a c8 bd b7 43 86 3d d6 e2 a6 bd 04 3e ba bd
       -0.09776732 0.06555884 -0.08148734 -0.0909386
000350 b0 5a 7a bd a9 c7 29 3d 93 16 b5 bc 96 84 48 3e
       -0.061121643 0.041450176 -0.02210549 0.19581828
000360 03 35 90 3d aa 3a f3 3d 1f d4 a4 3d 35 43 e7 bd
       0.07041361 0.11876424 0.080482714 -0.112921156
000370 c5 55 bc bd 10 94 6e bb a5 1b 80 bd ce 2c 01 be
       -0.09196047 -0.003640417 -0.06255273 -0.12614748
000380 b0 fe ce 3c 31 50 90 bd 30 9a 0d 3e b3 e9 4d 3d
       0.025267929 -0.07046545 0.13828349 0.0502717
000390 cf 3c 92 bd 96 f7 8a bd 83 39 65 bd 19 f1 82 3d
       -0.071405046 -0.067855045 -0.05596305 0.06393642
0003a0 c1 22 bd bd af ab c3 bc 3a 07 1a 3e 02 bf da 3d
       -0.092351444 -0.023885576 0.15041819 0.10680963
0003b0 7b 77 db 3d 37 37 65 3e 77 d2 16 3e fe 30 f1 3c
       0.107161485 0.22384344 0.14728723 0.029442307
0003c0 36 df 32 3e ae 53 07 3e e6 fa a7 3b 50 3f e6 3d
       0.1746796 0.13215515 0.005126345 0.11242545
0003d0 67 78 bf ba 95 6e bb bd ad 12 65 bd 28 e1 cb 3d
       -0.0014608026 -0.09151951 -0.055926014 0.099550545
0003e0 9e a3 b5 3d 0e 37 a4 bc 08 f7 99 bd 7a 86 17 be
       0.08869098 -0.020045783 -0.075178206 -0.14797392
0003f0 85 2a 3e 3d 8c f1 de 3c b3 c4 1e 3e 56 60 b1 3d
       0.04642727 0.027214788 0.15504722 0.08660953

out/MatMul_bias f4 [23]
000000 30 57 9b 3c d8 19 dc 3d b6 4f 0e 3d 64 76 91 bd
       0.018962473 0.10747117 0.034743987 -0.07102659
000010 0f e7 2d bd 75 48 98 bd 74 b6 8c 3d 4c f2 c9 bd
       -0.042456683 -0.07435695 0.06870738 -0.098606676
000020 60 ad 84 bd 90 ed 38 3d 37 6f 6d bd 63 2e 07 bd
       -0.06478381 0.045148432 -0.05796739 -0.033003222
000030 01 1f dd bd da 28 d3 3c 1a 2c 80 bd 86 e1 d8 3c
       -0.10796929 0.025776315 -0.06258412 0.026474725
000040 fc de 37 bd 71 a5 df bd bb 4f 7a 3d 54 6c bc 3c
       -0.04489039 -0.10920227 0.061111193 0.023000874
000050 8f 0f 1f bc 58 7a f9 bc 70 18 6a bc
       -0.009708299 -0.030453846 -0.014288053

out/kernel/transpose f4 [23, 128]
000000 44 e2 d1 be 64 91 8d be b8 59 f7 be fc 63 5c 3e
       -0.4099294 -0.27649987 -0.48310637 0.21522516
000010 8e 46 03 bf 03 99 2e 3e d4 e2 ed be f0 8b 0b bf
       -0.5127953 0.17050557 -0.4646212 -0.545104
000020 3f dc 30 bf 63 36 f9 be 89 ba fe 3d b5 8f 45 3e
       -0.6908607 -0.48674306 0.124379225 0.19293101
000030 13 63 92 be 6b 7c c5 3e b4 97 a3 be 2f 09 80 3d
       -0.28591213 0.38571486 -0.31951678 0.06251752
000040 20 7d 47 3e 57 02 cd be 55 d3 62 3e f2 c5 80 3e
       0.19481325 -0.40040848 0.2215093 0.2515102
000050 8a 97 7a 3d d2 ab 75 3e 95 54 6c 3e 38 43 8d 3e
       0.061179675 0.23991325 0.2307914 0.27590346
000060 71 c8 a3 be 37 fc 25 be 12 3a 95 3e e6 70 a0 3e
       -0.31988862 -0.16209494 0.29145867 0.31336135
000070 15 c6 4f bf 54 d0 be 3d ee b2 2b bf 56 85 8e 3e
       -0.81161624 0.09317079 -0.670699 0.27836102
000080 6a ae d5 3d 1c df 90 be 96 29 9a 3e b5 a6 56 bf
       0.104336575 -0.2829522 0.30109853 -0.83848125
000090 a4 fa 7c 3e a6 7f 5d 3e d5 cf fd bd 8e dc 5f be
       0.24704987 0.21630725 -0.123931564 -0.21861479
0000a0 93 f5 f3 be 6b b1 8d 3e e8 5a da be 53 6c d9 be
       -0.47648296 0.27674422 -0.4264748 -0.42465457
0000b0 62 59 ae 3e f3 15 98 be 1b a4 73 3e 22 19 79 be
       0.3405257 -0.29704246 0.2379307 -0.24325994
0000c0 01 0b 63 3e 8d de 33 be 79 fa e3 be e7 84 2e 3e
       0.22172166 -0.17565365 -0.44527033 0.17042886
0000d0 7f e4 79 be 14 0c 3c 3e 72 af 18 bf 6a 80 2c 3e
       -0.2440357 0.18363982 -0.5964271 0.16845861
0000e0 79 72 04 3e 81 e5 70 3e a5 4d 58 bf 10 74 cb be
       0.12934293 0.23525049 -0.84493476 -0.39736986
0000f0 3f 75 d4 be 46 06 28 3e 9b c0 0d bf a7 21 2c 3e
       -0.41495702 0.16408643 -0.5537202 0.16809712
000100 1a d9 bc be d5 3d 52 3e 11 1b 98 3e 56 f3 9a 3e
       -0.36884385 0.205314 0.2970815 0.30263776
000110 76 df b2 3e 7b 05 ba 3e d9 fd b6 be dc 4e 85 be
       0.34936112 0.36332306 -0.35740545 -0.26036727
000120 1c 64 6f 3e d0 5e 0a bf d9 39 7d be 1d 54 e3 3d
       0.23378032 -0.5405092 -0.24729098 0.11100028
000130 1a 7d 0e bf 8d 69 8c 3e c7 a8 c1 be f7 2c 28 3e
       -0.5565964 0.2742428 -0.3782408 0.16423403
000140 a0 20 26 bf e5 c8 96 3e e7 87 2b bf fc 7e 8f be
       -0.6489353 0.29450145 -0.67004246 -0.2802657
000150 d5 10 84 3e 01 21 2d 3e 02 2b 5e 3e 7b cc 75 3e
       0.25794092 0.16907121 0.21696094 0.24003784
000160 03 dd 2a 3e 70 00 e7 be 85 89 42 3e d5 bf 81 3e
       0.16685872 -0.4511752 0.18997772 0.2534167
000170 7b b7 d7 be 33 7b e6 be 7a ff a3 3e bd 77 4c 3e
       -0.42132172 -0.4501587 0.3203085 0.19967552
000180 af 73 15 bf f9 d5 b4 be b3 53 d1 be 1c eb 81 3e
       -0.58379644 -0.35319498 -0.4088417 0.25374687
000190 90 66 49 be 65 f4 29 3e 73 f9 c1 bd 23 8d b9 3e
       -0.1966803 0.16597135 -0.09471407 0.3624049
0001a0 67 36 19 3e 13 1c 16 bf ca 47 02 bd 10 af 21 bf
       0.14962159 -0.5863659 -0.031806745 -0.6315775
0001b0 49 57 a0 3d 6f cf a9 3e 61 2a e5 be ca 89 8e be
       0.07829148 0.33166072 -0.44758895 -0.278395
0001c0 25 a6 cb be 2c 71 9a be ad d4 f5 be 83 50 5e bf
       -0.39775196 -0.30164468 -0.4801382 -0.868416
0001d0 b4 f7 97 be cf 35 bc 3e 6f 57 e1 be d7 c2 ef 3d
       -0.2968117 0.36759803 -0.4401202 0.117070846
0001e0 c5 f5 b3 3e 12 ad 44 3e 10 fe 83 3e dc 16 ec be
       0.35148445 0.19206646 0.25779772 -0.4611119
0001f0 ea ee 59 3e 09 53 c1 be dd b2 3e bf ad f3 f6 3d
       0.21282545 -0.37758663 -0.74491674 0.12058196
000200 9f e7 37 bf 66 88 98 3e cd d2 1d bf 1d 04 9d 3e
       -0.718378 0.29791564 -0.6164978 0.306672
000210 d9 52 3a 3e 21 bc c0 3e 6d be 15 3e a3 51 ba 3e
       0.18195666 0.3764353 0.14623423 0.3639041
000220 ce b0 d3 be b1 59 b6 3e 8c 4b 65 3e be 56 86 3e
       -0.4134583 0.35615304 0.223921 0.26238054
000230 9f fb ca 3e d5 04 95 3e 55 81 8a 3e 93 ab 28 3e
       0.39645097 0.2910525 0.27051798 0.164717
000240 04 87 25 bf ac 19 d2 3e b5 53 0d bf 1a 45 cb 3d
       -0.6465914 0.4103521 -0.5520585 0.099252895
000250 c2 32 e8 be 11 04 2b 3e d3 b1 08 bf 87 d9 c5 be
       -0.45351225 0.1670077 -0.5339634 -0.38642523
000260 52 46 d5 3e 08 17 15 bf 63 3c 98 3d 86 21 b7 3e
       0.41655213 -0.5823827 0.07433393 0.35767764
000270 a8 d2 07 bf d2 2b 76 3e fa 28 4b 3e 02 9c cb 3e
       -0.5305581 0.24040154 0.1983985 0.39767462
000280 7e da 95 3d 2e 0f 15 bf c5 40 22 bf c0 9a 6e be
       0.07317065 -0.5822629 -0.6338008 -0.2330122
000290 fc d8 f3 3e 41 e4 20 3e 0b c6 48 3b 38 bb 1d bf
       0.47626483 0.15712072 0.003063562 -0.616138
0002a0 e3 71 a4 3e 27 e2 ad 3e 0b dc 08 3e 28 a5 fa be
       0.3211814 0.33961603 0.1336519 -0.4895413
0002b0 18 89 d5 3e 2b ac 89 3e 4a 1b 09 bf f9 67 f1 be
       0.41706157 0.26889166 -0.53557265 -0.47149637
0002c0 de 30 c5 3e 3c 3b ca 3e 4b 88 d7 3e 64 b0 16 bf
       0.38513845 0.39498317 0.4209617 -0.588629
0002d0 e8 28 bd 3e 54 1e e8 be b0 0d d9 be 79 b6 55 3e
       0.36945271 -0.4533564 -0.42393255 0.20870389
0002e0 82 fc c4 3e bc 71 21 bf 22 a7 06 bf 95 17 90 3e
       0.38473898 -0.6306417 -0.52598774 0.28142992
0002f0 b8 51 d4 3d 07 51 3d 3e ce f7 3d 3e f9 8f 29 bf
       0.10367149 0.1848794 0.18551561 -0.6623531
000300 f2 14 a2 3e 99 de 8f 3e 76 f4 df 3e 96 58 cd be
       0.31656605 0.28099516 0.43741196 -0.40106648
000310 a2 82 d9 3e de ad 25 bf fb 64 8b 3e 5a 09 0e bf
       0.42482477 -0.64718425 0.2722548 -0.5548302
000320 67 4a dd 3e d4 c9 f3 be b2 29 25 bf 00 92 0b bf
       0.43220827 -0.4761492 -0.64516747 -0.54519653
000330 15 09 22 bf cd 39 f0 be 96 b6 ab be 98 53 01 bf
       -0.6329511 -0.46919098 -0.3353774 -0.5051818
000340 a5 cd 97 3e 57 8f b7 3e 5c 90 10 bf e4 9a ac be
       0.29649082 0.35851547 -0.56470275 -0.33711922
000350 c8 cb 73 3e ca 0d 61 3e 87 93 66 3e d1 4b 82 3e
       0.23808205 0.21977916 0.22517215 0.25448468
000360 7b 9a 27 bf e8 d2 91 3e a3 9a df 3d d9 67 ac be
       -0.65470093 0.2848122 0.109181665 -0.3367298
000370 a6 d9 a0 3e be 42 98 3e 89 70 08 bf 5c 64 af be
       0.31416053 0.2973842 -0.53296715 -0.34256256
000380 ff 07 22 bf 82 77 1f bf da 96 b5 3e 55 46 1f bf
       -0.6329345 -0.6229173 0.35466653 -0.62216693
000390 b6 09 8d 3e e6 41 04 bf eb 1f ae 3e c5 80 47 3e
       0.2754647 -0.51663053 0.34008726 0.19482715
0003a0 7b 72 34 3d 9d 6f 83 3e 9a ec 5f 3e c9 27 4f 3e
       0.04405449 0.25671092 0.218676 0.2023002
0003b0 ab 05 15 bf 76 b6 bd bd 73 7d 43 bf 0c 72 98 3e
       -0.58211774 -0.09263317 -0.76363295 0.2977451
0003c0 7f 28 b0 3e dd 96 cd 3e ea 3d 91 bd 9b cb df be
       0.34405896 0.40154162 -0.07091887 -0.43710026
0003d0 7e 1d 36 3e 3c ce 29 bf df da 20 bf da b3 e4 be
       0.17784688 -0.66330314 -0.6283397 -0.44668466
0003e0 de 4a 1c bf fb 65 84 3e cc 63 79 3e 7b 7c 2f 3e
       -0.6105174 0.25859055 0.24354476 0.1713733
0003f0 6c 6c be 3d 98 12 79 3e 3b 17 07 bf db 25 07 bf
       0.092980236 0.24323499 -0.5276982 -0.5279214
