bots/ru/Snow.chatbot/converted_model.tflite (tflite, 409256 bytes, 4 tensors)

in/MatMul_bias f4 [128]
000000 75 ae 20 3e 4e 07 80 3e 0f 02 2f 3e cf eb 49 3e
       0.1569155 0.25005573 0.17090629 0.1971886
000010 7d e4 e1 3d e2 41 32 3e ff 54 76 3e f0 ee 44 3e
       0.11029909 0.17407945 0.24055861 0.19231772
000020 32 a2 f7 3d a9 ae 6c 3e 90 aa 4b 3e e8 74 3c 3e
       0.12091483 0.23113503 0.19889283 0.18403971
000030 ed a0 43 3e 39 02 14 3e 75 45 2d 3e e9 3b 35 3e
       0.19104357 0.14453973 0.16921027 0.17698635
000040 c1 52 1d 3e fa 41 8f 3e fb 6b 55 3e 9b 70 83 3e
       0.153636 0.27980024 0.20841973 0.2567185
000050 fd ee 3a 3e cc cb 36 3e 6e 85 34 3e 6c dc 86 3e
       0.1825523 0.1785118 0.17629024 0.26340044
000060 90 b6 55 3e 01 c0 5a 3e 3a 77 2a 3e 45 b7 df 3d
       0.20870423 0.21362306 0.16647044 0.10923628
000070 97 47 06 3e 8b 84 58 3e e2 b6 72 3e 06 d2 8e 3e
       0.13113247 0.21144311 0.23702577 0.2789461
000080 65 21 1f 3e 5a 90 7f 3e ea c3 22 3e 23 fc 54 3e
       0.15540083 0.2495741 0.15895048 0.20799308
000090 0b e8 30 3e 12 37 7b 3e e0 96 66 3e 93 09 58 3e
       0.17276017 0.24532726 0.22518492 0.21097402
0000a0 84 19 43 3e e4 e0 0d 3e 5e c2 1c 3e d9 6c 07 3e
       0.19052702 0.1385532 0.1530852 0.13225116
0000b0 ac 2d 6b 3e 6c d4 86 3e 0c 32 8d 3e f5 8d 83 3e
       0.22966641 0.2633394 0.27577245 0.25694242
0000c0 a3 90 6b 3e ba 3c 32 3e 2a 7e 57 3e 8e 0b 96 3e
       0.23004393 0.17405978 0.21044222 0.2930569
0000d0 fa 47 f7 3d 37 b8 6d 3e 46 41 28 3e cd e7 09 3e
       0.12074275 0.23214804 0.1643115 0.13467331
0000e0 e6 04 30 3e 25 e2 0b 3e 3f 23 0c 3e c1 3e 66 3e
       0.17189369 0.13660486 0.1368532 0.22484876
0000f0 95 fa 0d 3e be 80 1c 3e 90 ba 55 3e 29 e6 64 3e
       0.1386512 0.15283486 0.20871949 0.22353424
000100 9f 6d 6c 3e e2 06 15 3e 33 23 8f 3e 7c 32 6b 3e
       0.23088692 0.14553407 0.27956542 0.22968477
000110 cd c4 25 3e 57 92 6f 3e 18 93 3a 3e d5 15 58 3e
       0.16188355 0.23395668 0.18220174 0.21102078
000120 3a 65 63 3e 59 32 56 3e 3a e1 26 3e a8 d8 1f 3e
       0.22206584 0.20917644 0.16296855 0.15609992
000130 32 9a 4e 3e 59 12 1f 3e 8e a0 12 3e c6 82 26 3e
       0.20176008 0.15534343 0.14319059 0.16260824
000140 b2 04 5d 3e 7c cb 4b 3e bf b9 2a 3e 53 18 15 3e
       0.21583822 0.19901842 0.16672419 0.1456006
000150 a8 76 77 3e 70 f7 6e 3e 93 8c 33 3e 33 54 67 3e
       0.24166358 0.23336577 0.17534094 0.22590713
000160 85 44 32 3e 0a e8 24 3e 5f 1e 05 3e 96 bd 83 3e
       0.1740895 0.16104141 0.12999867 0.2573058
000170 03 91 88 3e e9 36 00 3e d2 5e 7f 3e 4b 33 18 3e
       0.26673135 0.12520947 0.24938515 0.14863317
000180 26 2d 4e 3e d4 46 45 3e 8e 25 8f 3e c6 0b 8d 3e
       0.2013441 0.192653 0.2795834 0.27548045
000190 4d 90 05 3e 17 a2 39 3e fe b5 40 3e f9 05 02 3e
       0.13043328 0.18128239 0.18819425 0.12697591
0001a0 30 ed 55 3e 86 23 1f 3e 29 fb 53 3e 26 b8 29 3e
       0.20891261 0.15540895 0.20701279 0.16574153
0001b0 cd 66 02 3e 68 6b 68 3e 4a 8d 23 3e 30 22 15 3e
       0.12734528 0.22697222 0.15971866 0.14563823
0001c0 0e a1 26 3e de 57 64 3e 5a 13 56 3e c1 30 8f 3e
       0.16272375 0.22299144 0.2090582 0.27966884
0001d0 95 66 1d 3e b1 d3 28 3e 18 01 88 3e 72 60 48 3e
       0.15371163 0.16487004 0.26563334 0.19568041
0001e0 ae 51 8d 3e 47 0b 86 3e 2f a9 7c 3e 9d 71 28 3e
       0.2760138 0.2618048 0.24673913 0.1644959
0001f0 de 91 34 3e 18 09 37 3e 9d e8 69 3e 4c b4 50 3e
       0.17633769 0.17874563 0.22842641 0.20381278

in/kernel/transpose f4 [128, 760]
000000 74 f9 09 be 38 3d f3 bc 63 20 08 3e 50 96 98 bc
       -0.13474065 -0.029692277 0.13293605 -0.018626362
000010 47 1c a0 3d a6 54 a3 3c 15 4b 03 3d a5 11 a6 bd
       0.078178935 0.019937824 0.032054026 -0.08108834
000020 a8 50 14 bd 73 59 f2 bc d9 ec 56 3d e7 67 df 3d
       -0.036209732 -0.029583668 0.05247197 0.1090849
000030 53 23 ff 3c ee 6a 10 bd 12 32 66 3e ba 59 ca 3d
       0.031144774 -0.035258226 0.22480038 0.09880395
000040 92 3f e2 bd bf bf 7a bd 06 06 fe bd f9 46 8d 3e
       -0.11047281 -0.06121802 -0.12403493 0.2759321
000050 f4 24 00 3e 58 87 09 bc 8c a7 c1 bd 05 39 a5 3d
       0.12514096 -0.008394085 -0.09455785 0.08067516
000060 e4 71 cf 3d f9 60 1d 3e c9 45 a5 3d d8 bf 8d 3d
       0.10129145 0.15369023 0.08069951 0.06921357
000070 d2 c8 37 3e 07 f2 29 3e 38 92 6a 3e 85 77 48 3e
       0.179477 0.16596232 0.2290734 0.19576843
000080 93 6e 95 bd 80 57 b1 3d 03 ea 64 bd 32 49 a5 bd
       -0.07296481 0.086592674 -0.055887233 -0.080706015
000090 94 58 70 3e 36 c4 26 3e 52 a4 0f 3e ee 9f 83 3d
       0.2347129 0.16285786 0.14027527 0.064269885
0000a0 89 fc da 3d 52 d7 0f 3c 5b f2 70 3e f5 b1 dd 3d
       0.106926985 0.008779364 0.23529951 0.10824958
0000b0 f1 84 21 be ac 98 db bd 7d 3b b5 3c 4a 4c 5f 3e
       -0.1577337 -0.10722479 0.022123093 0.21806446
0000c0 60 56 40 3e e8 fc b7 3d 7b 38 c6 bd d9 89 03 3e
       0.1878295 0.08983785 -0.096787415 0.12845553
0000d0 1b 50 96 3d f2 2a 3c 3e 7a 34 66 3d ba f8 d1 bd
       0.07339498 0.18375757 0.05620239 -0.10252519
0000e0 04 c2 c2 bc 6f c5 1c 3e ca 93 a0 3d 46 72 6e 3e
       -0.023774154 0.1530969 0.078406885 0.2328578
0000f0 f6 d7 1d 3e 08 3f 76 bd d5 95 fb 3d 9a 31 c2 bd
       0.15414414 -0.060118705 0.122844376 -0.09482117
000100 65 ca 5d 3b 92 88 12 3c cb 9b bd 3d 2a b8 8d bd
       0.003384256 0.008943694 0.09258231 -0.06919892
000110 12 dd 28 3e d6 b8 17 bb 1e 0c 16 3d bb 99 7d 3d
       0.16490582 -0.0023150942 0.03663265 0.061914187
000120 09 72 bb 3d 33 d4 e9 bd 29 65 0c 3e 2a 7b cf 3d
       0.0915261 -0.11417427 0.13710465 0.101309136
000130 f2 2e ec 3d ac 1e 85 3d 6d 43 4c 3e a9 24 bb bd
       0.115323916 0.06499991 0.19947596 -0.09137852
000140 e2 98 38 bd b8 d1 12 be 1a 09 47 3d 16 65 a7 bc
       -0.045067675 -0.14337814 0.048592664 -0.020433944
000150 ef fd 89 bc df 40 bd 3d ed 67 ed 3d c7 47 1b be
       -0.016844718 0.09240889 0.11592088 -0.151641
000160 d3 49 4b 3e a5 aa 6b 3e 53 42 9f bc 5c cf 75 bd
       0.1985238 0.23014314 -0.019440806 -0.060012206
000170 2f 2a 82 3e 89 2d c7 3d 99 e5 8b bd c3 a7 a3 3d
       0.2542281 0.09725482 -0.06830902 0.079909824
000180 dd 49 e3 3d 2c c0 2d 3e da 5b 5f bd 5c b6 6a bd
       0.11098073 0.16967839 -0.054530956 -0.057302818
000190 5a a6 f1 bd 95 88 38 bd 36 65 9e 3c 0b 45 d4 bd
       -0.11799307 -0.04505213 0.01933537 -0.103647314
0001a0 3e 90 82 bd 7b c4 2f 3d da 39 1e 3e b1 0d fd 3c
       -0.06375168 0.042911988 0.15451756 0.030890318
0001b0 b2 cc 86 3d d2 bf d7 3d 35 5a a5 bd e3 96 54 3e
       0.06582011 0.10534634 -0.08073846 0.20760684
0001c0 35 f7 11 3e 20 51 bf bd 7c 6f ec 3d 99 7f 4d 3e
       0.14254458 -0.09341645 0.115447015 0.20068206
0001d0 79 3a 3c 3d de 89 a5 3d b5 d7 e1 3d 9e 65 2f bd
       0.0459542 0.08082937 0.11027471 -0.04282152
0001e0 12 79 46 be 37 24 54 3c 00 d6 0a 3e c9 93 fe 3d
       -0.19382122 0.012948087 0.13558197 0.124305315
0001f0 8a 1f c8 bd 20 e1 4f 3e 9a fc 93 bd 2d 95 17 be
       -0.097716406 0.20300722 -0.07225914 -0.14803
000200 a6 e1 a8 3d ca 4d 61 bd 70 f3 83 bd 00 cb 89 bd
       0.08246164 -0.055005826 -0.064429164 -0.06728172
000210 f7 aa 87 3c 0b 8d 20 3e 30 8d 2c 3e b3 6d 95 bd
       0.016561015 0.15678804 0.16850734 -0.07296314
000220 0e 9a 68 3e a6 83 32 3e 89 9e 80 3d c6 2c 87 bd
       0.22715017 0.17433032 0.06280238 -0.06600337
000230 da ef 8d bd 50 b3 14 be 89 d4 2b 3d c1 7e 06 3e
       -0.06930514 -0.14521527 0.041950736 0.1313429
000240 32 b4 a8 bd 2a 88 09 be e8 9a 0d 3d 5e a2 03 3e
       -0.082374945 -0.13430849 0.03457156 0.12854907
000250 c5 00 85 3b 34 7d d5 bc 8b ac 22 be bc 97 09 be
       0.0040589296 -0.026060678 -0.15886132 -0.13436788
000260 2f ed d1 bd 26 ab b7 bd d9 31 20 be c0 02 1d be
       -0.10250317 -0.08968191 -0.15644015 -0.1533308
000270 5e a7 88 3d 50 49 3b 3d 79 86 f7 3d 35 62 b3 bd
       0.06672548 0.045724213 0.120861955 -0.08758966
000280 52 50 7a 3a af 6b e5 bd 7b a7 9a bd 2d a4 11 be
       0.0009548712 -0.1120218 -0.075514756 -0.14222784
000290 c5 58 71 3d 14 f5 c4 bd 31 bd 82 3e 01 cc 55 bd
       0.058922548 -0.096170574 0.25534967 -0.052196506
0002a0 d9 63 6e 3e 96 38 8c 3d d5 87 5c be 2f 56 f6 3d
       0.23280276 0.068467304 -0.21536191 0.12028157
0002b0 71 e2 da bd 8f 60 35 3d 1e 78 79 bd 13 b0 f7 3c
       -0.106877215 0.04428154 -0.06090557 0.030235326
0002c0 9d 35 37 3e 0c 96 4f bd 64 a3 3e 3e 70 60 16 3e
       0.17891546 -0.050680205 0.18617016 0.14685225
0002d0 10 54 49 3e b8 f3 d5 bd b7 a9 4b 3e 12 d3 39 3e
       0.19660974 -0.10446876 0.1988896 0.18146923
0002e0 d5 02 2f 3e d2 e4 c5 3d 28 59 24 bc 36 c1 13 3d
       0.17090924 0.09662785 -0.010031022 0.036072932
0002f0 b6 dd ca 3d 74 1d 73 3e 69 f5 cf 3c e9 1f d3 bd
       0.09905569 0.23741704 0.025385575 -0.10308821
000300 30 3f 58 3e e0 a7 f8 3d 29 34 bf bd 10 93 c7 3d
       0.21117854 0.121413946 -0.09336121 0.09744847
000310 78 00 e0 bd ae 1e f7 bd cd ef de bd 56 78 21 3d
       -0.109375894 -0.120663986 -0.10885582 0.039421402
000320 1d bf 81 bc 67 46 8f bd db 78 ae 3d b6 72 a9 3c
       -0.0158382 -0.0699585 0.08519145 0.020684581
000330 65 35 b3 bc 7b 3a a7 bd bb 65 21 3d e1 27 04 be
       -0.021876046 -0.08165451 0.03940366 -0.12905838
000340 85 ee e0 3c 65 64 cd bd a3 44 1f 3e 33 bd a5 bd
       0.027457485 -0.10028914 0.15553527 -0.080927275
000350 78 2e ed 3d 6c 6e f2 bc ba 19 07 3e d3 ae 3b be
       0.11581129 -0.029593669 0.13193408 -0.18328409
000360 1d f7 ae 3d 03 8a 8b 3d 32 6e aa bc 2a 06 0d 3e
       0.08543227 0.06813433 -0.020804498 0.13771883
000370 fb 75 c6 3d 17 5d ca bd 50 6f 3a be e0 5f 3a 3e
       0.09690472 -0.09881037 -0.18206525 0.18200636
000380 9f 5b fa bd cb 68 35 3e 46 f3 d7 3d 2d 90 41 3e
       -0.122245066 0.17715757 0.105444476 0.18902655
000390 6b 01 16 be 1d 9f f2 bd ab 96 0a be 57 23 18 3e
       -0.14648978 -0.11846755 -0.13534038 0.14857231
0003a0 d4 d7 42 3d 6c 10 15 3e b6 cd 1b be 2b 5b 22 3e
       0.04756911 0.14557046 -0.15215191 0.1585509
0003b0 88 77 fb bd 8b 36 44 3e 04 d4 df bd 9f aa b0 3b
       -0.12278658 0.19161431 -0.10929111 0.0053914334
0003c0 6a 23 80 bd 70 43 d2 3b 60 89 22 be 76 ca 3d 3e
       -0.06256755 0.0064167306 -0.15872717 0.18534264
0003d0 40 83 a6 bd 11 ec 0a be 88 bf 24 bd d7 f6 d4 3d
       -0.08130503 -0.13566615 -0.04022172 0.103986435
0003e0 1d 0f e0 3d 28 cd d3 3d 92 1a 2f be 54 d1 ac 3d
       0.10940383 0.10341865 -0.1709998 0.08438364
0003f0 b0 6e 1c bd c0 c0 0e bd 30 72 e3 bc 62 57 d0 bb
       -0.038191497 -0.03485179 -0.02776441 -0.006358073

out/MatMul_bias f4 [36]
000000 b9 3b 54 3c 61 f9 da 3c fb 84 11 bd 12 cf bd 3c
       0.012953692 0.026730241 -0.03552721 0.023170028
000010 07 37 72 bc 57 a2 15 bd 52 7d 15 bc 4a 52 b6 bc
       -0.014783627 -0.036531772 -0.009124117 -0.022256035
000020 c8 70 9e 3d b3 47 3f 3d f5 ca 0f bd 4b c5 8a 3d
       0.07736355 0.046699237 -0.035105664 0.06775912
000030 c2 8e 26 3e f4 47 4a bd b1 48 4f bc 56 2b 74 bb
       0.16265395 -0.049385026 -0.012651608 -0.0037257276
000040 61 fb 61 bb 36 7d 9a bd 67 c5 03 bd 1e a2 10 3d
       -0.003448211 -0.07543413 -0.03217068 0.035310857
000050 94 17 0d 3d 89 da fb bc 34 96 8a bd e1 ec 48 bd
       0.034446314 -0.030743854 -0.0676693 -0.04905403
000060 43 6a b6 bc e4 fe fa bc aa ed de bd 8d b2 dc 3c
       -0.022267466 -0.03063912 -0.108851746 0.026940608
000070 7b 1f 21 bc 35 45 ce bc 72 cd a5 3d 69 e3 de bd
       -0.009834166 -0.025179485 0.08095826 -0.10883219
000080 95 7f c6 3d 90 2b 2f bd 49 73 2e bd 92 eb 98 bd
       0.09692303 -0.042766154 -0.042590413 -0.074668065

out/kernel/transpose f4 [36, 128]
000000 6a 2c 82 3e 81 85 02 bf 24 2d f5 be 7b 9f 4f 3e
       0.2542451 -0.5098496 -0.47886002 0.2027568
000010 78 ae d4 be ef 43 85 3e f6 ba 9b 3e e3 ab 19 bf
       -0.4153936 0.26028392 0.30416077 -0.60027903
000020 c2 de 80 3e ca f6 6d bf fb 06 73 be ac b7 ed be
       0.2516995 -0.92954695 -0.23733132 -0.46429193
000030 77 20 18 bf 5e 41 d2 be 40 88 3b be 2c 75 1c bf
       -0.5942454 -0.41065496 -0.18313694 -0.6111629
000040 4c 07 96 3e 47 70 45 3e 1d 7b f5 be ad 75 20 be
       0.29302442 0.19281112 -0.4794549 -0.1566989
000050 f6 9f 23 bf a1 21 d2 be e9 4f be be ae 0c 48 3e
       -0.63915956 -0.41041282 -0.37170342 0.19536087
000060 1f d1 14 bf 6c 2e a5 3e 09 19 51 bf b3 b5 5e bc
       -0.58131593 0.3226198 -0.81678826 -0.013593125
000070 b0 4d 4b be 19 4f 4f 3e ae d1 0f bf b6 5a f4 3d
       -0.19853854 0.20245017 -0.5617932 0.11931364
000080 4b 7b fe be 0f 2d 2d bf e1 90 d1 be 32 db 87 3e
       -0.4970344 -0.6764688 -0.40930846 0.2653442
000090 20 57 bd 3d fc 49 c2 be 0b 4e 97 3e f2 63 71 3e
       0.092451334 -0.3794707 0.2955173 0.23573282
0000a0 9d d1 ef be a9 c2 43 bf 08 25 a7 3e 40 c0 7f 3e
       -0.4683961 -0.764689 0.3264544 0.24975681
0000b0 e3 08 03 be 76 67 c7 be 95 60 10 bf 18 aa 3d bf
       -0.12796359 -0.38946122 -0.5639737 -0.7408767
0000c0 02 db 8f be c2 97 7a bd 96 6a bd be fe 8b 97 be
       -0.28096777 -0.061179884 -0.3699538 -0.29598993
0000d0 ab 60 15 bf 8a 9a 6a bd 55 c6 a6 3d 7a 8c f1 be
       -0.5835063 -0.057276286 0.081432976 -0.47177488
0000e0 fb 0b fc be 3f 1b 8e 3e 05 c6 83 3e f3 2a c4 be
       -0.4922789 0.27755162 0.25737014 -0.38314018
0000f0 d9 d9 0e 3e d0 99 4e 3e b8 1e 60 3e 3d ff de be
       0.1395029 0.20175862 0.21886718 -0.43554106
000100 c4 5e 5b 3e d2 36 3c bf 00 2e 5e be ca bc 89 3e
       0.21422869 -0.7352115 -0.21697235 0.26901847
000110 45 ce 8b be fa ee 88 be d2 bb 9a 3e 7b 2c 7b 3e
       -0.2730581 -0.26744825 0.3022142 0.24528687
000120 54 c5 6a 3e 4e 86 95 be 69 97 06 bf 1b 21 21 bf
       0.22926837 -0.2920403 -0.52574784 -0.6294114
000130 5d e4 22 3e e9 d9 4c bf e0 8d 83 3e 8e 99 71 be
       0.15907426 -0.80020005 0.2569418 -0.23593733
000140 5e 17 35 3e a3 b8 96 3e 24 2f 5c 3e b5 50 36 3e
       0.17684695 0.29437742 0.21502358 0.17804225
000150 32 65 99 3e 6a 3a 2a bf 15 22 77 3d 8c c5 b4 3d
       0.29960018 -0.6649538 0.060335238 0.088267416
000160 ff 53 64 3e fa fd 9e be 73 63 a9 be ec 2b 5d be
       0.22297667 -0.31053144 -0.33083686 -0.21598786
000170 0d 92 84 be 17 bb e0 be 93 6f 14 bf 3a 2e 07 3e
       -0.25892678 -0.43892738 -0.5798275 0.13201228
000180 ba 78 9f be f0 f0 f4 3d 83 24 03 3e 71 00 70 3d
       -0.31146795 0.11960018 0.12806897 0.05859417
000190 d6 2a 48 3e 0f c4 77 bf f2 52 94 3e 39 e5 1e 3e
       0.1954759 -0.96783537 0.28969532 0.15517129
0001a0 51 ae 1b 3e a8 c9 e7 be 53 a0 44 be 3d 3c 24 bf
       0.15203215 -0.4527104 -0.19201784 -0.64154416
0001b0 7f 02 11 3e 46 fe 54 3e 63 86 8e be a5 b3 66 3e
       0.14161108 0.20800123 -0.27836904 0.22529466
0001c0 9e 27 2f bf 86 d0 27 3c e0 e7 a0 be 54 9d 5c 3e
       -0.68419826 0.010242587 -0.31426907 0.21544391
0001d0 dc 74 9c be 88 f0 a3 3e a0 4d 05 3e 91 b8 bd 3e
       -0.30557907 0.32019448 0.13017893 0.37054875
0001e0 3e 51 cc be 39 41 38 bf 70 ce c2 be 57 e5 db be
       -0.39905733 -0.7197452 -0.38048124 -0.4294841
0001f0 1f af 08 bf 95 49 9a 3e a1 24 59 be 58 91 0e bf
       -0.53392214 0.30134264 -0.21205379 -0.55690527
000200 f6 1a f4 bd 4d e0 17 3e 81 39 38 bf a4 b5 43 bf
       -0.11919205 0.14831658 -0.71962744 -0.76449037
000210 be 1b 04 3e b9 af 50 bf 41 5d a1 be 7f a3 30 be
       0.12901208 -0.8151813 -0.3151646 -0.17249869
000220 47 a6 26 3e cc 9a 81 3e 5f 4e 77 3e 7c ad 72 3e
       0.16274367 0.25313413 0.2415099 0.23698992
000230 3c 5f 5b 3e 8c 4e d7 be 80 fa a3 3e 33 63 8f 3d
       0.21423048 -0.42052114 0.32027054 0.070013426
000240 9a b2 64 bf 60 77 13 bf b9 e9 ba be c3 b5 91 3e
       -0.89335024 -0.57604027 -0.3650644 0.28458986
000250 e0 2e 51 bf 66 52 c4 be 10 77 6d 3e 8c c9 f2 be
       -0.8171215 -0.38344115 0.2318995 -0.47419393
000260 c1 91 47 bf 28 06 f1 be e7 3b ca be 12 9e 48 3e
       -0.7795678 -0.4707501 -0.39498827 0.19591549
000270 a8 83 da be 2b 86 12 be ba a0 b2 3e 26 86 30 be
       -0.4267857 -0.14308994 0.3488825 -0.17238674
000280 d0 85 c9 be 45 13 90 bd 20 63 bf be 7c 56 15 be
       -0.39359903 -0.07034925 -0.37380314 -0.14583772
000290 2d 50 97 be 9a db 4e 3e 66 42 51 3e 29 3a 80 be
       -0.29553357 0.20200959 0.20435485 -0.25044373
0002a0 58 c6 07 bf 0a 27 62 3e 27 03 ff be 96 cc d4 be
       -0.53037024 0.22085205 -0.49807093 -0.41562337
0002b0 8a 3e 7a be 1a ba ab bc c3 ce 29 3e ed 19 5e 3e
       -0.2443792 -0.020962764 0.1658278 0.21689577
0002c0 85 3c 80 3e 20 21 c3 be c2 c2 a1 3e 88 ef 8b 3e
       0.25046173 -0.3811121 0.315939 0.27331185
0002d0 08 8f dc be e8 0f c1 be 43 b6 38 3e dc 32 06 bf
       -0.43077874 -0.37707448 0.18038277 -0.52421355
0002e0 66 42 6d 3d a8 00 20 3e 68 af 22 bf ea dc 24 3e
       0.05792465 0.1562525 -0.635489 0.16099897
0002f0 11 6d ad be 71 6a e1 be 86 a3 6a be 77 03 88 3e
       -0.33872274 -0.4402652 -0.22913942 0.26565143
000300 fd 98 98 3e a8 c6 17 bf bc a0 a7 3e e9 fd 7c 3e
       0.2980422 -0.592875 0.32739818 0.24706234
000310 cb a5 00 bf b3 b6 86 3e b4 9e fc 3d 00 9e 0b bf
       -0.5025298 0.26311263 0.12334958 -0.54537964
000320 30 4a 2d 3d 22 d0 4a 3e 10 ec 84 3e 2a 0e e2 be
       0.04230708 0.19805959 0.2596135 -0.4415143
000330 64 49 e3 be 1d b3 7c 3e 9c dc e9 3d da 83 bd be
       -0.4439193 0.24677701 0.11419031 -0.37014657
000340 0e 2b 1b 3e eb b0 b1 3e 45 2a 2d bf 63 d0 0b bf
       0.15153143 0.3470529 -0.67642623 -0.5461485
000350 93 11 7e 3e 91 f6 50 3e 38 c9 33 bf 58 71 87 be
       0.24811392 0.20406558 -0.7022891 -0.26453662
000360 9d 1f 60 bf e3 7d 38 3e 88 ee 61 bf 36 7d fb be
       -0.8754824 0.18016772 -0.88254595 -0.49118966
000370 94 c4 f9 be c9 90 0d bf b6 01 d3 be 0c ba 3e 3e
       -0.4878279 -0.5529905 -0.41212243 0.18625659
000380 49 b7 51 bf 7a df 35 be e8 bc 2d bf 57 65 87 3e
       -0.81920296 -0.17761031 -0.67866373 0.26444504
000390 4e e5 74 3e fc bc 4b 3e 96 12 1c bf 7f 9c 78 3e
       0.23915598 0.1989631 -0.6096586 0.24278449
0003a0 03 12 f7 be 13 99 21 3e 13 d1 4f bf 52 f1 5f 3e
       -0.4825593 0.1578105 -0.81178397 0.218694
0003b0 93 1f 16 3e ef c5 10 bf d8 ca 3f be 0d b7 2a bf
       0.14660482 -0.5655202 -0.18729722 -0.66685563
0003c0 4c ac 23 bf de b4 bb 3e c7 1b 12 3e 99 cc b6 3e
       -0.6393478 0.36661428 0.14268409 0.3570297
0003d0 c7 88 c7 be a8 98 90 be c9 3c 25 3e a0 9c 91 3e
       -0.3897154 -0.28241467 0.16136469 0.28439808
0003e0 aa 54 59 3e e1 26 93 3e 7e 71 c9 be 24 8c 5d 3e
       0.21223703 0.287406 -0.393444 0.2163549
0003f0 4b 8c 3c be 18 b7 f4 be 8d 2b 74 3e c8 bf 96 be
       -0.18412893 -0.4779594 0.23844738 -0.29443192
