bots/en/Teresa.chatbot/converted_model.tflite (tflite, 460972 bytes, 4 tensors)

in/MatMul_bias f4 [128]
0.10473533 0.21020293 0.13688745 0.27866235 0.27541968 0.2353905 0.1543378 0.13312824
0.20168956 0.09377767 0.218897 0.1847164 0.14900276 0.24791415 0.22057478 0.18469152
0.32695138 0.1541598 0.22144602 0.12720348 0.17564945 0.05899774 0.17786369 0.2691426
0.20389234 0.21454185 0.11148787 0.24907906 0.13536216 0.19848672 0.18301146 0.2558007
0.20755562 0.2918695 0.23070247 0.27352232 0.25871694 0.114436775 0.16330029 0.15346946
0.26643214 0.26155415 0.2180469 0.29288274 0.17473932 0.08380622 0.27723175 0.20407866
0.27586666 0.19722769 0.22832015 0.23634754 0.26904863 0.25656366 0.122788355 0.088893905
0.098778404 0.30403855 0.21405895 0.10461621 0.31619242 0.29818332 0.26452947 0.18590133
0.26737404 0.21098962 0.23039493 0.20893463 0.21732709 0.26180226 0.22986327 0.2294932
0.17254221 0.16939276 0.23826174 0.15505706 0.22679324 0.25724706 0.1917967 0.19114318
0.23550391 0.2382936 0.23600838 0.25479895 0.2626781 0.13554236 0.34933054 0.29036552
0.34201518 0.27487218 0.15878381 0.14975654 0.1804599 0.20897014 0.17900017 0.13177122
0.2588086 0.12781818 0.18380326 0.12667605 0.13690312 0.1814491 0.13593663 0.10214413
0.27271178 0.2198211 0.25470933 0.28887424 0.1976047 0.10873242 0.29095015 0.21497826
0.18528143 0.1726917 0.29258254 0.27930087 0.29749537 0.20325218 0.19382823 0.24961199
0.15040031 0.19164336 0.14052382 0.20330164 0.13918763 0.23001291 0.23869203 0.18120646
00000000: 7a7f d63d 703f 573e 392c 0c3e d5ac 8e3e
00000010: cf03 8d3e 350a 713e ba0a 1e3e c552 083e
00000020: b587 4e3e 820e c03d 8926 603e 4c26 3d3e
00000030: 2e94 183e 35dd 7d3e 5bde 613e c61f 3d3e
00000040: 2c66 a73e 11dc 1d3e bfc2 623e a141 023e
00000050: 73dd 333e 9da7 713d e621 363e 0fcd 893e
00000060: 27c9 503e dcb0 5b3e c153 e43d 950e 7f3e
00000070: 619c 0a3e 1a40 4b3e 5b67 3b3e 4ff8 823e
00000080: 7689 543e eb6f 953e 453d 6c3e 1e0b 8c3e
00000090: 8c76 843e d45d ea3d 3138 273e 1927 1d3e
000000a0: cb69 883e 6dea 853e b047 5f3e baf4 953e
000000b0: ddee 323e 98a2 ab3d 52f1 8d3e fff9 503e
000000c0: 653e 8d3e 0ef6 493e c2cc 693e 1705 723e
000000d0: bec0 893e 505c 833e 7678 fb3d 020e b63d
000000e0: 554c ca3d f1aa 9b3e 4532 5b3e 0641 d63d
000000f0: f9e3 a13e 7cab 983e 6870 873e eb5c 3e3e
00000100: 40e5 883e aa0d 583e a6ec 6b3e f6f2 553e
00000110: fe8a 5e3e f20a 863e 4761 6b3e 4400 6b3e
00000120: e8ae 303e 4c75 2d3e e3fa 733e 47c7 1e3e
00000130: 7d3c 683e e3b5 833e 5b66 443e 0abb 433e
00000140: f027 713e 3d03 743e 2eac 713e 0275 823e
00000150: be7d 863e 9ecb 0a3e 74db b23e caaa 943e
00000160: 9d1c af3e 0cbc 8c3e 3998 223e c759 193e
00000170: 7bca 383e 45fc 553e d24b 373e 09ef 063e
00000180: 9082 843e c5e2 023e ec36 3c3e 5eb7 013e
00000190: 5530 0c3e cbcd 393e f932 0b3e f130 d13d
000001a0: e1a0 8b3e c818 613e 4369 823e 53e7 933e
000001b0: e358 4a3e 1aaf de3d 6bf7 943e 4323 5c3e
000001c0: 6aba 3d3e 18d6 303e 61cd 953e 8600 8f3e
000001d0: 5051 983e 5721 503e e87a 463e 499a 7f3e
000001e0: 8a02 1a3e 283e 443e 7ae5 0f3e 4e2e 503e
000001f0: 3487 0e3e 8188 6b3e af6b 743e 308e 393e

in/kernel/transpose f4 [128, 860]
-0.11699942 -0.081069455 0.057472248 0.041814845 0.16280344 0.16130292 -0.062274206 -0.19629017
-0.01817654 -0.039272916 -0.11377691 0.17296378 -0.027387034 0.15834829 -0.08867759 0.1884734
-0.11153562 -0.11400533 -0.13090658 0.21009491 -0.11445491 0.049632527 0.10382398 0.061436582
-0.036900897 0.08692615 -0.05784315 0.1426372 0.12135181 -0.13514791 0.22644027 0.22767282
0.091729626 0.074742176 -0.15585136 -0.20468889 0.20400117 0.073263094 0.26637053 0.18260892
0.07395699 0.02773589 -0.0040726727 0.16237918 0.023186876 -0.031060258 -0.13050957 -0.11428766
-0.09159556 0.21235259 -0.0144762 0.12189849 -0.009992255 0.032133926 -0.11456064 0.10237746
-0.112813786 0.043870445 -0.05447445 -0.0859063 0.070588425 -0.0947479 0.19624858 -0.023691695
0.026724562 -0.053224947 -0.16887678 -0.13695382 -0.039074074 -0.07850273 0.031456105 0.048507385
-0.2267705 0.16350147 0.19149224 -0.15151878 -0.09305671 -0.11263613 -0.04790392 -0.07569363
-0.014390126 0.13507172 0.11936719 0.052364953 -0.0929122 0.19673191 -0.028151717 0.18772762
-0.021843337 0.011474698 0.09598788 0.14678036 0.15803006 0.085357554 0.0988614 0.030468076
0.15489519 -0.04099023 -0.19751343 0.1769784 0.13377534 0.13239251 0.15646267 -0.19579658
-0.065186605 0.10852411 0.20890017 -0.06823833 -0.20462334 0.016679853 -0.025837516 0.08449841
0.02227359 -0.031199373 -0.07948749 0.102604896 -0.04704093 -0.09548675 0.08573101 0.19399883
0.03572485 0.00403128 -0.06118468 -0.05012723 -0.023106992 0.16681086 0.14204715 -0.020178346
0.18360901 -0.102831855 -0.042888176 -0.0074745603 0.037103307 0.1336887 -0.019169828 -0.12913176
-0.11359564 -0.11699888 -0.115642935 0.1974571 -0.12990709 0.027424304 -0.16398723 -0.010391479
0.27206352 -0.10624967 0.22355933 0.15574063 -0.04544477 0.08216498 -0.048533443 -0.053513758
0.08854063 -0.0488113 -0.013696331 -0.19805247 0.0018757517 0.17906195 -0.048509333 -0.11662669
0.12589449 0.08423107 0.08221269 0.09182678 0.15488318 0.084210165 0.19674379 -0.07172503
0.15283471 0.19785929 -0.020802319 0.07722486 0.09898297 -0.022524485 0.046326175 0.08025966
-0.025499731 -0.07013909 0.1316211 -0.088420294 -0.088818185 0.038235888 0.19175713 0.0842364
-0.09555895 -0.02353149 -0.07610357 0.07213796 0.14361863 0.12846543 -0.11329545 0.20677714
-0.11984933 0.18519102 0.032784317 -0.09124175 0.097350106 -0.030666906 -0.11530126 -0.029283753
0.028594665 -0.055215094 -0.16822958 0.21269363 -0.16692893 -0.050332326 -0.020336887 -0.070778735
-0.05137474 0.19886757 -0.09928961 0.18426314 -0.0099583035 -0.1899113 0.030947728 0.17750123
0.13583864 0.18837562 0.07410989 0.17844471 0.10117638 0.15671824 -0.024487283 -0.12057981
0.20393184 -0.09948578 -0.040755633 -0.12993793 -0.061317507 0.15417242 -0.053769987 -0.025657494
0.07031413 0.08065959 -0.18178774 -0.07096771 -0.053919427 0.03918238 0.12491788 0.024612665
-0.0845746 0.04991197 -0.03281095 -0.113698155 -0.11466178 -0.04230997 -0.10538122 -0.1180034
-0.112595074 -0.11396179 -0.040019806 0.020011045 -0.009314342 -0.10915373 0.07404688 0.19345321
00000000: 649d efbd be07 a6bd 0568 6b3d 0b46 2b3d
00000010: f2b5 263e 982c 253e 3d13 7fbd 4a00 49be
00000020: f8e6 94bc a3dc 20bd de03 e9bd 6b1d 313e
00000030: c65a e0bc 0e26 223e 999c b5bd 2cff 403e
00000040: ca6c e4bd a07b e9bd 600c 06be 1f23 573e
00000050: 5667 eabd 7a4b 4b3d aba1 d43d eda4 7b3d
00000060: 6525 17bd 5606 b23d f0ec 6cbd 7c0f 123e
00000070: 4c87 f83d 3764 0abe f5df 673e 1023 693e
00000080: bedc bb3d 6d12 993d 8097 1fbe f799 51be
00000090: afe5 503e f60a 963d b861 883e d5fd 3a3e
000000a0: c376 973d 6136 e33c 0e74 85bb ba46 263e
000000b0: 67f2 bd3c 1572 febc 4da4 05be a60f eabd
000000c0: 7496 bbbd f572 593e 952d 6dbc eaa5 f93d
000000d0: 8eb6 23bc dd9e 033d c59e eabd 46ab d13d
000000e0: ea0a e7bd 7fb1 333d 9a20 5fbd a4ef afbd
000000f0: aa90 903d 300b c2bd 63f5 483e 1615 c2bc
00000100: 78ed da3c 6702 5abd 09ee 2cbe 9f3d 0cbe
00000110: 230c 20bd 0ac6 a0bd 1ed8 003d aeaf 463d
00000120: 8736 68be ee6c 273e 8b16 443e bd27 1bbe
00000130: 8494 bebd c5ad e6bd e736 44bd 4305 9bbd
00000140: 90c4 6bbc 3e50 0a3e c976 f43d a27c 563d
00000150: c048 bebd 1774 493e 6e9e e6bc ab3b 403e
00000160: ccf0 b2bc 5f00 3c3c 4b95 c43d 974d 163e
00000170: a2d2 213e f1cf ae3d d877 ca3d 3098 f93c
00000180: d89c 1e3e 5fe5 27bd f640 4abe d339 353e
00000190: 67fc 083e e791 073e c037 203e e67e 48be
000001a0: 8e80 85bd e341 de3d ede9 553e 8ac0 8bbd
000001b0: c888 51be 30a4 883c 33a9 d3bc 810d ad3d
000001c0: 1b77 b63c d495 ffbc 56ca a2bd 8422 d23d
000001d0: fdad 40bd 8f8e c3bd bd93 af3d a1a7 463e
000001e0: 3854 123d d418 843b c99c 7abd 3652 4dbd
000001f0: e04a bdbc 77d0 2a3e cf74 113e 0f4d a5bc
00000200: 0004 3c3e 8299 d2bd 83ab 2fbd 28ed f4bb
00000210: a3f9 173d b1e5 083e 0b0a 9dbc 1e3b 04be
00000220: d5a4 e8bd 1c9d efbd 34d6 ecbd 3232 4a3e
00000230: 5d06 05be efa8 e03c 45ec 27be 0641 2abc
00000240: e94b 8b3e 6d99 d9bd bdec 643e 797a 1f3e
00000250: 4c24 3abd 1d46 a83d 01cb 46bd 3e31 5bbd
00000260: ca54 b53d 5cee 47bd 9366 60bc 44ce 4abe
00000270: c8db f53a 045c 373e b9b1 46bd f9d9 eebd
00000280: 7cea 003e 5781 ac3d 205f a83d ae0f bc3d
00000290: b299 1e3e 6176 ac3d 3477 493e 93e4 92bd
000002a0: b480 1c3e a09b 4a3e a069 aabc 1128 9e3d
000002b0: 95b7 ca3d 4585 b8bc 84c0 3d3d 2d5f a43d
000002c0: d0e4 d0bc 15a5 8fbd aec7 063e b315 b5bd
000002d0: 4fe6 b5bd 3c9d 1c3d fb5b 443e 2284 ac3d
000002e0: 69b4 c3bd 1cc5 c0bc 30dc 9bbd 11bd 933d
000002f0: c310 133e 718c 033e 7207 e8bd 63bd 533e
00000300: 9173 f5bd b7a2 3d3e d948 063d f4dc babd
00000310: 7e5f c73d 2a39 fbbc 1123 ecbd 7be4 efbc
00000320: 5c3f ea3c 3929 62bd 6044 2cbe 5ccc 593e
00000330: 6bef 2abe 4529 4ebd 8b99 a6bc 71f4 90bd
00000340: 526e 52bd f1a3 4b3e 5a58 cbbd 7aaf 3c3e
00000350: 2728 23bc 1c78 42be 1786 fd3c e2c2 353e
00000360: 4919 0b3e 8ae5 403e edc6 973d 36ba 363e
00000370: 9035 cf3d bf7a 203e 8e99 c8bc 8cf2 f6bd
00000380: 82d3 503e 33bf cbbd 61ef 26bd 730e 05be
00000390: 1128 7bbd 60df 1d3e eb3d 5cbd aa2f d2bc
000003a0: db00 903d db30 a53d 9126 3abe 8557 91bd
000003b0: 9eda 5cbd b47d 203d f2d4 ff3d 80a0 c93c
000003c0: 7335 adbd 7e70 4c3d c664 06bd 94da e8bd
000003d0: ccd3 eabd 384d 2dbd 1cd2 d7bd c4ab f1bd
000003e0: 3f98 e6bd cd64 e9bd cfeb 23bd 34ee a33c
000003f0: 2f9b 18bc fe8b dfbd e4a5 973d 9918 463e

out/MatMul_bias f4 [37]
-0.0055467025 -0.0381295 -0.05808919 0.018377434 -0.030779168 -0.06647582 -0.06477683 -0.05504537
-0.010448956 -0.17593597 0.08988308 0.021860015 0.03328708 -0.0025462252 0.023705944 -0.011187293
-0.04752675 -0.067095995 -0.04906118 0.0038709438 -0.0410499 0.10625103 -0.015050005 0.034258045
-0.04408601 0.16206841 -0.065878704 -0.039579537 -0.066133976 0.07772714 -0.047854602 -0.005400921
-0.0042607896 0.05236408 -0.083796725 -0.025926178 -0.069817245
00000000: 1dc1 b5bb ae2d 1cbd eeee 6dbd 468c 963c
00000010: 9824 fcbc 7a24 88bd b7a9 84bd 4177 61bd
00000020: 1932 2bbc 8f28 34be 9f14 b83d c613 b33c
00000030: 0858 083d 92de 26bb f832 c23c e84a 37bc
00000040: 69ab 42bd a069 89bd 60f4 48bd a9af 7d3b
00000050: f123 28bd 249a d93d 4c94 76bc 2a52 0c3d
00000060: 8893 34bd 43f5 253e 6aeb 86bd 271e 22bd
00000070: 4071 87bd 682f 9f3d 3003 44bd 36fa b0bb
00000080: 189e 8bbb b87b 563d 9e9d abbd 2363 d4bc
00000090: 58fc 8ebd

out/kernel/transpose f4 [37, 128]
0.13365045 -0.3531566 0.23756187 0.23984425 -0.2882372 -0.5520042 0.098524876 0.19574264
0.2942425 0.21280909 -0.59949064 -0.44187567 0.2330643 -0.09624916 0.19661523 0.32663327
-0.2551283 -0.39078662 -0.8840017 -0.24551825 0.21544136 0.2953186 0.1414903 -1.047599
-0.25166458 -0.28329143 0.20050192 0.11909064 -0.029485948 -0.89590496 0.17387025 0.36763865
0.2873597 -0.6067351 -0.5250644 -0.49442887 -0.7501652 0.34836644 0.11090793 -0.023316465
-0.5700301 -0.20539017 0.28616452 0.13770035 0.32804543 -0.64208674 -0.7881095 0.21763825
0.05616713 -0.75197506 -0.5315286 0.21108535 0.17326422 0.1977348 0.13907507 -0.3758747
0.3687972 0.2488407 -0.44609535 0.30901837 0.26129174 -0.20910859 -0.39363852 0.25551683
-0.42520458 -0.6228744 0.30922064 0.26815048 0.21598217 0.057540856 0.26913935 -0.12800913
-0.882304 -0.25510162 0.21273094 -0.6662942 -0.6441459 0.22781877 -0.59211093 0.19340643
-0.33076492 -0.59393114 -0.5270775 0.18318668 -0.9328697 0.21914847 -0.4091923 0.20838732
-0.44514704 0.23688848 0.25132364 -0.3873255 -0.7514516 -0.30489784 -0.6434068 0.016961457
-0.35386094 -0.869615 -0.21888506 -0.41490138 -0.44054168 -0.69434893 -0.4373453 0.119835265
0.3118431 -0.45552304 -0.68425655 0.15424192 -0.9156717 -0.7504336 0.28498593 -0.38062406
0.22371551 0.2777153 -0.6453467 -0.3328238 -0.39071062 0.05341251 -0.6272166 -0.32285127
0.19174936 -0.6186009 -0.35946202 0.24533468 -0.67005277 -0.5345204 0.26396906 -0.55940247
0.046835113 -0.28787717 -0.45854068 -0.4087561 -0.25429267 -0.11528357 0.02477757 -0.42535684
-0.36110628 -0.39209056 -0.4411745 0.18201707 0.13951652 -0.5120969 -0.7322711 -0.47334838
0.26460433 -0.44975847 0.30653512 -0.86525935 -0.20729466 0.29875025 0.29487473 0.20111258
0.10742279 0.29869723 -0.06743513 -0.31952995 0.20986968 0.20509835 0.34937835 0.25572717
0.30409467 -0.24464871 -0.50902253 0.12476186 -0.41161326 0.32313183 -0.5598395 0.12492222
0.21159337 -1.0672163 -0.23765409 0.20144382 -0.44874284 -0.7644349 0.13654216 0.14817724
0.2773923 0.22741905 -0.46906078 -0.77615815 -0.58990836 0.08591658 0.27431017 -0.09170748
-0.62453157 0.35969037 0.083859995 -0.39116955 0.18288852 -0.27036372 -0.51591134 -0.17026986
0.15834951 -0.094153844 0.2806093 0.10302825 -0.3435362 -0.40533572 -0.58419836 0.22574341
-0.16804422 -0.79966617 0.22435196 0.2318402 -0.36562657 -0.6650152 -0.39871174 -0.31581557
-0.78446877 0.13004398 0.3185948 -0.55906826 0.22368976 -0.60898143 -0.6423683 0.023129486
0.11155203 -0.040291525 -0.39525908 0.22126305 0.034026567 0.40040806 0.19558664 -0.39197364
0.09055739 -0.1767455 -0.43657368 -0.54091895 -0.06793956 -0.08379081 -0.2839608 0.1043502
-0.702821 0.28500694 -0.6435848 -0.6673941 0.29429713 0.36454478 -0.55390555 -0.5106777
0.27701432 0.20891963 -0.49926496 -0.7835333 0.2295693 0.30859402 0.21590596 0.2921359
-0.4512074 -0.6931367 -0.38652578 0.35799968 -0.62522155 0.25808674 0.06743798 -0.91425014
00000000: aadb 083e f1d0 b4be 6b43 733e bb99 753e
00000010: d493 93be 2650 0dbf 69c7 c93d c270 483e
00000020: f4a6 963e a0ea 593e 3878 19bf 873d e2be
00000030: 68a8 6e3e 481e c5bd 8155 493e 7a3c a73e
00000040: 2da0 82be 2f15 c8be ef4d 62bf 2369 7bbe
00000050: a99c 5c3e 0034 973e d5e2 103e b917 86bf
00000060: 2eda 80be 930b 91be 6050 4d3e cbe5 f33d
00000070: 848c f1bc 075a 65bf 0b0b 323e 223b bc3e
00000080: d020 933e fe52 1bbf 9f6a 06bf c825 fdbe
00000090: d40a 40bf 165d b23e b223 e33d 2c02 bfbc
000000a0: 7eed 11bf cd51 52be 2884 923e 5201 0d3e
000000b0: 92f5 a73e cc5f 24bf 8bc1 49bf 90dc 5e3e
000000c0: 810f 663d 7081 40bf 4212 08bf c226 583e
000000d0: 2d6c 313e fe7a 4a3e b269 0e3e a672 c0be
000000e0: fdd2 bc3e 19d0 7e3e 9c66 e4be a837 9e3e
000000f0: 08c8 853e 9020 56be fd8a c9be 1ad3 823e
00000100: 6ab4 d9be b274 1fbf 2b52 9e3e 054b 893e
00000110: 6e2a 5d3e f6af 6b3d a2cc 893e d314 03be
00000120: adde 61bf ae9c 82be 24d6 593e 4292 2abf
00000130: bfe6 24bf 5349 693e 9594 17bf 560c 463e
00000140: 055a a9be df0b 18bf 8dee 06bf 4a95 3b3e
00000150: 8cd0 6ebf 7568 603e a781 d1be 7c63 553e
00000160: 50ea e3be e592 723e 7ead 803e 874f c6be
00000170: 225f 40bf 921b 9cbe 4fb6 24bf c1f2 8a3c
00000180: 432d b5be 179f 5ebf 6823 60be f46d d4be
00000190: ae8e e1be dac0 31bf b9eb dfbe 316c f53d
000001a0: e6a9 9f3e 513a e9be 702b 2fbf 98f1 1d3e
000001b0: 7669 6abf 6b1c 40bf ade9 913e 28e1 c2be
000001c0: ae15 653e b330 8e3e 7135 25bf e267 aabe
000001d0: 390b c8be 13c7 5a3d 4491 20bf c34c a5be
000001e0: f259 443e a15c 1ebf 680b b8be 0439 7b3e
000001f0: 9488 2bbf 54d6 08bf f426 873e 0035 0fbf
00000200: 2dd6 3f3d a364 93be d8c5 eabe 7b48 d1be
00000210: a632 82be cb19 ecbd 55fa ca3c 5fc8 d9be
00000220: ece2 b8be 18c0 c8be a0e1 e1be af62 3a3e
00000230: 6bdd 0e3e c818 03bf 1e76 3bbf b85a f2be
00000240: 387a 873e be46 e6be 2cf2 9c3e a381 5dbf
00000250: 0d45 54be cbf5 983e d2f9 963e 75f0 4d3e
00000260: 7b00 dc3d d8ee 983e 6e1b 8abd 6e99 a3be
00000270: 14e8 563e 4d05 523e b8e1 b23e acee 823e
00000280: 4cb2 9b3e 3185 7abe 4d4f 02bf 2583 ff3d
00000290: f9be d2be 8971 a53e a451 0fbf 39d7 ff3d
000002a0: efab 583e 8b9a 88bf 985b 73be 4a47 4e3e
000002b0: 9fc1 e5be 01b2 43bf b5d1 0b3e c6bb 173e
000002c0: 5d06 8e3e 8ae0 683e bc28 f0be 4db2 46bf
000002d0: 3c04 17bf 08f5 af3d 6272 8c3e 22d1 bbbd
000002e0: 4de1 1fbf 5629 b83e cabe ab3d 6047 c8be
000002f0: 2147 3b3e 1d6d 8abe c412 04bf 395b 2ebe
00000300: 6026 223e bbd3 c0bd 06ac 8f3e 7a00 d33d
00000310: fae3 afbe 2a88 cfbe 068e 15bf 4829 673e
00000320: c913 2cbe ecb6 4cbf 85bc 653e 8467 6d3e
00000330: 6833 bbbe 703e 2abf f223 ccbe 94b2 a1be
00000340: f2d2 48bf 402a 053e dc1e a33e 191f 0fbf
00000350: ee0e 653e 35e6 1bbf 4072 24bf 0c7a bd3c
00000360: 6475 e43d ba08 25bd 665f cabe c892 623e
00000370: 715f 0b3d 4902 cd3e dd47 483e c5b0 c8be
00000380: 2776 b93d c6fc 34be 9686 dfbe aa79 0abf
00000390: e523 8bbd 849a abbd 4f63 91be 8fb5 d53d
000003a0: 14ec 33bf 6eec 913e f9c1 24bf 57da 2abf
000003b0: 1dae 963e 9da5 ba3e c1cc 0dbf c6bb 02bf
000003c0: d2d4 8d3e 07ef 553e a89f ffbe a395 48bf
000003d0: 3714 6b3e 0900 9e3e 7416 5d3e d692 953e
000003e0: a804 e7be 6871 31bf b5e6 c5be bc4b b73e
000003f0: 850e 20bf f223 843e ec1c 8a3d 4c0c 6abf
