bots/ru/Chanel.chatbot/converted_model.tflite (tflite, 489168 bytes, 4 tensors)

in/MatMul_bias f4 [128]
0	0x3e55591c	0.20834774
1	0x3e53d068	0.2068497
2	0x3e455928	0.19272292
3	0x3e7c6ed9	0.2465166
4	0x3e495005	0.19659431
5	0x3e373b2c	0.17893666
6	0x3e82d00c	0.25549352
7	0x3e2ed794	0.17074424
8	0x3e4b39f8	0.19846332
9	0x3e65a8e6	0.22427711
10	0x3e3bbe07	0.18334208
11	0x3e589d9b	0.21153872
12	0x3e83a9f6	0.25715607
13	0x3e60e1a7	0.2196108
14	0x3e6961f0	0.22791266
15	0x3e646700	0.22304916
16	0x3e6d2397	0.23158108
17	0x3e7df0f2	0.24798945
18	0x3e7d9eeb	0.24767654
19	0x3e4c1dba	0.19933215
20	0x3e51fcfc	0.20506662
21	0x3e3eea96	0.18644175
22	0x3e555feb	0.20837371
23	0x3e1bc0b5	0.1521023
24	0x3e7c92a4	0.24665314
25	0x3e601098	0.2188133
26	0x3e71807f	0.23584174
27	0x3e6589fa	0.22415915
28	0x3e49fe31	0.19725873
29	0x3e59fca1	0.21287777
30	0x3e53247a	0.20619383
31	0x3e63b28e	0.22236082
32	0x3e584a0a	0.21121994
33	0x3e474725	0.19460733
34	0x3e60b5d5	0.21944363
35	0x3e8194bf	0.25308797
36	0x3e48748e	0.19575712
37	0x3e353bc2	0.17698577
38	0x3e4cb379	0.19990338
39	0x3e278fc8	0.16363442
40	0x3e5582ee	0.20850727
41	0x3e4790ea	0.19488874
42	0x3e5672f4	0.20942289
43	0x3e665bdf	0.22495984
44	0x3e31ddde	0.17369792
45	0x3e68954f	0.22713207
46	0x3e650c1d	0.22367902
47	0x3e1c6540	0.15272999
48	0x3e7c6a5e	0.24649951
49	0x3e40a9c3	0.18814759
50	0x3e326a5b	0.17423384
51	0x3e4bca64	0.19901425
52	0x3e60e51c	0.21962398
53	0x3e761fe1	0.24035598
54	0x3e749d4d	0.2388813
55	0x3e850a41	0.25984386
56	0x3e3e4dd2	0.18584374
57	0x3e21034a	0.15723911
58	0x3e81e601	0.25370792
59	0x3e81a3d2	0.25320297
60	0x3e4f507d	0.20245548
61	0x3e4d2a51	0.20035674
62	0x3e3b74ae	0.18306229
63	0x3e564a58	0.20926797
64	0x3e15c379	0.14625348
65	0x3e4078ee	0.18796131
66	0x3e372541	0.17885305
67	0x3e84c3a5	0.25930515
68	0x3e4b525f	0.19855641
69	0x3e39783d	0.18112274
70	0x3e3fe40e	0.1873934
71	0x3e35bc21	0.17747547
72	0x3e7c2a13	0.24625425
73	0x3e331ea5	0.17492159
74	0x3e88bb84	0.26705563
75	0x3e54888e	0.20755216
76	0x3e587791	0.21139361
77	0x3e6bec16	0.23039278
78	0x3e65c2b2	0.22437552
79	0x3e6d3484	0.23164564
80	0x3e55a31c	0.20863003
81	0x3e5d3f43	0.21606164
82	0x3e5054ea	0.20344892
83	0x3e330be8	0.1748501
84	0x3e758e69	0.23980106
85	0x3e6b7ec5	0.22997577
86	0x3e622c4d	0.22087212
87	0x3e653cd5	0.22386487
88	0x3e387550	0.18013501
89	0x3e369478	0.17830074
90	0x3e6362bb	0.22205631
91	0x3e5f9d77	0.21837412
92	0x3e513384	0.20429808
93	0x3e608ab2	0.21927908
94	0x3e4d2e2b	0.20037143
95	0x3e516273	0.20447712
96	0x3e3b5930	0.18295741
97	0x3e297bfd	0.16551204
98	0x3e567e84	0.209467
99	0x3e521931	0.20517422
100	0x3e2fe649	0.1717769
101	0x3e49c0fb	0.19702522
102	0x3e4056ca	0.18783107
103	0x3e45021e	0.19239089
104	0x3e2d7224	0.16938072
105	0x3e307977	0.17233835
106	0x3e49f674	0.1972292
107	0x3e6411d6	0.22272429
108	0x3e248820	0.16067553
109	0x3e66d00f	0.22540306
110	0x3e8011b5	0.2501351
111	0x3e1f7dc7	0.15575324
112	0x3e43edfc	0.19133753
113	0x3e884da9	0.2662175
114	0x3e486f19	0.1957363
115	0x3e3c2760	0.18374395
116	0x3e5de19f	0.21668099
117	0x3e82fc45	0.2558309
118	0x3e90a6d6	0.28252286
119	0x3e607023	0.21917777
120	0x3e649988	0.22324193
121	0x3e52dc06	0.20591745
122	0x3e214a38	0.15750968
123	0x3e5a50de	0.21319911
124	0x3e50b632	0.20382002
125	0x3e553583	0.20821194
126	0x3e69e2bd	0.228404
127	0x3e3675ca	0.1781837

in/kernel/transpose f4 [128, 906]
0	0x3cd421db	0.02589505
1	0x3e46b9e1	0.19406845
2	0x3ddbeaea	0.10738166
3	0x3daa5874	0.08317652
4	0x3ddd01f2	0.10791387
5	0xbd73c709	-0.059515987
6	0x3d254925	0.04035296
7	0x3c69cf99	0.014270687
8	0xbdda7d52	-0.10668434
9	0xbe251ea1	-0.16124965
10	0xbc460a7f	-0.012087463
11	0x3c8f41f9	0.017487513
12	0x3e3279ec	0.17429322
13	0x3ddfd362	0.1092899
14	0xbd3753f0	-0.044757783
15	0xbddb4b20	-0.10707688
16	0xbdd02729	-0.10163719
17	0x3cb078b0	0.021541923
18	0x3d89b700	0.067243576
19	0x3dbe7019	0.09298725
20	0x3de935e4	0.11387232
21	0xbd4d559e	-0.05013048
22	0xbdb4a2df	-0.08820128
23	0x3e4a9e2a	0.19786897
24	0xbd0f4d04	-0.034985557
25	0x3df485ae	0.1193956
26	0x3df4c44c	0.11951503
27	0xbe261ec4	-0.16222674
28	0xbdfa609d	-0.12225459
29	0xbe11e900	-0.14249039
30	0xbddae848	-0.106888354
31	0xbe485b20	-0.19566011
32	0x3b839391	0.004015394
33	0x3e6dcda1	0.23222972
34	0x3e2697cb	0.16268842
35	0xbd83a0af	-0.06427132
36	0x3e1be2ef	0.15223287
37	0x3dd7a26b	0.10529026
38	0xbe466ee6	-0.19378242
39	0x3e369084	0.17828566
40	0xbd12e7a7	-0.035865452
41	0x3da34638	0.079723775
42	0xbb9c4f7b	-0.004770217
43	0xbdb85011	-0.089996465
44	0x3d92db4e	0.07170735
45	0x3dc84038	0.09777874
46	0x3e287d0b	0.1645395
47	0xbd4419e0	-0.04787624
48	0x3e1008ae	0.14065811
49	0xbdd38dfe	-0.10329817
50	0xbe01ada7	-0.126639
51	0xbdf1924c	-0.11795482
52	0x3e18b14b	0.14911382
53	0x3dd641bb	0.10461756
54	0x3d900331	0.07031859
55	0x3e124128	0.14282668
56	0x3e3a17a4	0.1817308
57	0x3ddd3f1d	0.108030535
58	0x3d967ba7	0.073478036
59	0x3d6bf7cc	0.057609364
60	0x3de28613	0.11060729
61	0x3d34d7ac	0.044150993
62	0xbdeb70ff	-0.11496162
63	0xbd72e77f	-0.059302803
64	0x3e113658	0.14180887
65	0x3dd95c0f	0.10613262
66	0x3e0a6db0	0.13518405
67	0x3dc396c6	0.09550242
68	0x3db3a775	0.08772174
69	0x3ca7057f	0.020388363
70	0x3cd4d791	0.025981696
71	0x3dc106dd	0.09425137
72	0x3dca8385	0.098883666
73	0xbe155ecf	-0.14586948
74	0x3e1baf0e	0.15203497
75	0x3e0f34c5	0.13984974
76	0x3e2174a0	0.15767145
77	0xbdb01fa5	-0.08599786
78	0xbe23fc21	-0.16014148
79	0xbdac1ffe	-0.084045395
80	0x3d69fcc8	0.057125837
81	0xbcd1cd69	-0.025610643
82	0x3d843909	0.06456191
83	0x3c6a3e4d	0.01429708
84	0x3d0c6707	0.034277942
85	0x3c4de3f8	0.012566559
86	0xbe185f8e	-0.14880201
87	0x3e293616	0.16524538
88	0x3e21b453	0.15791444
89	0xbd5ccace	-0.053904347
90	0xbd920e1e	-0.07131599
91	0x3e3df35b	0.18549864
92	0x3ddc0675	0.10743419
93	0x3d48e930	0.04905051
94	0xbd63b49b	-0.05559216
95	0xbdaf2070	-0.08551109
96	0xbca2bf72	-0.019866679
97	0xbdc41d4c	-0.095759004
98	0x3dde7856	0.10862796
99	0xbdfc685d	-0.12324593
100	0x3de8ac19	0.1136095
101	0xbdeaa8a9	-0.114579506
102	0xbcc9abce	-0.024618056
103	0x3e5d0e72	0.21587542
104	0xbdec8a4b	-0.11549815
105	0x3d9198ee	0.07109247
106	0xbe26c04c	-0.16284293
107	0x3e263d8b	0.16234414
108	0x3d5ade5e	0.053434722
109	0xbd585c04	-0.052822128
110	0x3d9bb399	0.07602615
111	0x3d90d007	0.07070928
112	0xbdac9ad7	-0.08427971
113	0x3e49d028	0.19708312
114	0x3d3b31f9	0.045701955
115	0x3e19ffe5	0.15039022
116	0x3ca0cc92	0.019628797
117	0x3de69716	0.11259286
118	0x3e5ccf9e	0.21563575
119	0x3ae64f56	0.0017571251
120	0xbe577c91	-0.21043612
121	0xbcab519c	-0.020912938
122	0xbcb721e7	-0.022355033
123	0x3d6deba6	0.05808606
124	0x3cc20505	0.023684034
125	0x3e0045c3	0.12526612
126	0x3e73cd8b	0.23808877
127	0x3d3c6176	0.045991383
128	0xbdf7cd11	-0.1209966
129	0x3dd4aa8e	0.10384093
130	0xbd529150	-0.051408112
131	0x3df6296d	0.1201962
132	0x3e20eb4a	0.15714756
133	0xbd8f8bec	-0.0700911
134	0x3dbad406	0.091224715
135	0x3d80fdfd	0.062984444
136	0x3d9e0ad4	0.07716909
137	0x3c8e1a6c	0.017346583
138	0x3e4a535d	0.19758363
139	0xbd2778d2	-0.040886708
140	0xbe173341	-0.14765646
141	0xbc9f0c42	-0.019415025
142	0xbdb8b482	-0.09018804
143	0xbd393aad	-0.045221973
144	0xbe1d1b2c	-0.15342396
145	0x3e82dbc2	0.25558287
146	0xbb82cb23	-0.003991501
147	0x3e2caee2	0.16863587
148	0xbd90a027	-0.07061797
149	0x3d68ff4e	0.056884103
150	0xbda982df	-0.08276915
151	0xbdab97ce	-0.08378564
152	0x3d5b4729	0.05353466
153	0x3de1d2e5	0.11026553
154	0x3e22deaf	0.1590526
155	0x3d5f34d1	0.05449373
156	0xbca004d5	-0.019533554
157	0x3e15fbf5	0.14646895
158	0x3dec4d7a	0.11538215
159	0x3d9f2b32	0.07771911
160	0x3e333b1c	0.17503017
161	0x3d9b5910	0.07585347
162	0xbdfb4a66	-0.1227005
163	0xbd2e9ca2	-0.042629845
164	0xbd8af6b0	-0.06785333
165	0x3cf210df	0.02954906
166	0xbd167ea7	-0.03674188
167	0xbd616dd3	-0.055036377
168	0x3e39f048	0.18158066
169	0x3e3402d1	0.175792
170	0x3e271b8e	0.16319105
171	0xbd6bb86d	-0.05754893
172	0x3dd7f38b	0.10544499
173	0x3d4cbab1	0.04998273
174	0xbdffa768	-0.12483102
175	0x3e21a291	0.1578467
176	0xbd9bcaea	-0.07607062
177	0xbce4eb8a	-0.027944345
178	0xbd8422a6	-0.06451921
179	0xbdb6e937	-0.08931201
180	0xbe249814	-0.16073638
181	0xbe76e214	-0.2410968
182	0x3dd9f3c0	0.10642195
183	0x3e671731	0.2256744
184	0xbb8c2def	-0.0042779366
185	0x3e4884f5	0.19581969
186	0xbe428ed4	-0.18999797
187	0xbe17042f	-0.1474769
188	0xbd830145	-0.063967265
189	0x3d873301	0.06601525
190	0xbd5f56ed	-0.05452626
191	0x3dd0a813	0.101883076
192	0x3de5bcc9	0.112176485
193	0x3e244b90	0.1604445
194	0x3e1be01c	0.1522221
195	0x3e2f8a64	0.17142636
196	0xbdeeea1c	-0.116657466
197	0x3e189386	0.14900026
198	0x3e16fdd3	0.14745264
199	0x3e2b7ccc	0.16746825
200	0x3e550dcc	0.20806044
201	0xbd264447	-0.040592458
202	0x3c5d75d7	0.013516865
203	0xbe1033ce	-0.14082262
204	0x3cab690e	0.020924117
205	0xbd0b8719	-0.034064386
206	0x3da08587	0.07837968
207	0x3dc50c60	0.09621501
208	0x3df665cf	0.12031137
209	0xbd8b723c	-0.06808898
210	0x3e7553b7	0.23957716
211	0x3e2d8d8a	0.16948524
212	0x3da56bc9	0.08077199
213	0x3d826540	0.06366968
214	0x3d842682	0.06452657
215	0xbae34552	-0.0017339385
216	0xbe1328a7	-0.14370976
217	0xbe17f75d	-0.14840455
218	0xbddc1cd5	-0.10747687
219	0xbe513c26	-0.20433101
220	0xbdf004fb	-0.117197
221	0xbe2f4408	-0.17115796
222	0xbe1fc6bc	-0.15603155
223	0xbdb1100e	-0.0864564
224	0xbe148928	-0.14505446
225	0xbd9d9046	-0.076935336
226	0xbde22607	-0.110424094
227	0x3e15739c	0.14594883
228	0xbdb8874d	-0.090101816
229	0x3e3c987c	0.18417543
230	0xbd0153a9	-0.031573925
231	0x3d8d4f85	0.06899933
232	0x3e0809be	0.13284966
233	0x3d9793f3	0.07401266
234	0x3dd378c0	0.103257656
235	0x3d0074b0	0.031361282
236	0xbd3d56cd	-0.046225358
237	0xbca63836	-0.020290475
238	0xbe3781a3	-0.17920546
239	0xbd21f4b2	-0.03954
240	0x3dc94595	0.09827725
241	0x3c2d58ca	0.010580251
242	0xbdb31b0f	-0.087453954
243	0x3dcbbf49	0.09948594
244	0x3e25aa2e	0.161782
245	0x3ddc989c	0.107712954
246	0x3d926a51	0.071491845
247	0xbd2a90d7	-0.041642036
248	0xba690cfe	-0.00088901806
249	0xbe2fca32	-0.17166975
250	0xbe0eb137	-0.1393479
251	0x3d6c41a0	0.057679772
252	0xbd51a6e6	-0.051184557
253	0xbd2b2f6f	-0.041793283
254	0xbd1325eb	-0.035924833
255	0xba34f78a	-0.0006903341

out/MatMul_bias f4 [46]
0	0xbd91cf28	-0.0711959
1	0xbd6c4316	-0.057681166
2	0x3c95b6e4	0.018275686
3	0xbcf3f4a1	-0.029779734
4	0xbc9318ff	-0.017956255
5	0xbd82cdfe	-0.06386946
6	0xbd64ccdd	-0.055859435
7	0xbcec00d7	-0.028808994
8	0x3d25ccca	0.040478505
9	0xbcbfae33	-0.023398494
10	0x3d63540e	0.055500083
11	0x3d3559c9	0.04427508
12	0x3cc54470	0.024080485
13	0xbb140600	-0.0022586584
14	0xbd0390fe	-0.032120697
15	0x3d2f638b	0.04281954
16	0xbc6421ac	-0.013924044
17	0xbcb46fc6	-0.022025954
18	0x3cb37b37	0.02190934
19	0xbd6930d7	-0.056931343
20	0x3ce76b06	0.028249275
21	0xbc4fbccb	-0.012679289
22	0xbd1eb230	-0.03874415
23	0xbd1be0a6	-0.03805604
24	0x3d414c08	0.04719165
25	0xba9bd646	-0.001188942
26	0xb9507ef0	-0.00019883714
27	0xbc1b6ff5	-0.009487142
28	0x3d1b99d5	0.037988503
29	0xbcb4811f	-0.022034226
30	0x3cb45a67	0.022015763
31	0x3cfbb3de	0.030725416
32	0x3bda6bf4	0.006665701
33	0x3d22d23c	0.039751276
34	0xbd3c4f70	-0.045974195
35	0xbd42741f	-0.047474023
36	0x3c8a9aa8	0.016919449
37	0x3c086a0f	0.008326068
38	0x3b824aad	0.003976187
39	0x3c4156f4	0.011800516
40	0xbd18fa92	-0.037348337
41	0x3b221fa4	0.0024738098
42	0x3bf99206	0.0076162843
43	0xbc8f7094	-0.017509736
44	0xbd23c16e	-0.03997939
45	0xbcc52dd8	-0.024069712

out/kernel/transpose f4 [46, 128]
0	0x3e0eea7e	0.13956639
1	0xbf2d13bd	-0.67608243
2	0x3e1833d0	0.14863515
3	0xbe13744e	-0.14399835
4	0xbf28c054	-0.6591847
5	0x3e41b00f	0.18914817
6	0x3e6ac2c6	0.22925863
7	0x3de67132	0.11252059
8	0xbf18490a	-0.5948645
9	0xbedb172f	-0.42791125
10	0xbe778b8a	-0.24174324
11	0xbf4997d1	-0.7874728
12	0x3e12bf47	0.14330779
13	0x3e6d3f66	0.23168716
14	0xbf2a69d3	-0.66567725
15	0x3e91e740	0.28496742
16	0x3e1d9bba	0.15391436
17	0xbf14e5c5	-0.581631
18	0xbef8b267	-0.4857361
19	0x3e8d9af9	0.27657297
20	0x3e103c94	0.14085609
21	0xbec00452	-0.37503296
22	0x3e76b2da	0.24091664
23	0x3de0c9fb	0.10976025
24	0xbf081d76	-0.53169954
25	0xbf64a6fc	-0.893173
26	0x3e25f469	0.16206516
27	0xbef5d7bd	-0.48016158
28	0xbea37174	-0.31922495
29	0x3e5318b7	0.20614897
30	0xbeb2c47a	-0.34915525
31	0x3e255009	0.16143812
32	0xbd6047f6	-0.054756127
33	0x3e3f6a5b	0.18692915
34	0xbf197237	-0.59939903
35	0xbe8ddf92	-0.27709633
36	0x3e64ff3b	0.22362988
37	0xbec97a74	-0.39351237
38	0x3e38ec1c	0.18058819
39	0xbf3847eb	-0.7198474
40	0x3e4a0b87	0.1973096
41	0x3d9f3dac	0.07775435
42	0xbd2937eb	-0.041313093
43	0x3e8fe314	0.28102934
44	0x3ca70696	0.020388883
45	0x3e28cea3	0.16485076
46	0xbec9c2e7	-0.3940651
47	0x3e3e454f	0.18581127
48	0x3dee9866	0.116501614
49	0x3e97f380	0.29677963
50	0xbe54b9c1	-0.20773984
51	0xbeda5272	-0.42641026
52	0xbe8f9daf	-0.2804999
53	0xbd516de4	-0.05113019
54	0xbe9be054	-0.30444586
55	0xbf14b137	-0.5808291
56	0xbe1430fc	-0.14471811
57	0xbee5c6be	-0.4487819
58	0x3e15fd0f	0.14647315
59	0x3de3875f	0.11109804
60	0xbeb50977	-0.35358784
61	0xbeed664a	-0.46367103
62	0x3e22ecea	0.15910688
63	0xbeebe2a0	-0.4607134
64	0x3e769380	0.24079704
65	0x3e3b579b	0.18295138
66	0x3dd34547	0.10315948
67	0xbf1421f1	-0.5786429
68	0x3e84d5e2	0.2594443
69	0xbdc9cd62	-0.09853627
70	0x3e5ceb3e	0.21574113
71	0xbe29ceb2	-0.16582754
72	0x3e682c78	0.22673213
73	0xbda52515	-0.080637135
74	0x3d3c456a	0.045964636
75	0xbe10a82d	-0.14126654
76	0x3e606a24	0.2191549
77	0x3e2b2570	0.167135
78	0xbf1748ad	-0.5909527
79	0xbf0ee847	-0.5582318
80	0xbf291c1a	-0.66058505
81	0xbf0f8486	-0.5606159
82	0xbd0c2da7	-0.034223225
83	0x3e7691cd	0.24079056
84	0x3ea28614	0.31742918
85	0x3d8df93a	0.06932302
86	0xbf3fd11f	-0.7492847
87	0xbf623215	-0.8835767
88	0xbf4bd135	-0.796161
89	0xbed0ad7e	-0.40757364
90	0x3e4e800b	0.20166032
91	0x3e8b6fbb	0.2723368
92	0xbf0ad613	-0.542329
93	0xbf2747ba	-0.6534382
94	0xbbcc62a2	-0.006237344
95	0x3d4e679f	0.05039179
96	0x3e158ba8	0.14604056
97	0xbf458a3c	-0.77164054
98	0x3da7e068	0.08197099
99	0xbf0166f0	-0.50547695
100	0xbe515eba	-0.20446292
101	0xbeeb42d6	-0.4594943
102	0xbed02b46	-0.40658015
103	0xbec4f84e	-0.3847069
104	0xbe544865	-0.20730741
105	0xbf43f40b	-0.76544255
106	0x3e4c3e27	0.19945584
107	0xbf24e006	-0.6440433
108	0x3e114475	0.1418627
109	0x3e2650bc	0.16241735
110	0xbf03fc89	-0.51557213
111	0xbea77a25	-0.32710376
112	0x3e7a3a95	0.2443641
113	0xbf4993ca	-0.78741133
114	0xbf1cd979	-0.61269337
115	0xbd7e529a	-0.062090494
116	0x3e6524ca	0.22377315
117	0xbf844412	-1.0333273
118	0xbf35a6de	-0.70957744
119	0x3e9d4001	0.30712894
120	0x3d191755	0.037375767
121	0x3ea83393	0.32851848
122	0x3e8ef30b	0.27919802
123	0x3e391f30	0.18078303
124	0xbe8b4673	-0.27202186
125	0x3e1cfd58	0.15331018
126	0xbf19abb3	-0.6002762
127	0xbefb4a81	-0.4908028
128	0xbd926b31	-0.071493514
129	0xbf434a39	-0.7628513
130	0xbeaffd0d	-0.3437275
131	0xbf764c89	-0.96210533
132	0xbf8bf148	-1.0933008
133	0xbd919387	-0.07108217
134	0xbf471198	-0.7776122
135	0x3e52813a	0.20557109
136	0x3e9feaf0	0.3123393
137	0xbe6a7321	-0.2289548
138	0xbe24b45d	-0.16084428
139	0xbe903ab0	-0.28169775
140	0xbf88ba3a	-1.0681832
141	0x3e98be82	0.29832846
142	0x3e4cbc66	0.19993743
143	0x3e5f31b8	0.2179631
144	0xbe725fa1	-0.23669292
145	0x3c720105	0.014770751
146	0xbf73d981	-0.9525376
147	0xbc4abfa2	-0.01237479
148	0x3db295d3	0.08719983
149	0x3e7be158	0.2459768
150	0xbec85995	-0.39130846
151	0xbdeb55b4	-0.11490956
152	0x3c244377	0.0100258505
153	0x3e5d559b	0.21614687
154	0x3e55397e	0.20822713
155	0xbea957c1	-0.33074763
156	0x3e373de5	0.17894705
157	0x3e591375	0.21198829
158	0xbd4b065f	-0.049566623
159	0xbe9a0f24	-0.30089676
160	0xbe9a2c22	-0.30111796
161	0x3e468004	0.19384772
162	0xbefcac22	-0.49350077
163	0x3e33a91b	0.17544977
164	0xbe83cd14	-0.257424
165	0xbeff27b6	-0.49834985
166	0x3df2ed7a	0.11861701
167	0x3e8ecf73	0.27892646
168	0xbdc2fb55	-0.09520594
169	0xbe915b1e	-0.2838983
170	0xbf863624	-1.0485272
171	0xbf2fadc4	-0.6862452
172	0xbe89f429	-0.26944092
173	0xbf522702	-0.8209077
174	0x3e34d313	0.17658643
175	0x3e7b1002	0.24517825
176	0xbe847b8e	-0.25875515
177	0xbeacbc0d	-0.3373722
178	0xbe5607f1	-0.20901467
179	0x3de4358e	0.11143027
180	0x3c2fb92e	0.010725303
181	0xbf326008	-0.6967778
182	0xbf567852	-0.83777344
183	0xbda19361	-0.078894384
184	0xbf2bdb53	-0.6713154
185	0x3ea930bf	0.33045003
186	0x3e02f2be	0.12787911
187	0xbf5905ac	-0.8477428
188	0xbe877afc	-0.26461017
189	0xbec6f69f	-0.38860032
190	0x3e39ebee	0.18156406
191	0xbdab1bba	-0.08354898
192	0xbe98f904	-0.29877484
193	0xbf320597	-0.6953978
194	0x3cf65a0c	0.030072235
195	0x3d3a06c0	0.045416594
196	0xbe788363	-0.2426887
197	0x3df503b2	0.119635954
198	0x3e85dfd5	0.26147333
199	0x3e110140	0.14160633
200	0x3d6af993	0.05736692
201	0xbec01925	-0.37519184
202	0xbf27f09f	-0.65601534
203	0xbea917e6	-0.33026046
204	0xbeed2657	-0.46318313
205	0xbf0f88b5	-0.56067973
206	0x3e07d88b	0.13266198
207	0x3e5664e3	0.20936923
208	0xbe2c4b57	-0.16825615
209	0xbd93312a	-0.07187112
210	0x3d9c9f24	0.07647541
211	0x3e986541	0.2976475
212	0xbf2debd3	-0.67937964
213	0xbf7814b0	-0.96906567
214	0xbf084d26	-0.5324272
215	0xbf3fd3c0	-0.7493248
216	0xbd86fa1a	-0.06590672
217	0xbf11bf20	-0.5693226
218	0xbecfba68	-0.40571904
219	0xbee0d2a0	-0.43910694
220	0xbc9664c1	-0.01835859
221	0x3dd6ea02	0.10493852
222	0xbecbf5db	-0.3983601
223	0x3e6df385	0.23237427
224	0xbe42cdd5	-0.19023831
225	0x3e631ae7	0.22178231
226	0xbf31fa7b	-0.6952283
227	0x3e2366f8	0.15957248
228	0x3e4a6dae	0.19768402
229	0x3e14de09	0.14537825
230	0x3e981160	0.29700756
231	0xbebb8e4c	-0.36632
232	0xbe5e0f01	-0.21685411
233	0x3e5a8c58	0.213426
234	0x3dcf9795	0.10136334
235	0x3e74076d	0.23830958
236	0x3e7a3749	0.24435152
237	0x3ea47508	0.32120538
238	0xbe85f4de	-0.2616338
239	0x3e856e19	0.2606056
240	0x3e8243f4	0.2544247
241	0x3dc3262f	0.09528767
242	0xbe839c8c	-0.25705373
243	0x3e174e0c	0.14775866
244	0xbf3a85ba	-0.728603
245	0x3eabbc05	0.33541885
246	0xbf695f4d	-0.9116104
247	0xbee0c8f5	-0.43903318
248	0x3cca6ec0	0.024711013
249	0x3e15a91a	0.14615288
250	0x3e657708	0.22408688
251	0x3e3e2786	0.18569764
252	0x3da2f41d	0.07956717
253	0xbca9b74b	-0.020717284
254	0xbee879df	-0.4540548
255	0xbdd799fe	-0.105274186
