bots/ru/South_park.chatbot/converted_model.tflite (tflite, 610876 bytes, 4 tensors)

in/MatMul_bias f4 [120]
0.24647968 0.24648666 0.13670422 0.27324936 0.19504188 0.09242372 0.17021245 0.13024165
0.26310202 0.23889947 0.25154006 0.28201666 0.29007882 0.30614576 0.2299781 0.25303948
0.30261326 0.1817514 0.23152001 0.16997178 0.2924566 0.23390707 0.17738876 0.25935307
0.23958945 0.17017247 0.15093017 0.23748714 0.18971787 0.18982753 0.19687425 0.16333374
0.19598798 0.23234077 0.30667296 0.28373745 0.30377036 0.24028817 0.19087687 0.18041807
0.12924878 0.1114263 0.20700678 0.16440438 0.15039232 0.2452202 0.21086903 0.32100806
0.24448593 0.19520742 0.18652925 0.21321844 0.22561854 0.27956355 0.17284897 0.17997603
0.19460182 0.24747972 0.2622089 0.28035405 0.20671093 0.1606982 0.30527413 0.27354214
0.18990609 0.22603679 0.20764518 0.23618479 0.31981105 0.26371697 0.20804149 0.15874086
0.17524827 0.250358 0.26212397 0.10518208 0.25970668 0.12480508 0.12883578 0.16510737
0.1552707 0.19331257 0.27054808 0.2862176 0.29262874 0.1707097 0.25692537 0.33946222
0.16078772 0.18304814 0.1807579 0.22571415 0.20855886 0.2037234 0.20658778 0.20566696
0.2267246 0.22407417 0.1140171 0.16909544 0.2562405 0.10863382 0.15800089 0.2887803
0.22476026 0.24657312 0.1679263 0.1464763 0.3394132 0.1025031 0.24269728 0.2554674
0.1965583 0.09077454 0.17404796 0.2555441 0.26612574 0.20306687 0.17279428 0.21915996
00000000: 2b65 7c3e 0067 7c3e 31fc 0b3e 57e7 8b3e
00000010: 0fb9 473e a648 bd3d 2c4c 2e3e 115e 053e
00000020: 4fb5 863e 10a2 743e dcc9 803e 7d64 903e
00000030: 3685 943e 23bf 9c3e 617f 6b3e 648e 813e
00000040: 20f0 9a3e 0a1d 3a3e 9513 6d3e 150d 2e3e
00000050: dfbc 953e 5685 6f3e 66a5 353e edc9 843e
00000060: f056 753e b141 2e3e 708d 1a3e d42f 733e
00000070: 6745 423e 2662 423e 6799 493e f640 273e
00000080: 13b1 483e bdea 6d3e 3d04 9d3e 0946 913e
00000090: ca87 9b3e 1a0e 763e 3a75 433e 84bf 383e
000000a0: cb59 043e 7933 e43d 96f9 533e 9f59 283e
000000b0: 7200 1a3e 011b 7b3e 0dee 573e 2b5b a43e
000000c0: 855a 7a3e 74e4 473e 8601 3f3e ef55 5a3e
000000d0: 8c08 673e f422 8f3e 52ff 303e a34b 383e
000000e0: b345 473e 536b 7d3e 3f40 863e 918a 8f3e
000000f0: 08ac 533e 128e 243e e44c 9c3e b70d 8c3e
00000100: be76 423e 3076 673e f0a0 543e 6dda 713e
00000110: 46be a33e e905 873e d408 553e f78c 223e
00000120: 4874 333e ec2e 803e 1d35 863e b469 d73d
00000130: 46f8 843e ce99 ff3d 87ed 033e e811 293e
00000140: 48ff 1e3e bbf3 453e 4785 8a3e 1d8b 923e
00000150: 6fd3 953e 86ce 2e3e b98b 833e fecd ad3e
00000160: 89a5 243e f970 3b3e 9918 393e 9c21 673e
00000170: 7490 553e de9c 503e bf8b 533e 5c9a 523e
00000180: 7e2a 683e b373 653e cc81 e93d 5b27 2d3e
00000190: f431 833e 697b de3d fcca 213e 03db 933e
000001a0: 8e27 663e aa7d 7c3e dff4 2b3e e2fd 153e
000001b0: 91c7 ad3e 25ed d13d a385 783e a0cc 823e
000001c0: 9446 493e 01e8 b93d a139 323e add6 823e
000001d0: a241 883e c3f0 4f3e fcf0 303e 786b 603e

in/kernel/transpose f4 [120, 1212]
0.11071713 0.12664168 0.103850074 0.06091551 0.06421144 0.19761617 0.20537876 0.19138128
0.055078726 0.1715402 0.08502492 0.2270167 0.2870931 0.17068276 0.23191153 -0.16941962
0.05284185 -0.10291823 0.08632782 -0.20787692 0.04365702 0.126514 -0.17439434 0.17561692
-0.06826159 0.21885265 0.06666656 0.26870006 0.24121368 -0.10211967 -0.15835151 0.036337998
0.107356764 -0.03603591 0.13658671 -0.10229324 0.2639682 0.17140211 -0.13680057 -0.074670255
0.1977419 -0.078223206 -0.042949073 -0.2243209 -0.1786317 -0.13596617 0.050078247 0.06918216
0.15361707 0.02404729 0.17294863 0.20231746 -0.03573827 -0.16288772 -0.14631797 -0.14646628
-0.2086249 0.030197859 0.24581586 -0.17851432 -0.22328235 -0.17380176 -0.26968938 -0.090973355
-0.20882076 -0.11068298 -0.07873271 -0.07413826 -0.113609836 0.039589178 -0.06290568 -0.24594338
0.16152664 0.2055621 0.20580646 -0.02414875 0.059992895 -0.014343858 0.25556815 -0.023193387
0.1319947 -0.014086188 0.11951889 0.13887927 0.1333283 -0.121753916 0.17611592 0.109250925
0.08437921 0.017072 0.22999178 -0.087818764 -0.1140116 -0.09157412 -0.13500077 0.009497465
-0.011478651 -0.047284774 -0.20061906 0.00039615773 0.20116031 0.12750107 -0.24564871 -0.24459788
0.11244994 -0.058833174 0.09730651 0.14710546 -0.106310666 -0.065741 0.021857154 -0.05684151
-0.10631117 -0.13163257 -0.0958098 0.27457097 -0.08541608 -0.0802486 -0.0893818 -0.06445596
-0.18176457 -0.11149456 0.21012817 -0.040969238 0.17241234 -0.12949084 -0.12871349 -0.16571014
-0.14362644 0.120285966 -0.19007249 -0.074973986 0.15120322 -0.11868923 -0.093685694 0.17641665
-0.09602082 0.11375505 0.055409145 0.11005807 -0.06578518 -0.08080346 0.122037865 -0.07281923
0.18621932 0.06346693 0.17320462 0.15116672 0.12948142 -0.08724567 -0.16632415 -0.009921219
0.21270043 -0.19436495 -0.11100169 0.17020366 0.05743035 -0.013854839 -0.10566796 0.16900907
0.013894184 -0.07520808 0.20481038 -0.2585344 -0.12809505 -0.09876614 -0.27082643 -0.018819278
0.12246798 -0.18306035 0.17685668 -0.022145534 -0.22649917 0.035913344 -0.02048906 -0.13622037
0.24721211 -0.24784718 -0.0929537 0.21371365 -0.15599689 0.018946012 0.2146149 0.08174369
-0.08965155 0.23452845 0.19514851 -0.10645558 -0.07951625 0.13198733 0.04719092 0.116472654
-0.066013426 0.24896882 0.1216129 -0.032240197 0.06120284 0.048837192 0.20234832 -0.08370017
0.0034507038 0.035813924 0.09878354 0.09333147 0.07890856 0.11294383 0.32023495 -0.10641164
0.1578914 0.19041887 0.06669883 0.24898106 -0.089882426 -0.07263443 0.20744954 0.073682845
-0.07633298 0.15937433 0.23419796 0.055841155 0.026461318 -0.12330701 -0.20542975 -0.116257735
-0.13094793 -0.22421125 -0.08554602 -0.036535356 -0.24457946 0.0080941 -0.044643946 0.11889201
-0.14189653 -0.06923887 0.14436728 0.0865908 0.2243922 -0.26788598 0.17526488 -0.1803691
-0.018675532 -0.23534364 0.06407584 -0.064233825 0.2788411 -0.15425284 -0.23456366 -0.12779261
-0.18889512 0.07985942 0.16997972 -0.028001565 -0.08484476 -0.012886887 -0.012167463 0.016188376
00000000: aabf e23d 5bae 013e 59af d43d 8b82 793d
00000010: 4a81 833d e55b 4a3e cf4e 523e 74f9 433e
00000020: 3b9a 613d 3ca8 2f3e 8c21 ae3d 1177 683e
00000030: defd 923e 76c7 2e3e 377a 6d3e 567c 2dbe
00000040: b270 583d cbc6 d2bd a4cc b03d b0dd 54be
00000050: b4d1 323d e38c 013e 6e94 32be ecd4 333e
00000060: bccc 8bbd e91a 603e 7a88 883d 0e93 893e
00000070: b800 773e 1e24 d1bd e626 22be 27d7 143d
00000080: dddd db3d 649a 13bd 63dd 0b3e 1e7f d1bd
00000090: d726 873e 0984 2f3e 7315 0cbe b8ec 98bd
000000a0: da7c 4a3e 7d33 a0bd 5eeb 2fbd 61b4 65be
000000b0: 3aeb 36be b73a 0bbe d91e 4d3d 60af 8d3d
000000c0: cb4d 1d3e d3fe c43c 7219 313e 4f2c 4f3e
000000d0: 4b62 12bd 0acc 26be 61d4 15be 42fb 15be
000000e0: c4a1 55be 8061 f73c 27b7 7b3e 75cc 36be
000000f0: 21a4 64be 17f9 31be ba14 8abe 3d50 babd
00000100: 1cd5 55be c2ad e2bd 9d3e a1bd cdd5 97bd
00000110: 46ac e8bd 4328 223d b1d4 80bd 95d8 7bbe
00000120: 3d67 253e df7e 523e eebe 523e 99d3 c5bc
00000130: 1cbb 753d 8002 6bbc d4d9 823e 0f00 bebc
00000140: 9e29 073e c1c9 66bc 52c6 f43d 5e36 0e3e
00000150: 3787 083e 1e5a f9bd bb57 343e f3be df3d
00000160: 02cf ac3d 94da 8b3c f782 6b3e 53da b3bd
00000170: ea7e e9bd 368b bbbd a43d 0abe 419b 1b3c
00000180: f410 3cbc aead 41bd 156f 4dbe 64b3 cf39
00000190: f8fc 4d3e a48f 023e 568b 7bbe de77 7abe
000001a0: 274c e63d 0efb 70bd a348 c73d d0a2 163e
000001b0: 68b9 d9bd 38a3 86bd c60d b33c a5d2 68bd
000001c0: acb9 d9bd b0ca 06be ee37 c4bd 9194 8c3e
000001d0: a0ee aebd 6159 a4bd ce0d b7bd 7d01 84bd
000001e0: 7e20 3abe 4357 e4bd d72b 573e 5ccf 27bd
000001f0: dc8c 303e 3f99 04be 78cd 03be ebaf 29be
00000200: cf12 13be 7d58 f63d 5da2 42be f68b 99bd
00000210: 04d5 1a3e 5713 f3bd 49de bfbd 91a6 343e
00000220: 90a6 c4bd 68f8 e83d b3f4 623d 2066 e13d
00000230: 61ba 86bd 497c a5bd fdee f93d 4022 95bd
00000240: 47b0 3e3e f3fa 813d 8d5c 313e 73cb 1a3e
00000250: c796 043e dcad b2bd e150 2abe 9c8c 22bc
00000260: 24ce 593e 9b07 47be db54 e3bd de49 2e3e
00000270: 163c 6b3d 68ff 62bc 7268 d8bd b710 2d3e
00000280: 6ea4 633c b206 9abd d0b9 513e 9f5e 84be
00000290: 592b 03be e745 cabd c3a9 8abe e32a 9abc
000002a0: 7ed0 fa3d 2c74 3bbe eb19 353e 8d6a b5bc
000002b0: 66ef 67be df19 133d acd8 a7bc 5a7d 0bbe
000002c0: 2c25 7d3e a7cb 7dbe 825e bebd c0d7 5a3e
000002d0: a6bd 1fbe ab34 9b3c 02c4 5b3e 3c69 a73d
000002e0: 3b9b b7bd 3a28 703e 03d5 473e 6205 dabd
000002f0: 6ad9 a2bd b027 073e 444b 413d 3789 ee3d
00000300: 0c32 87bd aff1 7e3e 2f10 f93d 4c0e 04bd
00000310: d4af 7a3d 8209 483d 6634 4f3e ff6a abbd
00000320: 3425 623b 9fb1 123d 064f ca3d 9224 bf3d
00000330: d09a a13d 184f e73d d6f5 a33e 59ee d9bd
00000340: 48ae 213e 2afd 423e 6599 883d e4f4 7e3e
00000350: 4714 b8bd 5cc1 94bd a76d 543e 08e7 963d
00000360: 7754 9cbd 0633 233e 97d1 6f3e b2b9 643d
00000370: 68c5 d83c 6388 fcbd 2d5c 52be 8918 eebd
00000380: 3717 06be a297 65be c032 afbd 19a6 15bd
00000390: 0a73 7abe 1e9d 043c 92dc 36bd a77d f33d
000003a0: 534d 11be 1ccd 8dbd 04d5 133e 8456 b13d
000003b0: 12c7 653e 5a28 89be a378 333e adb2 38be
000003c0: 6efd 98bc ecfd 70be 323a 833d 068d 83bd
000003d0: 43c4 8e3e 75f4 1dbe 7531 70be 11dc 02be
000003e0: b96d 41be 568d a33d 2a0f 2e3e 8a63 e5bc
000003f0: 17c3 adbd 8623 53bc 0a5a 47bc 7c9d 843c

out/MatMul_bias f4 [57]
-0.068460256 -0.038333084 0.015808932 0.10082517 0.0012229427 -0.10753596 -0.028658776 -0.016717115
0.042400666 -0.036813527 0.10172419 -0.057054993 -0.033354566 -0.043237705 0.0073323413 0.05052591
-0.12083929 -0.08369217 0.02844364 0.0031205309 0.04509909 -0.0572885 -0.085015565 0.0422266
0.21989386 -0.030117925 -0.008881927 -0.07474653 -0.09640783 0.06673731 -0.0039026563 -0.013836454
-0.048894104 -0.13372646 -0.007820704 0.041899078 -0.10628149 -0.007037097 -0.018328352 0.08288316
-0.037466906 -0.026669564 -0.04391891 -0.013321803 -0.015678598 -0.049210187 -0.045015674 0.037258722
-0.075948976 0.034654535 0.038142823 0.022863057 -0.088473566 0.017881118 -0.045217816 -0.051221076
0.11105993
00000000: e434 8cbd 2703 1dbd bc81 813c 6d7d ce3d
00000010: 264b a03a d03b dcbd cfc5 eabc 55f2 88bc
00000020: 52ac 2d3d c8c9 16bd c654 d03d 7fb2 69bd
00000030: cc9e 08bd 051a 31bd 2344 f03b 42f4 4e3d
00000040: 977a f7bd cd66 abbd a302 e93c d281 4c3b
00000050: d3b9 383d 59a7 6abd a41c aebd cdf5 2c3d
00000060: db2b 613e deb9 f6bc 8085 11bc b514 99bd
00000070: 7871 c5bd 92ad 883d b5c3 7fbb 4bb2 62bc
00000080: 2f45 48bd 97ef 08be 6922 00bc 5e9e 2b3d
00000090: 1caa d9bd 7397 e6bb 5725 96bc a5be a93d
000000a0: e676 19bd 217a dabc 51e4 33bd b143 5abc
000000b0: 6770 80bc 9f90 49bd 5b62 38bd 9a9c 183d
000000c0: 238b 9bbd eaf1 0d3d a63b 1c3d 4e4b bb3c
000000d0: a131 b5bd 6c7b 923c 5136 39bd 31cd 51bd
000000e0: 6373 e33d

out/kernel/transpose f4 [57, 120]
0.14723884 0.20669231 -0.84426826 0.12229581 -0.8236712 -0.91547245 -1.0260576 0.17209888
-0.4183486 -0.62920296 0.2742571 -0.91290355 -0.6162557 -0.72774905 -0.5548401 0.09532693
-0.44641402 0.27519584 0.19730093 0.26651818 0.16532719 0.21422729 0.03481957 -0.7965025
0.16242632 0.13793704 0.20910664 0.31551263 -0.72557414 -0.6794069 -0.66565263 0.24566337
0.20373234 0.18962684 -0.65332115 0.17752291 -0.66677374 -0.50008595 0.30165955 0.27286598
0.22328573 0.22988014 0.23039575 0.29088426 0.19602779 -0.5790639 -0.7892663 0.28481367
-0.49970818 -0.289057 -0.367343 0.3227737 -1.0046319 0.3356721 -0.5274564 -0.65613836
-0.57440025 -1.0904201 0.16834286 -0.04555374 0.17323126 -0.44110084 -0.8214601 -0.34779233
-0.59556985 0.23940079 0.002644977 -0.8658482 -0.68525296 -0.26432216 -1.1349299 0.15459722
0.2812007 -0.5992732 -0.3713204 0.03620169 -0.5468853 -0.7492576 -0.66391563 0.17724434
0.263762 0.20077892 -0.6016012 0.13057546 0.21329768 0.28996634 -0.45402455 0.20281771
-0.17198576 0.2688099 0.29088962 0.2242979 0.17444767 -0.957184 0.029411567 -0.9458085
-0.7778583 0.30107844 0.2723726 -0.8502595 -0.28724405 -1.0343859 -0.87995607 -0.6542149
-0.97353077 -0.6429918 0.06633762 0.19394435 -0.92446226 0.17745775 0.14629352 0.27133474
0.36747393 0.31696078 0.13420013 -0.53564453 0.17744914 0.32307038 0.20164225 0.1637552
0.2180678 -0.13032842 -0.57317644 -0.70789784 0.21671332 -0.85131323 -0.9144778 -1.1321135
0.17825 -0.82807136 -0.8879791 -0.06556903 -0.74529886 0.28990778 0.21639189 0.12972485
0.33175626 0.27299207 -1.08174 -0.9920375 0.18606764 -0.41075656 -0.19650427 0.25253597
0.31342947 -0.26710904 0.2368171 0.32963789 0.2709998 0.22318047 -0.0094409175 -0.44921854
0.26243278 0.10948898 -0.57957304 -0.7430197 0.056890037 -0.29658726 0.21585621 0.14838304
-0.18411726 0.36634797 0.31307572 -0.42403343 -0.56352013 -0.4666377 -0.5107865 -0.42386413
-0.8911892 0.24634165 -0.74613774 0.32928133 0.060515486 -0.46635193 -0.09575357 -0.69901067
-1.2145658 0.15260586 -1.4835433 -0.41329142 0.10934241 0.31031305 0.12818927 0.18167976
-0.5514108 -0.117594145 0.17341918 -0.24276225 0.30533487 0.099260114 -0.33878788 0.20069045
0.2062991 -0.5935629 -0.7572043 -1.0488265 0.26160997 -0.035602935 0.32426792 0.27795434
-0.39772734 -0.29491603 -0.92027426 0.08638517 0.25856566 -0.58059865 0.42796767 -0.55678445
-1.1066544 -1.2886972 0.3289806 -0.46797022 0.05601572 -0.67756736 0.37932456 0.2526434
0.19903314 0.19688682 0.29153705 -0.43170202 -0.5462712 0.2276471 -0.73453414 0.23494041
-0.4046216 -0.4784582 0.20775925 0.25281516 0.20800969 -0.59754926 0.31976336 -0.33664772
0.2832792 -0.05938712 -0.6305349 -0.3055707 -0.15186375 0.30426615 0.3248011 0.25827673
-0.6813968 0.29280353 0.3010815 -0.53257316 -0.7183819 -0.597757 0.12630203 -1.3745809
-0.523467 -1.0608301 -0.451659 -0.9607416 -0.48192027 -0.66064674 -0.7741192 0.42749074
00000000: c7c5 163e 26a7 533e f721 58bf 3a76 fa3d
00000010: 1edc 52bf 675c 6abf db55 83bf b03a 303e
00000020: ca31 d6be 7213 21bf 6d6b 8c3e 0cb4 69bf
00000030: efc2 1dbf c34d 3abf 000a 0ebf c43a c33d
00000040: 6190 e4be 78e6 8c3e 4109 4a3e 1275 883e
00000050: 884b 293e 665e 5b3e f79e 0e3d 96e7 4bbf
00000060: 1653 263e 5e3f 0d3e 0d20 563e df8a a13e
00000070: 3abf 39bf 9ced 2dbf 3668 2abf 2e8f 7b3e
00000080: 369f 503e 8a2d 423e 0e40 27bf 91c8 353e
00000090: afb1 2abf a205 00bf 1f73 9a3e 17b5 8b3e
000000a0: 04a5 643e b365 6b3e ddec 6b3e c8ee 943e
000000b0: 82bb 483e 883d 14bf 5b0d 4abf 19d3 913e
000000c0: c0d9 ffbe 47ff 93be 6214 bcbe 9842 a53e
000000d0: c797 80bf 37dd ab3e 6207 07bf aff8 27bf
000000e0: e50b 13bf e392 8bbf 1262 2c3e 8f96 3abd
000000f0: 8963 313e f8d7 e1be 364b 52bf d611 b2be
00000100: 4477 18bf 7b25 753e 5a57 2d3b 3aa8 5dbf
00000110: bd6c 2fbf 3c55 87be 6245 91bf bc4e 1e3e
00000120: 8af9 8f3e f869 19bf b51d bebe 3948 143d
00000130: ad00 0cbf 59cf 3fbf 60f6 29bf 8a7f 353e
00000140: d00b 873e fd98 4d3e 8902 1abf 93b5 053e
00000150: b56a 5a3e 7876 943e e875 e8be 72af 4f3e
00000160: 091d 30be 74a1 893e 7cef 943e 59ae 653e
00000170: 69a2 323e 030a 75bf 87f0 f03c 8120 72bf
00000180: b921 47bf f426 9a3e 6c74 8b3e 9baa 59bf
00000190: a711 93be c266 84bf cd44 61bf a17a 27bf
000001a0: 5039 79bf 1c9b 24bf 05dc 873d 5999 463e
000001b0: 8fa9 6cbf 7cb7 353e f8cd 153e 63ec 8a3e
000001c0: 8b25 bc3e af48 a23e c26b 093e 0020 09bf
000001d0: 3ab5 353e 7b69 a53e 4e7b 4e3e 71af 273e
000001e0: 2a4d 5f3e d074 05be b1bb 12bf cb38 35bf
000001f0: 19ea 5d3e aaef 59bf 381b 6abf 18e9 90bf
00000200: 2b87 363e 7cfc 53bf 9952 63bf 0e49 86bd
00000210: e8cb 3ebf cb6e 943e d695 5d3e 97d6 043e
00000220: f5db a93e 9ec5 8b3e 7576 8abf 2bf6 7dbf
00000230: 8488 3e3e af4e d2be 6a38 49be 654c 813e
00000240: d479 a03e 84c2 88be 2f80 723e 4cc6 a83e
00000250: 7cc0 8a3e 6c89 643e 14ae 1abc f9ff e5be
00000260: 975d 863e c23b e03d e65e 14bf 8a36 3ebf
00000270: 8705 693d 49da 97be 6909 5d3e b9f1 173e
00000280: 3c89 3cbe f691 bb3e 764b a03e e91a d9be
00000290: db42 10bf 23eb eebe e7c2 02bf b804 d9be
000002a0: fa24 64bf fc40 7c3e e202 3fbf 9097 a83e
000002b0: 16df 773d aec5 eebe 731a c4bd 5df2 32bf
000002c0: e476 9bbf b644 1c3e bfe4 bdbf ef9a d3be
000002d0: eaee df3d 5ae1 9e3e 0c44 033e 420a 3a3e
000002e0: 4229 0dbf 33d5 f0bd cc94 313e ab96 78be
000002f0: da54 9c3e e348 cb3d 9b75 adbe cc81 4d3e
00000300: 1240 533e bdf3 17bf 24d8 41bf f23f 86bf
00000310: bef1 853e 62d4 11bd 7206 a63e 0850 8e3e
00000320: eba2 cbbe 3cff 96be 1897 6bbf b5ea b03d
00000330: b862 843e 1da2 14bf 941e db3e 6d89 0ebf
00000340: daa6 8dbf 08f4 a4bf 2570 a83e cb99 efbe
00000350: bd70 653d 0e75 2dbf d436 c23e 7a5a 813e
00000360: 58cf 4b3e b39c 493e 5844 953e 0c08 ddbe
00000370: 6ed8 0bbf 521c 693e 6e0a 3cbf 3894 703e
00000380: 902a cfbe 79f8 f4be d7be 543e fd70 813e
00000390: 7e00 553e fdf8 18bf 06b8 a33e 175d acbe
000003a0: f909 913e e93f 73bd bc6a 21bf c373 9cbe
000003b0: 2c82 1bbe c6c8 9b3e 544c a63e d93c 843e
000003c0: 0570 2ebf 58ea 953e 5b27 9a3e b756 08bf
000003d0: e0e7 37bf 9a06 19bf 5255 013e 44f2 afbf
000003e0: ef01 06bf 48c9 87bf d93f e7be 29f3 75bf
000003f0: 41be f6be 2520 29bf ad2c 46bf 11e0 da3e
