bots/ru/Nu_pogodi.chatbot/converted_model.tflite (tflite, 349668 bytes, 4 tensors)

in/MatMul_bias f4 [120]
000000 40 f5 35 3e 07 46 1b 3e 7b 18 42 3e 11 0e 30 3e
       0.17769337 0.15163432 0.18954651 0.17192866
000010 3b 15 85 3e 10 2a 88 3e 58 cc 41 3e 29 28 3b 3e
       0.2599276 0.2659459 0.18925607 0.18277039
000020 9b d0 5d 3e 7e 47 58 3e d9 35 5b 3e 5e 3f 9a 3e
       0.21661608 0.21121022 0.2140726 0.3012647
000030 ba 0d 51 3e 09 d6 28 3e f8 a2 54 3e bf 17 55 3e
       0.20415393 0.16487898 0.20765293 0.2080984
000040 8e 66 36 3e 60 46 3a 3e a0 f3 63 3e cd e3 72 3e
       0.17812559 0.18190908 0.22260904 0.23719712
000050 4a 7f 2a 3e 5e d8 81 3e 9a da 10 3e 4b ef 25 3e
       0.1665012 0.25360388 0.1414589 0.16204564
000060 e8 07 54 3e 09 14 37 3e f9 be 83 3e b1 15 7d 3e
       0.20706141 0.17878737 0.25731638 0.24715306
000070 2a d8 4b 3e 94 7f 4d 3e 20 c6 65 3e 4c ae 76 3e
       0.19906679 0.20068198 0.2243886 0.24089926
000080 2e f0 1c 3e 7a 96 44 3e 7c 3a 87 3e c6 67 4f 3e
       0.15325996 0.19198027 0.26411808 0.2025443
000090 43 5c 2d 3e 40 fd 35 3e 31 e5 38 3e f5 58 97 3e
       0.16929726 0.17772388 0.1805618 0.29560056
0000a0 1c 58 55 3e ac b4 15 3e a3 15 2a 3e 38 3c 54 3e
       0.20834392 0.14619702 0.16609816 0.20726097
0000b0 17 6c 18 3e c8 d8 68 3e 25 b5 3d 3e 81 e0 1b 3e
       0.14884983 0.22738945 0.18526132 0.1522236
0000c0 20 52 6c 3e 82 bb 6b 3e 8f 61 65 3e 20 54 4d 3e
       0.23078203 0.23020747 0.22400497 0.20051622
0000d0 c9 c1 50 3e 20 e6 4c 3e d4 e8 40 3e 51 9f 12 3e
       0.20386423 0.2000966 0.18838817 0.14318587
0000e0 bd b8 5c 3e 44 3d 5a 3e a9 ad 80 3e a7 4d 6a 3e
       0.21554847 0.21312433 0.25132492 0.22881185
0000f0 fd dd 37 3e 69 29 65 3e 7b e8 5d 3e ab 2a a0 3e
       0.17955776 0.22379078 0.21670716 0.31282553
000100 14 97 7f 3e 01 74 50 3e 86 99 2d 3e 09 93 82 3e
       0.24959975 0.20356752 0.16953096 0.25502804
000110 0f ea 32 3e dc 46 4e 3e 24 18 37 3e e9 ce 23 3e
       0.17472099 0.20144218 0.17880303 0.15996899
000120 cf 99 48 3e 9a 27 31 3e 80 61 5b 3e bc 8a 78 3e
       0.19589923 0.17300263 0.21423912 0.24271673
000130 ac 77 80 3e d4 c0 6c 3e 5b c2 2d 3e 3d 22 41 3e
       0.25091302 0.23120433 0.16968672 0.18860717
000140 6f 14 7b 3e 61 ed 57 3e 7a cc 38 3e a1 7c 45 3e
       0.24519514 0.21086647 0.18046752 0.19285823
000150 67 5d 72 3e 4c 5b 52 3e c9 24 72 3e 38 bd 66 3e
       0.23668443 0.2054264 0.23646845 0.22533119
000160 80 c4 6b 3e c9 7a 60 3e 1c 6d 34 3e 74 1d 51 3e
       0.23024178 0.21921839 0.17619747 0.20421392
000170 9d c6 98 3e 3b 75 8a 3e 1d 57 61 3e 7c 6b 5e 3e
       0.2983903 0.27042565 0.22005887 0.2172069
000180 c8 85 86 3e e5 5c 26 3e e1 a1 24 3e 31 91 6c 3e
       0.26273942 0.16246374 0.16077377 0.23102261
000190 4b 49 38 3e 5a ef 11 3e 21 fd 1c 3e b3 aa 28 3e
       0.17996709 0.14251462 0.15330936 0.16471367
0001a0 98 5f 1b 3e 30 64 0d 3e 8a 2d 76 3e e1 26 80 3e
       0.15173185 0.1380775 0.2404081 0.25029662
0001b0 88 a6 61 3e b4 02 6b 3e f6 e8 3b 3e 51 93 51 3e
       0.22036183 0.2295025 0.18350586 0.20466353
0001c0 ab fb 52 3e 8e 3e 3b 3e f1 92 7a 3e 9f a4 6b 3e
       0.20603816 0.18285581 0.24470116 0.23012017
0001d0 87 c9 e3 3d 32 86 35 3e 9a aa 65 3e a6 49 50 3e
       0.11122423 0.17726973 0.2242836 0.20340595

in/kernel/transpose f4 [120, 690]
000000 a8 f5 36 be 15 37 35 be f5 12 12 3c fc 09 fe bd
       -0.17867148 -0.17696793 0.0089156525 -0.12404248
000010 45 9f da bd 71 e0 35 be 01 74 32 be 4e 20 4b be
       -0.106749095 -0.17761399 -0.17427064 -0.19836542
000020 c9 8e 36 be df 72 8e 3d 4e 73 3d be 1f 73 97 3c
       -0.17827906 0.06955504 -0.18501016 0.018487511
000030 f4 d5 eb bd a2 29 14 be 6c a0 1c be 68 5a c6 3d
       -0.11515418 -0.14469007 -0.15295571 0.096852124
000040 7a ef 75 3d f5 c1 33 3e 3d 36 da 3d 85 85 08 3e
       0.060042836 0.17554457 0.106548764 0.13332184
000050 e8 1f 5a be 76 1d 8a 3e c9 0d a4 3d d2 60 d5 3d
       -0.21301234 0.26975602 0.08010442 0.10418858
000060 6e 56 a3 3d 76 24 45 3e 96 22 63 3e 97 92 7c be
       0.079754695 0.1925219 0.22181162 -0.24665295
000070 f5 53 0d be bb bf 07 be 92 62 ce 3c e7 60 5a 3e
       -0.13801558 -0.13256733 0.025193486 0.21326028
000080 7f 6a c6 bc ad de 96 3d 8f 49 18 3e 88 4c 49 3d
       -0.024220703 0.07366691 0.1487181 0.04914525
000090 b0 f0 0c be 30 d4 36 be 01 dd 66 3c 3d 67 70 3e
       -0.1376369 -0.1785438 0.014090777 0.23476882
0000a0 3f 19 d4 3d 86 d7 3c be 99 6f 3a bd 6c fc 92 3e
       0.10356378 -0.1844159 -0.045516584 0.28708208
0000b0 62 27 03 3c b8 c1 d7 3d 5f bf 0b 3e a5 6c a5 3d
       0.008004995 0.10534996 0.13647221 0.08077363
0000c0 7f da 02 3e 63 e4 6e 3e 13 36 1a 3e d3 29 57 3d
       0.12778662 0.2332931 0.1505969 0.05253012
0000d0 eb 33 f6 3d d4 1f 6f 3d be 8a 34 3c 16 f6 9c bd
       0.12021621 0.058379963 0.011019407 -0.07664125
0000e0 81 3b 06 3e 8f 91 2f 3e 24 ec 28 3e a6 a1 a1 bd
       0.13108636 0.1714537 0.1649633 -0.0789216
0000f0 56 54 c7 bd fc 8d 9b bd ec 2e 6d 3e e3 d6 41 be
       -0.09732883 -0.07595441 0.2316243 -0.18929629
000100 cb fc ca bd dc 1b 87 bd 44 27 d3 3d c1 47 a9 bc
       -0.09911498 -0.06597111 0.10310224 -0.020664098
000110 83 95 86 3d a2 ae 25 3e ca d7 41 be 16 67 05 3e
       0.06571486 0.16179898 -0.18929973 0.13027605
000120 d4 a0 c1 bc f5 3c 4e 3b 2e c4 dd 3d 33 87 db 3b
       -0.02363626 0.0031469439 0.10828434 0.0066994666
000130 b9 65 5e bd 4d 45 e1 3d 67 2a bf bd f4 2f f7 bd
       -0.05429623 0.10999546 -0.093342595 -0.12069693
000140 df 56 08 be 6b a7 ba 3d 14 ff b8 3d 51 ba ae bb
       -0.13314389 0.09113964 0.09033027 -0.0053322692
000150 3f 98 34 be 4d 16 d3 bd 8f ec 20 3e bc 08 30 be
       -0.17636202 -0.10306988 0.1571524 -0.17190832
000160 ba 8f 70 bd 20 ce 07 3e 45 fe e2 3d 04 c1 52 3e
       -0.05873082 0.13262224 0.11083654 0.20581442
000170 95 05 ed bd 9e c8 7e 3e 7b 0a e8 bd 4f a9 0f be
       -0.1157333 0.24881217 -0.11330124 -0.1402943
000180 20 d9 3c 3d 85 25 3f be 01 74 5e be 94 c4 94 be
       0.046105504 -0.18666656 -0.2172394 -0.29056227
000190 08 92 6d 3d 68 59 be 3d 9f b1 06 3e 27 a9 76 3e
       0.058000594 0.09294397 0.13153695 0.24087964
0001a0 5b 51 9e bc 26 e5 02 3e 8a 1c 17 be c6 ce 26 3d
       -0.019325903 0.12782726 -0.1475698 0.04072454
0001b0 8f ee 38 3d b9 db 9b bd f2 d1 6b 3d 28 bf a6 3d
       0.045149382 -0.07610268 0.057573266 0.08141929
0001c0 ee 5c 60 3d 84 9e 18 3d 7a 42 74 bd 46 5e a2 bd
       0.054776125 0.037260547 -0.05963371 -0.079281375
0001d0 c2 dc 04 be ed 54 be bc 66 46 45 3e 64 4f 9b bd
       -0.12974837 -0.023233855 0.19265136 -0.07583502
0001e0 50 76 4b 3e 4a 0c f9 bd cb e2 82 3d 52 03 0e 3d
       0.19869351 -0.12160547 0.063909136 0.034671135
0001f0 55 2c e6 3d 3b 7a 0c 3d 61 70 a7 bd 8c 68 25 bd
       0.112389244 0.034296256 -0.081757315 -0.040382907
000200 f6 44 01 3e d4 b1 1e 3e 5f 57 3c 3e d3 5e 6b 3d
       0.12623963 0.15497524 0.18392704 0.05746348
000210 06 5d d0 3c c7 4d 36 be 24 d2 36 3e 1c f1 84 bd
       0.025434982 -0.17803107 0.178536 -0.064913005
000220 78 e7 d1 3d a3 ad f7 3d d9 ce b8 bd 04 81 07 be
       0.10249227 0.120936655 -0.09023828 -0.1323281
000230 4e 39 35 3e 4c 04 08 3e 7d 34 5d 3e 5f fc fd bd
       0.17697641 0.13282889 0.21602054 -0.124016516
000240 c8 0a 1a 3e 3e d1 fc bc ad b8 43 3d 20 88 5f 3e
       0.15043175 -0.030861493 0.047783542 0.21829271
000250 bc 0a d4 bd 74 ce 1e 3e e6 ec 9b bd 5b 04 12 3a
       -0.1035361 0.15508443 -0.07613544 0.0005570107
000260 3c f1 28 be 40 dd ed 3d c2 27 3c be 2d d1 8b bd
       -0.16498274 0.11614466 -0.18374541 -0.068270065
000270 39 f8 c0 bd a6 17 09 be ef 38 71 3e 7c 5d e4 bd
       -0.09422345 -0.13387927 0.23556875 -0.11150643
000280 c9 0c 1e 3e a2 4c 8c bd 72 3c c6 3d 62 3d 83 3e
       0.15434565 -0.06850554 0.09679498 0.2563277
000290 68 51 4e 3e e8 1b 55 bd 00 24 15 3e a9 d1 9b bd
       0.20148242 -0.052028567 0.14564514 -0.07608349
0002a0 47 3b 32 3e c8 43 05 be f1 58 c3 bd d2 57 8a bd
       0.17405425 -0.13014138 -0.095384486 -0.06755032
0002b0 7f 4f 0c 3e f8 43 19 3e 01 be 88 3d 61 c9 1c 3e
       0.137022 0.14967334 0.06676865 0.15311195
0002c0 db bc ee 3d 55 7b 82 3d 23 81 b9 3d 9f 7c f3 bc
       0.11657115 0.0637118 0.09057834 -0.02972251
0002d0 66 ef d1 3d 05 3c 9b 3d c3 e2 b3 3d ad 02 d8 3d
       0.1025074 0.07579807 0.08783486 0.10547385
0002e0 8d 27 37 be 77 26 19 be 00 7f 37 be 9d 5e 5e be
       -0.17886181 -0.1495608 -0.1791954 -0.2171578
0002f0 8d 42 3f be 24 c4 8d 3d ab 97 9d 3d 0d 5f 26 bc
       -0.18677731 0.069221765 0.07694944 -0.010154498
000300 4e 81 97 3d c2 86 37 3d 09 db 27 3d e5 c6 58 bd
       0.0739771 0.04480625 0.040980373 -0.052924056
000310 ca 4e b6 bd 24 14 0e be 05 00 cc bd 24 d0 fd 3c
       -0.089017466 -0.1387487 -0.09960941 0.030983038
000320 35 a2 b5 bc e6 e2 da 3d 54 2b 21 3e db 46 ce 3c
       -0.022172073 0.10687809 0.15739185 0.02518027
000330 89 4f 2f 3e d4 0d d3 3d 3c 70 14 3e 0e 80 85 be
       0.17120184 0.10305372 0.14495939 -0.2607426
000340 e0 9c 77 3d 88 9a 5e be da 8b a7 be 6b 14 8b 3d
       0.060452342 -0.21738636 -0.32723886 0.06791004
000350 8c 89 fd bd dd ab 9a bc ad e2 09 3e 22 8f 95 3c
       -0.123797506 -0.018880779 0.13465376 0.018256728
000360 4e 02 ee bd 6e 52 46 3e 77 34 a6 3d 10 ca 2f bd
       -0.11621533 0.19367382 0.081154756 -0.04291731
000370 c6 d6 b4 bd ff 09 50 bd 9f e1 67 3e 93 8a cb bc
       -0.08830027 -0.050790783 0.22644661 -0.02484635
000380 bf 40 07 3e 9c 22 bf 3d 39 4f 75 bd 00 44 3b bb
       0.13208292 0.09332773 -0.059890006 -0.0028574467
000390 8d 1a 9a bc a0 a4 00 3d dd 54 81 3d 97 f5 17 3d
       -0.018811489 0.031407 0.063150145 0.037099447
0003a0 aa 4f 9d bc b3 87 48 bd e8 26 d3 bd 62 22 b9 3c
       -0.019203026 -0.048957538 -0.10310155 0.022599403
0003b0 e0 71 14 3e 8e 9c 5f 3e 24 f5 b1 3c b0 83 a1 3d
       0.14496565 0.21837065 0.021723337 0.078864455
0003c0 b4 77 84 3d cc 0d a2 3d 9a b9 91 3c b8 af 4f 3d
       0.06468144 0.07912788 0.017788697 0.050704688
0003d0 d9 62 0e 3e 1c a1 10 3e 64 2c 2c 3e 0b 4e 0e 3e
       0.13904895 0.14123958 0.16813809 0.13896959
0003e0 5f 61 4e 3c ae 40 1b be 3e b7 8d bd 93 99 80 bd
       0.012596457 -0.15161392 -0.06919716 -0.06279292
0003f0 14 d4 3f be 6f 66 2e 3e 06 19 4d 3e 25 0b f7 3d
       -0.18733245 0.17031263 0.20029077 0.120626725

out/MatMul_bias f4 [35]
000000 83 82 8c bc 62 87 38 bd f2 98 8c bc 77 1a b6 3d
       -0.017152077 -0.045050986 -0.017162774 0.088917665
000010 54 24 91 bc 67 c6 78 3c e5 70 68 3d 2f 98 96 3d
       -0.017717518 0.015184022 0.05674829 0.073532455
000020 ca d2 8d bd 14 3e d5 bb b1 fb 09 bd 4c 03 b7 bd
       -0.069249704 -0.0065076444 -0.033687297 -0.08936176
000030 63 44 05 bd 1a 5f 71 3d dd fd 8c bc 20 c3 2c bd
       -0.03253592 0.058928587 -0.017210895 -0.042178273
000040 84 c9 c0 3b d9 36 8a bd 6f a4 ca bd c0 38 25 bd
       0.0058833975 -0.067487426 -0.098946445 -0.040337324
000050 5d b3 d1 3d 3e 11 1d bd 4d 3a 05 bd 99 58 d0 bd
       0.10239289 -0.03834652 -0.032526303 -0.10173149
000060 48 97 f9 3c 8c 2a 8b bd 6f 2b 9c 3c df 6d e6 b9
       0.030467644 -0.067952245 0.01906368 -0.0004395088
000070 c1 c4 7f 3d 07 dd c6 3d 88 33 f9 bb 90 5a 69 bd
       0.0624435 0.09710126 -0.00760502 -0.056971133
000080 85 9c 0e 3d 85 38 87 3a 7b 62 a3 bd
       0.034817237 0.0010316527 -0.07977768

out/kernel/transpose f4 [35, 120]
000000 b7 84 99 3e bf b9 93 3e 47 39 20 bf 83 41 46 bf
       0.29984066 0.2885265 -0.625874 -0.7744371
000010 a2 bc 04 3e b3 1e 56 3e 2a ac 37 bf d1 40 97 3d
       0.12962583 0.20910148 -0.71747077 0.073854096
000020 74 60 1e bf 68 c3 68 bd 77 c2 5e be 81 de d7 be
       -0.61865926 -0.05682698 -0.2175387 -0.42161945
000030 0d 40 a8 3e 42 1b 0d bf 9e d6 8c 3e 0b 27 b2 be
       0.32861367 -0.5511972 0.2750749 -0.34795412
000040 42 09 15 bf b0 1d e1 be 0c 3d 1f be 4a 9a 90 be
       -0.5821725 -0.43967962 -0.15550631 -0.28242713
000050 e0 e0 a9 3e 94 20 31 3e 34 3a 56 3e c7 59 37 bf
       0.33179379 0.17297584 0.2092064 -0.71621364
000060 00 18 93 3e ff b0 54 bf e9 8c e5 3b a6 a8 01 bf
       0.28729248 -0.83082575 0.007005323 -0.5064796
000070 65 5f 1d bf 66 9b 42 3e 69 ca 96 3e 49 da 3d bf
       -0.61473686 0.19004592 0.29451302 -0.741612
000080 cb 2e 52 3e d8 1c 75 bf 19 9f 5b bd 4d e9 05 bf
       0.20525663 -0.9574714 -0.053618524 -0.52309114
000090 67 d2 11 be 7e 16 16 bf c8 53 de be 86 2e a1 3e
       -0.14240418 -0.5862807 -0.43423295 0.31480807
0000a0 7d 80 75 3e 21 1e 49 bf 73 d6 26 bf 4c 5b 1a bf
       0.23974796 -0.785616 -0.65170974 -0.6029556
0000b0 c8 6f 85 3e 10 dc a1 3e 88 7a 07 3e f9 bd 51 3d
       0.26061845 0.31613207 0.13230336 0.051206563
0000c0 63 c2 81 bf a1 da 1d 3e 17 d9 60 bf 76 44 0f bf
       -1.0137447 0.15415432 -0.8783125 -0.5596384
0000d0 e9 e5 21 be 36 a1 de be 70 76 87 3e 2d d1 29 bf
       -0.1581036 -0.4348237 0.26457548 -0.663348
0000e0 72 2a 0f bf 9c 23 65 bf 8f 6a 2a 3e d5 78 9d 3e
       -0.5592414 -0.8950746 0.16642211 0.3075625
0000f0 98 c9 a0 3e d9 50 25 bf d3 5a fd be b8 5d c6 be
       0.31403804 -0.6457649 -0.49483356 -0.38743377
000100 62 50 91 3e 52 d5 95 bf 43 89 df 3d 4c 66 8f 3e
       0.2838164 -1.1705725 0.109148525 0.28007734
000110 f0 b0 aa be b0 c6 b0 3e 1c 09 24 3e 41 e2 3f 3e
       -0.33338118 0.34526587 0.160191 0.18738653
000120 05 ca c0 3e 30 b7 7d 3e 68 32 28 bf 76 4c 73 3d
       0.3765413 0.24776912 -0.65701914 0.05939909
000130 35 0b 8f 3e 47 5f 3b bf 38 5c 27 be 44 e0 a5 3d
       0.27938238 -0.73192257 -0.16343772 0.08099416
000140 54 c4 b2 3e 74 3e 21 bf 8e 86 b2 3e 05 cc 16 bf
       0.3491541 -0.6298592 0.34868282 -0.5890506
000150 cb 0f 5d bf 77 98 2d 3e d6 6b 0b bf 9d a4 71 3e
       -0.86352223 0.16952692 -0.5446142 0.23597951
000160 9e c0 94 be 9f 1d 95 bf f1 45 f1 bd ca 01 4e 3e
       -0.29053205 -1.1649665 -0.117809184 0.2011787
000170 94 dc c3 bd 07 50 e1 3d fc f6 14 bf f1 d4 82 3e
       -0.09563556 0.11001592 -0.5818937 0.25553086
000180 59 98 89 be e2 b5 10 bf 78 34 2b 3e 90 37 81 bf
       -0.26874045 -0.5652753 0.16719234 -1.0095081
000190 12 7a 0c bf ef dc dc be 8a 0e 95 3e bf 37 42 bf
       -0.54873765 -0.4313731 0.29112655 -0.7586631
0001a0 57 35 57 3e 15 b9 91 3e 20 76 dd be 69 39 d0 3d
       0.21016441 0.2846152 -0.43254185 0.101672
0001b0 47 bd 7b 3e 3a 11 4d 3e e5 a4 a4 be 2a 43 88 bf
       0.24583922 0.20026103 -0.32157055 -1.0645497
0001c0 96 e0 1d be 7e 64 16 bf c5 f6 df be ef 22 11 bf
       -0.15417704 -0.5874709 -0.43742958 -0.5669393
0001d0 d3 81 20 3d f0 2b a2 3e 40 22 63 bc d2 82 82 bf
       0.03918631 0.31674147 -0.013863146 -1.0196173
0001e0 10 01 9e 3e 6b 5f 1d bf 08 a5 de be 1a 75 6f 3e
       0.30860186 -0.6147372 -0.43485284 0.23384514
0001f0 e8 2f 5d bf 1a 10 1c bf bd 62 84 be 3a c7 37 bf
       -0.86401224 -0.6096207 -0.2585658 -0.7178837
000200 06 6f 35 bf 2c 98 13 bf c0 43 c7 3e 29 b4 41 bf
       -0.70872533 -0.5765407 0.38918877 -0.7566553
000210 fa d9 1d bf 94 27 92 3d f6 35 62 bf a2 31 39 3e
       -0.6166073 0.07136455 -0.8836359 0.1808534
000220 7c da 0d bf 9c 44 10 bf 3e cf 4e 3e 5a ac b0 3e
       -0.55411506 -0.5635469 0.20196244 0.34506494
000230 9c 64 92 3e 50 c4 4b 3e 3e 53 9e be 19 b1 8f 3e
       0.28592384 0.19899106 -0.30922884 0.28064802
000240 50 ae ee be be 3f 72 bf eb 02 55 bf 1e 68 25 bf
       -0.46617365 -0.9462851 -0.8320758 -0.64611995
000250 e9 24 40 3e 66 25 f6 3d 82 8f 97 be 05 10 6c be
       0.1876408 0.12018852 -0.29601675 -0.23052986
000260 b9 3d ce be 0c 02 89 3c b1 98 1b bf 80 30 d5 be
       -0.40281466 0.016724609 -0.60779864 -0.41638565
000270 a4 49 87 3e 05 bf 36 bf aa 6d d2 bd 6a a7 ce be
       0.2642337 -0.7138522 -0.10274823 -0.40362102
000280 87 b9 96 3e 8a d4 8b 3e 61 43 17 bf b5 3c cb be
       0.2943842 0.27310592 -0.5908719 -0.39694753
000290 1f b2 e5 be 07 7f 9e bc 1b dd 70 3e f9 fb 1b bf
       -0.44862458 -0.01934768 0.23521845 -0.60931355
0002a0 f8 74 a2 3e 86 4e 23 bf 4c bb 14 bf ce 8e 58 3e
       0.31729865 -0.6379169 -0.5809829 0.21148226
0002b0 53 19 3f 3e b3 16 a4 3e 03 66 bb be 42 f9 c1 3c
       0.18662004 0.32048568 -0.36601266 0.023678426
0002c0 b3 d9 86 3e 06 ce 51 bf 18 e8 bc be 3d 67 35 bf
       0.26337966 -0.8195499 -0.36895823 -0.70860654
0002d0 67 66 09 bf 8d 5a b6 be 49 5c aa 3e a3 d6 32 bf
       -0.5367188 -0.3561596 0.33273533 -0.6985876
0002e0 8d 54 67 3e 7f 2d 61 3e 06 63 fd be 29 4b 80 3e
       0.22590847 0.21990012 -0.4948961 0.25057343
0002f0 84 b0 b3 be 01 f3 10 bf 9b bf 23 3e 64 96 8f be
       -0.35095608 -0.56620795 0.1599106 -0.28044426
000300 1a a4 a0 3e fe 56 b2 be 0b b4 39 bf 20 55 b3 3e
       0.313752 -0.34831995 -0.7254035 0.35025883
000310 58 2d 85 3e 91 be 50 3e 47 cf a7 3e c4 da 8e 3e
       0.26011157 0.20385195 0.32775328 0.2790128
000320 c4 cb 52 bf ad ea 6b bf 26 1b 87 be 4c 18 02 bf
       -0.8234217 -0.9215496 -0.263879 -0.50818324
000330 a1 27 0e bf 2a ba 5b 3e 24 08 1e bf 02 e8 90 3e
       -0.5552922 0.21457735 -0.6173117 0.28302008
000340 4a 2e eb be 41 1a 13 bf a1 7f 30 bf a9 48 58 bd
       -0.45933753 -0.57461935 -0.68944746 -0.05280367
000350 a3 a6 82 3e 5e e9 04 3e 1b d5 9d 3e 70 16 e6 3d
       0.2551776 0.12979648 0.3082665 0.11234748
000360 03 37 0a 3e d1 61 85 3e 1b 37 1f bf 76 4a 98 3e
       0.13497548 0.2605119 -0.6219346 0.2974431
000370 72 87 f7 be aa 55 db be dc d7 82 be 16 e1 b9 3d
       -0.48345524 -0.42838794 -0.25555313 0.09076135
000380 0e 37 9c 3e 83 91 d9 3d b3 a1 d8 3d c3 65 48 3e
       0.30510753 0.10623457 0.10577717 0.19570069
000390 b8 74 f8 be 2b 45 41 bf 0d 84 cf 3d d4 36 f4 be
       -0.4852655 -0.75496167 0.101326086 -0.4769808
0003a0 aa e0 9e 3e 74 8c 2c bf 19 5e be 3e a7 a6 4a bf
       0.3103078 -0.67401814 0.37181166 -0.7916054
0003b0 12 e7 4d 3d e1 e7 50 3c 00 e1 60 3e 52 e8 68 3e
       0.050269194 0.012750597 0.2196083 0.22744873
0003c0 3e 2e 5a bf e1 4d 5e bf ef 81 bd bd d9 39 f6 be
       -0.8522681 -0.86837584 -0.092532985 -0.4809101
0003d0 5d 92 95 3e 8c 7a 42 bf 41 42 b3 3e 4b 5b 92 3e
       0.2921323 -0.7596824 0.35011485 0.28585276
0003e0 6e 2f 0e be bf 93 8a bf 96 3f e2 be 72 da 80 bf
       -0.1388528 -1.0826339 -0.44189137 -1.0066664
0003f0 57 eb 32 3d 30 c0 f6 bd 06 27 8a bd 41 f1 ce 3b
       0.04368147 -0.120483756 -0.067457244 0.006315381
