bots/en/Scooby-Doo.chatbot/converted_model.tflite (tflite, 236136 bytes, 4 tensors)

in/MatMul_bias f4 [128]
0.1133839 0.12890518 0.17285469 0.17748927 0.19013958 0.1605541 0.25746328 0.15299173
0.15147984 0.17962159 0.16321312 0.148931 0.13017856 0.1839316 0.1705807 0.18044186
0.13832556 0.1785416 0.15144588 0.1843101 0.17921302 0.22408074 0.15094288 0.15096073
0.1862326 0.16917014 0.22871554 0.18004338 0.18065967 0.20364 0.19855082 0.2280286
0.15966393 0.17527318 0.1868617 0.11365745 0.18369935 0.16090477 0.16721721 0.16293634
0.20050155 0.21415275 0.217446 0.16475639 0.13553803 0.15193172 0.17501056 0.20731717
0.16681093 0.1397828 0.2232707 0.17505027 0.16978715 0.2245151 0.18186249 0.16860679
0.16023259 0.20141448 0.1857648 0.1464175 0.20031103 0.119552925 0.12627806 0.14770585
0.14950213 0.1646627 0.21214429 0.18413413 0.19919084 0.15623833 0.21005343 0.20249839
0.15018521 0.15574963 0.1852001 0.12189662 0.12862302 0.14956705 0.21693777 0.16981068
0.1993069 0.20760904 0.09453592 0.115527004 0.19862667 0.15360999 0.19754511 0.15758573
0.17882338 0.17234153 0.1057529 0.20648856 0.14817834 0.15302075 0.14938599 0.2205274
0.13647641 0.16352773 0.17204149 0.23269072 0.11419289 0.18122195 0.16937704 0.19747809
0.16733019 0.13438739 0.15184538 0.21434289 0.22921732 0.1555351 0.17699969 0.229089
0.23065986 0.20409957 0.18655072 0.1281987 0.22214648 0.19481593 0.19135025 0.12917204
0.12307924 0.16888908 0.18503033 0.21188527 0.17340246 0.21172981 0.16033448 0.1765316
00000000: d135 e83d b8ff 033e d200 313e bfbf 353e
00000010: f3b3 423e 4b68 243e 3ad2 833e dda9 1c3e
00000020: 881d 1b3e b9ee 373e 5721 273e 5e81 183e
00000030: 874d 053e 9158 3c3e b5ac 2e3e c0c5 383e
00000040: 37a5 0d3e 9cd3 363e a114 1b3e c9bb 3c3e
00000050: 9e83 373e 6c75 653e c590 1a3e 7395 1a3e
00000060: c2b3 3e3e f03a 2d3e 6834 6a3e 4b5d 383e
00000070: d9fe 383e 0187 503e e850 4b3e 5480 693e
00000080: f17e 233e d07a 333e ac58 3f3e 3dc5 e83d
00000090: af1b 3c3e 38c4 243e fd3a 2b3e c9d8 263e
000000a0: 4750 4d3e dc4a 5b3e 2aaa 5e3e e6b5 283e
000000b0: 7bca 0a3e fd93 1b3e f835 333e f44a 543e
000000c0: 7cd0 2a3e 3923 0f3e 13a1 643e 6140 333e
000000d0: afdc 2d3e 49e7 653e 293a 3a3e 42a7 2c3e
000000e0: 0314 243e 993f 4e3e 2139 3e3e 78ee 153e
000000f0: 561e 4d3e 2ad8 f43d 094f 013e 3440 173e
00000100: 1617 193e 579d 283e 5a3c 593e a88d 3c3e
00000110: aff8 4b3e f1fc 1f3e 3f18 573e bd5b 4f3e
00000120: 27ca 193e d57c 1f3e 18a5 3d3e efa4 f93d
00000130: c1b5 033e 1b28 193e ef24 5e3e dae2 2d3e
00000140: 1c17 4c3e 7797 543e 0c9c c13d 6c99 ec3d
00000150: ca64 4b3e f04b 1d3e 4449 4a3e 275e 213e
00000160: 7a1d 373e 4c7a 303e fa94 d83d bd71 533e
00000170: 10bc 173e 79b1 1c3e a4f8 183e efd1 613e
00000180: 79c0 0b3e d073 273e a52b 303e 7a46 6e3e
00000190: f6dd e93d 3f92 393e 2d71 2d3e b237 4a3e
000001a0: 9b58 2b3e d99c 093e 5b7d 1b3e b47c 5b3e
000001b0: f2b7 6a3e 9844 1f3e 683f 353e 4f96 6a3e
000001c0: 1932 6c3e 7aff 503e 2707 3f3e 8546 033e
000001d0: 5e7a 633e d47d 473e 52f1 433e ad45 043e
000001e0: f810 fc3d 42f1 2c3e 9778 3d3e 74f8 583e
000001f0: 6a90 313e b3cf 583e b92e 243e b3c4 343e

in/kernel/transpose f4 [128, 438]
-0.11462272 0.11434721 0.069605656 -0.04333746 0.13342719 -0.038013577 -0.0026231322 0.09518348
-0.040986296 -0.11469524 -0.12156641 -0.06884159 -0.059395764 0.111749865 -0.058961753 -0.087617
-0.081846595 -0.032514695 0.105395086 -0.1171902 0.010835315 -0.07920167 -0.099303596 -0.099584155
-0.03211025 0.01724172 -0.10509486 -0.02155071 0.18317376 0.19811702 0.21559973 0.020827882
0.033200435 -0.034666814 0.0029180204 -0.15321898 -0.090078324 0.016570972 -0.02882575 0.18978438
-0.14963207 -0.008822694 0.021251136 0.19644706 0.0633453 -0.037449494 -0.014091018 0.14413689
0.07869182 -0.06781938 -0.03558152 0.08026826 -0.13754578 0.0041049053 0.05734607 -0.10989941
-0.03570943 -0.116696216 -0.08717338 0.016571881 -0.06589813 0.057913296 0.13377404 -0.021307193
0.22997501 -0.03935038 0.043904133 -0.068511724 0.08644813 0.034161218 0.23819447 -0.12550046
-0.09785133 -0.14084177 0.08732751 0.034505405 -0.0076425187 0.036918577 -0.072749116 0.15442285
-0.050499674 0.23711762 -0.11987969 -0.009400774 -0.052441135 0.10189347 -0.14084351 -0.06549841
0.16455817 0.15335453 -0.12540169 -0.032487012 -0.024453102 0.08457991 -0.12533201 0.08518446
0.042699095 -0.10155019 0.27627835 0.14126204 -0.084000446 0.08263165 0.11200749 -0.1961615
0.067971215 -0.127798 -0.0929492 -0.015747547 -0.029006964 -0.06350521 0.16034903 0.00028246656
-0.11161192 0.07373104 -0.0047601424 -0.009363683 -0.070595905 -0.109702066 0.04178215 0.2064349
-0.1076511 -0.11805742 0.0054343287 0.0067031523 0.04013002 0.036223195 0.051579446 0.11578374
0.09851801 -0.11465512 0.0704807 0.04822515 0.015414751 -0.113758355 0.019549293 0.08759701
-0.10866393 -0.078864455 -0.015380983 -0.08407121 0.028512308 0.155178 -0.07868057 0.11265579
0.18734318 0.2794825 0.082508564 -0.032733914 0.008978844 0.1370678 0.026957572 0.009639958
0.055325355 -0.06603353 -0.12509608 0.028203305 0.011122308 0.12747578 0.125634 0.0492975
-0.0718903 -0.08088272 -0.0440057 -0.031488106 0.003927226 0.23179436 -0.10057224 0.17639425
0.26433453 -0.145094 0.13190997 -0.074284025 0.04414161 -0.037633248 0.13761288 -0.06620751
0.010776979 -0.0089063095 0.018431472 0.027481789 0.080471836 0.017122274 0.091975324 -0.014438577
-0.04600102 -0.20261246 -0.073514014 0.057902705 0.050003875 0.14171143 0.074434385 0.027531117
-0.1295091 0.0024941382 0.1360457 0.053012643 0.16651799 0.03657189 0.20471041 0.108269736
-0.09553291 0.08846831 0.05258325 -0.07465279 -0.01674166 -0.022493167 -0.038663022 0.07555842
-0.07337598 -0.04153189 0.15668125 0.0499428 0.060439665 0.18319085 -0.019242186 -0.08274864
0.19632481 0.04175472 0.28516525 0.04982432 0.13176838 -0.028756198 -0.09655549 0.044136617
0.054562036 -0.040650435 0.14224112 0.038309395 0.12862252 0.286818 0.18052922 0.11570111
-0.08600079 -0.05133467 0.17709608 -0.040691692 0.015961105 -0.09343722 -0.11823315 0.13495292
0.03601168 0.11310851 0.105718456 0.2087052 0.15120986 0.13473834 -0.04123641 0.1613778
-0.12564291 0.007232183 0.17268586 -0.0066595227 0.16290864 0.16087693 -0.18090059 0.005662301
00000000: 51bf eabd df2e ea3d 698d 8e3d 9f82 31bd
00000010: 23a1 083e 20b4 1bbd dbe8 2bbb 8eef c23d
00000020: 3fe1 27bd 57e5 eabd cff7 f8bd d2fc 8cbd
00000030: f948 73bd 1ddd e43d e181 71bd 8b70 b3bd
00000040: 309f a7bd 212e 05bd 61d9 d73d 6a01 f0bd
00000050: 9b86 313c 7c34 a2bd af5f cbbd c7f2 cbbd
00000060: 0a86 03bd 823e 8d3c f93b d7bd 1d8b b0bc
00000070: e791 3b3e 30df 4a3e 2dc6 5c3e 3c9f aa3c
00000080: 2efd 073d cafe 0dbd 423c 3f3b 70e5 1cbe
00000090: fc7a b8bd d9bf 873c fb23 ecbc d656 423e
000000a0: 2639 19be 108d 10bc dd16 ae3c 6b29 493e
000000b0: 2ebb 813d a464 19bd 03de 66bc 9f98 133e
000000c0: 2d29 a13d e3e4 8abd eebd 11bd af63 a43d
000000d0: cdd8 0cbe 7182 863b b6e3 6a3d f112 e1bd
000000e0: 0d44 12bd 6dfe eebd f587 b2bd c1c1 873c
000000f0: 99f5 86bd 7e36 6d3d 10fc 083e 6c8c aebc
00000100: 927e 6b3e dd2d 21bd d2d4 333d e04f 8cbd
00000110: b80b b13d a2ec 0b3d 40e9 733e 3183 00be
00000120: 4766 c8bd d338 10be c4d8 b23d 8a55 0d3d
00000130: 186e fabb ef37 173d 7dfd 94bd 0621 1e3e
00000140: bfd8 4ebd f6ce 723e 7c83 f5bd b405 1abc
00000150: 84cc 56bd 86ad d03d 4839 10be 0824 86bd
00000160: f081 283e f808 1d3e 4d69 00be 1a11 05bd
00000170: df51 c8bc 3b38 ad3d 0957 00be 3175 ae3d
00000180: 3fe5 2e3d 8cf9 cfbd 5b74 8d3e ffa6 103e
00000190: 6d08 acbd c83a a93d 2f64 e53d 8fde 48be
000001a0: 7e34 8b3d 7bdd 02be 265c bebd 0001 81bc
000001b0: 03a0 edbc 050f 82bd 8932 243e 0518 9439
000001c0: ca94 e4bd 4d00 973d f8fa 9bbb 226a 19bc
000001d0: 9694 90bd 7aab e0bd c223 2b3d ac63 533e
000001e0: 2e78 dcbd 17c8 f1bd 7412 b23b 1ea6 db3b
000001f0: 605f 243d c65e 143d f844 533d 0720 ed3d
00000200: cfc3 c93d 4ed0 eabd 2f58 903d bc87 453d
00000210: 278e 7c3c 24fa e8bd d725 a03c 1066 b33d
00000220: 328b debd b083 a1bd 8500 7cbc 872d acbd
00000230: a592 e93c fbe6 1e3e 4723 a1bd 14b8 e63d
00000240: e4d6 3f3e 5518 8f3e 40fa a83d ff13 06bd
00000250: 001c 133c 805b 0c3e 20d6 dc3c eaf0 1d3c
00000260: d79c 623d 963c 87bd 3019 00be 9e0a e73c
00000270: 573a 363c 0389 023e 33a6 003e 2dec 493d
00000280: 393b 93bd d7a5 a5bd 523f 34bd acf9 00bd
00000290: f6af 803b 805b 6d3e d2f8 cdbd b2a0 343e
000002a0: db56 873e 8693 14be 6813 073e 3922 98bd
000002b0: d5cd 343d 5225 1abd 64ea 0c3e ce97 87bd
000002c0: ed91 303c c5eb 11bc 99fd 963c 7d21 e13c
000002d0: 6bce a43d 0344 8c3c 8f5d bc3d c88f 6cbc
000002e0: 916b 3cbd a479 4fbe 848e 96bd 632b 6d3d
000002f0: ddd0 4c3d cd1c 113e 0e71 983d f088 e13c
00000300: 099e 04be b274 233b 904f 0b3e c923 593d
00000310: b183 2a3e 68cc 153d 9b9f 513e 86bc dd3d
00000320: c2a6 c3bd e02e b53d 8961 573d 90e3 98bd
00000330: ce25 89bc 9743 b8bc 1e5d 1ebd 5fbe 9a3d
00000340: 2546 96bd 581d 2abd 0d71 203e d290 4c3d
00000350: 958f 773d 6296 3b3e caa1 9dbc 1e78 a9bd
00000360: 5f09 493e ff06 2b3d 2e01 923e 9614 4c3d
00000370: 4aee 063e 1e92 ebbc e2be c5bd 99c8 343d
00000380: 717c 5f3d 1281 26bd a8a7 113e 50ea 1c3d
00000390: 9fb5 033e cfd9 923e a7dc 383e b4f4 ec3d
000003a0: 2f21 b0bd 4e44 52bd ad58 353e 55ac 26bd
000003b0: ddc0 823c 035c bfbd 3924 f2bd 1931 0a3e
000003c0: fc80 133d 6fa5 e73d eb82 d83d d1b6 553e
000003d0: c2d6 1a3e d9f8 093e 83e7 28bd 3940 253e
000003e0: 89a8 00be f3fb ec3b 90d4 303e 2038 dabb
000003f0: 86d1 263e ecbc 243e 013e 39be d38a b93b

out/MatMul_bias f4 [20]
0.0139963655 -0.057333637 -0.06433757 -0.048263043 0.025252162 0.0011896463 0.02276691 -0.025994107
0.024358278 0.0029052773 0.09557202 0.018262628 0.031585567 -0.047132537 -0.020413168 -0.10827123
0.025119267 0.0019444125 -0.067614384 -0.010604706
00000000: 0351 653c add6 6abd 6ac3 83bd 78af 45bd
00000010: 9fdd ce3c e8ed 9b3a ac81 ba3c 98f1 d4bc
00000020: 038b c73c 7766 3e3b 43bb c33d 829b 953c
00000030: de5f 013d 0c0e 41bd 8439 a7bc 4ebd ddbd
00000040: ecc6 cd3c a8db fe3a 6979 8abd 5cbf 2dbc

out/kernel/transpose f4 [20, 128]
-0.7023601 -0.555402 -0.64514357 0.09018365 -0.16682969 0.07052633 0.19269489 -0.26326957
-0.46342224 -0.4916763 -0.50925124 -0.32021987 0.13509928 -0.20317855 0.35459614 -0.19519526
-0.000348181 0.14118256 -0.3537248 0.2246103 0.3863853 0.15446423 0.27141207 -0.3018564
-0.3783135 0.042583175 0.21794578 0.22564368 -0.59373504 0.1972752 0.14940467 0.111588776
-0.29001245 -0.49387637 0.26269037 -0.36935654 -0.6166017 -0.5926458 0.09752577 -0.40221116
0.0150288725 -0.0065063657 0.18686357 -0.48316866 -0.4525926 0.061258245 -0.34524834 0.16065502
-0.728178 0.07359733 0.28724155 -0.3253878 0.11865321 0.25778675 0.085095935 -0.33440253
-0.53894573 0.050076462 -0.2624958 -0.3772968 -0.35028464 -0.40224698 -0.13503863 0.100819245
-0.27752995 0.10773883 -0.6022685 -0.555189 0.25487673 -0.40302926 -0.822131 0.20422821
0.27424458 0.2527427 0.13667773 -0.4116802 -0.4956599 -0.5432607 0.1821792 -0.45314237
0.23855534 -0.62580574 0.042859685 -0.07303895 -0.7431694 -0.4335209 -0.05277612 -0.019614562
0.16177139 0.16550829 -0.24462685 0.23239002 -0.24177484 0.17922 -0.54809237 -0.36516762
0.106024325 -0.43150845 0.20065513 0.10265577 0.3005321 0.10663347 0.19518065 0.2524152
0.320821 -0.12641355 0.22804838 0.15289283 0.22654393 -0.52037704 0.24470326 0.19698729
0.25678143 0.23071542 0.042720616 -0.45290568 -0.5363572 0.19061446 0.25877506 0.08179039
0.26018047 -0.17674848 -0.77552176 0.17460737 -0.4343151 -0.4671089 -0.5180178 -0.3754531
-0.38628274 0.0043487744 0.12010512 -0.5230097 0.31960213 -0.355783 0.07010162 -0.53075415
0.18549483 0.13638172 -0.5478131 0.21427272 0.28106496 -0.42502367 0.25134853 0.21785972
0.097878434 0.17353389 0.07040485 -0.43810698 -0.29220533 -0.33369753 -0.19649427 -0.2660025
0.12750953 0.30091935 -0.109233424 -0.57624817 -0.36924595 0.08203831 -0.6846538 -0.5374778
0.3393721 -0.53795815 -0.32892883 0.29665866 -0.2695219 -0.12142217 0.2503485 -0.22490045
0.1192102 -0.5121518 -0.4009727 0.25362262 0.24446678 -0.47208568 -0.5973049 0.1885202
0.34120944 -0.39937273 -0.49556348 -0.18680179 -0.2451852 0.1669316 0.22111243 0.14446405
-0.44481307 -0.35967615 0.11432153 -0.13458598 0.0037147235 -0.19952227 -0.3086953 0.080330215
-0.27478877 0.2640989 0.16483992 0.12193039 -0.42269817 -0.18243605 -0.5237256 0.31501254
0.08081252 -0.19745526 0.20989421 0.16216265 -0.40703297 0.23149392 -0.7267532 0.17382614
-0.1944806 0.34608144 -0.36748672 -0.5641951 -0.61347955 -0.3076422 -0.6190631 0.2608975
-0.66733277 0.29424843 -0.18839744 -0.27475744 0.16119759 -0.21556176 0.03849495 0.0231327
0.25751126 0.13395505 -0.71823895 -0.7263227 0.14338149 -0.7954135 -0.4649924 -0.39840156
-0.5374367 -0.123658024 0.23485677 0.33814752 -0.14741237 0.14552943 0.07910684 -0.4025122
0.08190246 0.03364051 0.15830567 -0.44321543 -0.6958659 0.0154193435 -0.30718306 0.2361242
0.1393661 -0.4230551 -0.4973314 -0.48580486 0.27617446 -0.40729025 -0.10318121 -0.3446048
00000000: dfcd 33bf d32e 0ebf 2128 25bf 35b2 b83d
00000010: 67d5 2abe 1c70 903d cf51 453e 45cb 86be
00000020: ae45 edbe ffbc fbbe 4a5e 02bf dcf3 a3be
00000030: 7757 0a3e 0a0e 50be a08d b53e 44e1 47be
00000040: 108c b6b9 2992 103e 6b1b b5be 3e00 663e
00000050: 4bd4 c53e df2b 1e3e 86f6 8a3e ec8c 9abe
00000060: 4fb2 c1be b26b 2e3d 2e2d 5f3e 230f 673e
00000070: 05ff 17bf 8302 4a3e 8afd 183e a888 e43d
00000080: 837c 94be 5ddd fcbe 5a7f 863e 4d1c bdbe
00000090: 9cd9 1dbf a3b7 17bf 97bb c73d 9fee cdbe
000000a0: a93b 763c 5a33 d5bb 2a59 3f3e e261 f7be
000000b0: 38ba e7be ede9 7a3d 64c4 b0be c082 243e
000000c0: e069 3abf 32ba 963d 5311 933e 3b99 a6be
000000d0: 7400 f33d a0fc 833e c746 ae3d cf36 abbe
000000e0: 59f8 09bf fa1c 4d3d d965 86be 0c2d c1be
000000f0: 8258 b3be 51f3 cdbe 9147 0abe 527a ce3d
00000100: 6818 8ebe 2da6 dc3d 452e 1abf de20 0ebf
00000110: 347f 823e da59 cebe 2d77 52bf 3321 513e
00000120: c969 8c3e 7e67 813e 3ff5 0b3e bfc7 d2be
00000130: 22c7 fdbe 2213 0bbf 2f8d 3a3e 4702 e8be
00000140: da47 743e ce34 20bf a38d 2f3d 7295 95bd
00000150: 5a40 3ebf 74f6 ddbe c62b 58bd b8ae a0bc
00000160: 66a7 253e 017b 293e 767f 7abe a6f7 6d3e
00000170: d393 77be 7385 373e c84f 0cbf 40f7 babe
00000180: 4823 d93d adee dcbe 8a78 4d3e 303d d23d
00000190: 58df 993e a662 da3d 70dd 473e 913c 813e
000001a0: a642 a43e 8e72 01be 8485 693e f08f 1c3e
000001b0: 22fb 673e 6e37 05bf 7e93 7a3e 09b7 493e
000001c0: db78 833e aa40 6c3e d0fb 2e3d 41e3 e7be
000001d0: b54e 09bf 7030 433e 2a7e 843e b881 a73d
000001e0: 6036 853e 8efd 34be 9888 46bf 46cc 323e
000001f0: 8c5e debe e628 efbe d19c 04bf 643b c0be
00000200: dac6 c5be 2a80 8e3b acf9 f53d f7e3 05bf
00000210: e4a2 a33e 3029 b6be 7091 8f3d 81df 07bf
00000220: 5bf2 3d3e a6a7 0b3e 7b3d 0cbf 4f6a 5b3e
00000230: bfe7 8f3e b49c d9be c1b0 803e 9e16 5f3e
00000240: 7d74 c83d deb2 313e 6b30 903d 8f4f e0be
00000250: f09b 95be 67da aabe cb35 49be 7b31 88be
00000260: dc91 023e 1a12 9a3e c6b5 dfbd 0085 13bf
00000270: ce0d bdbe b403 a83d 7945 2fbf 2598 09bf
00000280: 2ec2 ad3e a0b7 09bf 5c69 a8be a5e3 973e
00000290: c6fe 89be 30ac f8bd ae2d 803e 4e4c 66be
000002a0: 7a24 f43d 611c 03bf 4b4c cdbe d3da 813e
000002b0: 8055 7a3e 37b5 f1be f9e8 18bf 700b 413e
000002c0: 01b3 ae3e 957a ccbe 7fba fdbe f848 3fbe
000002d0: d411 7bbe 1ef0 2a3e 4c6b 623e 62ee 133e
000002e0: 8abe e3be 7927 b8be 6821 ea3d e8d0 09be
000002f0: b872 733b 914f 4cbe 4f0d 9ebe 2b84 a43d
00000300: 1db1 8cbe f937 873e cccb 283e a4b6 f93d
00000310: e56b d8be 84d0 3abe e212 06bf 5349 a13e
00000320: 0981 a53d b631 4abe 82ee 563e f70d 263e
00000330: a066 d0be be0c 6d3e 7f0c 3abf 7bff 313e
00000340: ec25 47be 9631 b13e 3827 bcbe 176f 10bf
00000350: ff0c 1dbf 4783 9dbe eb7a 1ebf 5b94 853e
00000360: 52d6 2abf bba7 963e 42eb 40be 02ad 8cbe
00000370: fb10 253e 39bc 5cbe e1ac 1d3d ca80 bd3c
00000380: 84d8 833e 832b 093e 82de 37bf 49f0 39bf
00000390: 99d2 123e 38a0 4bbf 7c13 eebe 4afb cbbe
000003a0: 7495 09bf 6b40 fdbd 4b7e 703e ac21 ad3e
000003b0: 45f3 16be ab05 153e c402 a23d 1416 cebe
000003c0: 7abc a73d a2ca 093d e21a 223e 22ed e2be
000003d0: 4524 32bf 6aa1 7c3c 1947 9dbe 8bca 713e
000003e0: fdb5 0e3e ae9a d8be 39a2 febe 6abb f8be
000003f0: bd66 8d3e 5988 d0be ac50 d3bd 0a70 b0be
