bots/en/Garfield.chatbot/converted_model.tflite (tflite, 372228 bytes, 4 tensors)

in/MatMul_bias f4 [120]
000000 bc 1b 71 3e d3 75 2b 3e 7e 3a 59 3e 7e 62 56 3e
       0.23545736 0.16744165 0.21213719 0.2093601
000010 68 0a 3e 3e d3 6d 09 3e 40 fb 3f 3e c4 1b 49 3e
       0.18558657 0.13420801 0.18748188 0.19639498
000020 c0 2d 70 3e 95 e0 39 3e 50 60 91 3e b9 d3 84 3e
       0.23454952 0.18152077 0.28393793 0.25942782
000030 64 ea 5a 3e 56 ae 25 3e 45 df 8a 3e a1 de 3f 3e
       0.21378475 0.16179785 0.27123466 0.1873727
000040 53 72 53 3e 38 35 36 3e 9f 0c 7e 3e e8 51 27 3e
       0.2064908 0.17793739 0.24809502 0.16339839
000050 51 78 48 3e 6b cf 2f 3e be 0b 56 3e 47 fb 17 3e
       0.19577147 0.17168967 0.20902917 0.14841948
000060 ee ad 86 3e b0 8f 1c 3e 67 8e 50 3e fd d7 19 3e
       0.26304573 0.15289187 0.20366822 0.15023799
000070 0c 07 5c 3e da f7 55 3e d4 a1 85 3e 1b 65 7b 3e
       0.21487063 0.20895329 0.26100028 0.24550287
000080 5f d7 28 3e 16 b9 6f 3e b3 5b 8d 3e eb 15 8f 3e
       0.16488408 0.23410448 0.27609023 0.2794641
000090 4d 46 52 3e ed 87 4e 3e 44 4f 5d 3e 77 5d 42 3e
       0.2053463 0.20169039 0.21612269 0.18980967
0000a0 cc db 70 3e 17 2b 61 3e 20 84 76 3e 52 3a 7a 3e
       0.23521346 0.21989094 0.24073839 0.2443631
0000b0 c9 a8 80 3e 07 66 5e 3e ef 30 35 3e ce d6 29 3e
       0.25128773 0.21718608 0.17694448 0.16585848
0000c0 5b bc 3d 3e 53 ca 6a 3e ae b1 80 3e 49 0c 51 3e
       0.18528883 0.22928743 0.2513556 0.20414843
0000d0 36 e3 42 3e b5 34 68 3e 70 62 87 3e 9d e8 80 3e
       0.19031987 0.22676356 0.2644229 0.2517747
0000e0 48 c5 34 3e be b2 77 3e 65 21 72 3e 52 ef 63 3e
       0.17653382 0.24189278 0.23645552 0.22259262
0000f0 00 50 c1 3d d0 b7 19 3e 56 bd 39 3e c1 d5 81 3e
       0.09439087 0.15011525 0.18138632 0.25358394
000100 54 4b 59 3e 83 65 19 3e cc 44 33 3e 65 4f 5d 3e
       0.21220142 0.1498013 0.17506713 0.21612318
000110 8c 7c 30 3e 90 89 50 3e 1f 6b 76 3e f0 af 5e 3e
       0.17235011 0.20364976 0.24064301 0.21746802
000120 c3 a3 70 3e 32 84 4e 3e 68 af 43 3e f9 ae 07 3e
       0.2349997 0.20167616 0.19109881 0.1325034
000130 b7 c1 69 3e c0 71 64 3e 92 d1 5d 3e 2c 01 66 3e
       0.22827803 0.22309017 0.21661976 0.22461385
000140 de 0a 29 3e 33 cd 7c 3e 3f d0 06 3e 1a 56 2a 3e
       0.16508052 0.24687652 0.13165377 0.16634408
000150 83 87 6f 3e dc 51 27 3e df b5 5b 3e fb 35 0c 3e
       0.23391537 0.1633982 0.21456097 0.13692467
000160 a0 de 4c 3e 90 61 55 3e 17 0a 2e 3e 40 af 52 3e
       0.200068 0.20837998 0.16996036 0.20574665
000170 e2 2d 74 3e c9 16 4c 3e 83 30 29 3e 50 53 45 3e
       0.23845628 0.19930567 0.16522412 0.19270062
000180 f9 e6 5e 3e e5 a5 0f 3e 79 82 61 3e c7 ac 64 3e
       0.21767797 0.14028127 0.22022428 0.22331534
000190 db ff 62 3e 57 88 59 3e 3b ce 18 3e a3 1c 65 3e
       0.22167914 0.21243416 0.1492242 0.22374205
0001a0 fc c9 82 3e 52 15 66 3e 83 6d 3a 3e b0 fd 5c 3e
       0.25544727 0.2246907 0.18205838 0.21581149
0001b0 e3 54 26 3e 24 cd 55 3e 6b 5c 6d 3e 64 18 61 3e
       0.16243319 0.20879036 0.23179786 0.2198196
0001c0 6a 87 79 3e a9 a2 50 3e 48 88 91 3e 30 af 4a 3e
       0.24368063 0.2037455 0.28424287 0.19793391
0001d0 a3 b9 4e 3e 92 d0 82 3e 14 a5 67 3e ac bb 7f 3e
       0.20188002 0.25549752 0.22621566 0.24973935

in/kernel/transpose f4 [120, 737]
000000 5f bb eb bc 37 74 eb bd aa 4a 8f bd 3c 7f 8e bd
       -0.028775869 -0.114967756 -0.06996663 -0.06957862
000010 98 15 33 bc e3 59 45 bd 4b 73 5c 3e 4f 42 6a 3e
       -0.010930441 -0.048181426 0.21528356 0.22876857
000020 9a 6a 16 bd 77 02 f6 3c 79 6b 26 3e 66 10 d0 bb
       -0.036722757 0.030030472 0.16251935 -0.006349611
000030 17 c5 2e 3e fa 04 c0 bb 8c a5 73 be 79 3d 0a bd
       0.17067371 -0.0058599683 -0.2379362 -0.03375003
000040 52 a9 a4 3d 55 34 2d 3e e7 72 ac 3d ad 4e 1c be
       0.08040108 0.16914494 0.084203534 -0.15264387
000050 ee b8 2f 3e 6f 0e 99 3e 65 91 72 3e 2b 7c a1 3e
       0.17160389 0.29893824 0.23688276 0.31540045
000060 4e ba 89 3d 74 42 b8 3c 67 85 a8 bc 44 1f 38 3e
       0.06724988 0.022492625 -0.020571424 0.17980677
000070 ed 49 47 3e bd 8f af 3d c3 2f 8a bd 17 ca 80 3d
       0.19461794 0.08572338 -0.06747391 0.062885456
000080 c2 05 32 3d 0c 1b 48 3c 7e 3d 83 3e 0b 8f c6 3c
       0.043462522 0.01221348 0.25632852 0.02423813
000090 df 4d c7 bd 9d 3c 3c be c7 37 33 be c4 a7 f3 bd
       -0.097316496 -0.18382497 -0.17501746 -0.11897233
0000a0 1a 2a 80 3b 5a 07 cb bd 77 48 31 3d 5f 85 88 bd
       0.003911269 -0.099135116 0.043282 -0.066660635
0000b0 e6 14 aa 3d ca e2 8e 3c 77 34 b6 bd 45 ae ff 3d
       0.08304767 0.017442126 -0.088967256 0.12484411
0000c0 92 e6 35 3d 9d 23 e3 bd 07 57 1a 3e 79 20 92 3c
       0.044409342 -0.11090777 0.15072261 0.01783775
0000d0 91 f5 05 3e a0 4b 37 be 8f 38 06 bd 8d 6a 07 be
       0.13081957 -0.17899942 -0.032768782 -0.1322424
0000e0 e4 30 d0 bd cf 52 6b be 4a 67 74 be 9f 2e 96 bd
       -0.10165575 -0.22980808 -0.23867527 -0.07333111
0000f0 91 e6 2f 3e 3c d7 25 be 5b 17 bb bd 64 f3 2f 3e
       0.17177798 -0.16195387 -0.09135314 0.1718269
000100 fc 72 9c bd 28 b8 f8 3d 8e 74 6d 3e d1 80 0a 3e
       -0.07639119 0.121445 0.23188993 0.13525702
000110 88 ae 0f 3e 08 35 86 bd e0 ff c0 bd 15 eb e2 bd
       0.14031422 -0.06553084 -0.09423804 -0.110799946
000120 05 23 57 bd d9 ca 75 bc 25 e6 2f bd c2 04 ea bd
       -0.05252363 -0.015001976 -0.042944092 -0.11426689
000130 8a 69 8a bd 98 b8 d3 bc db cc 9c bd 4c 47 84 be
       -0.06758411 -0.025844857 -0.076562606 -0.25835645
000140 8f 0b 8e 3d fd cd e1 bd 7d 19 0a 3e 11 ba 60 bd
       0.069357984 -0.11025617 0.13486286 -0.054864947
000150 9f 85 34 be 0c e1 0a 3e df 48 d3 bd 51 21 94 bd
       -0.17629097 0.13562411 -0.103166334 -0.07232917
000160 ec 6e 3b be e0 15 07 3e 5f cd 50 3e f2 f8 2b be
       -0.18304032 0.13191938 0.20390843 -0.16794184
000170 5e d9 1a bc cd 4f 01 be 01 ba 18 3e c2 57 ee bc
       -0.009451238 -0.12628098 0.14914705 -0.02909458
000180 9a 52 67 bd 4b 88 6d 3d 24 fa 67 bc dc 6b 07 be
       -0.05647526 0.057991307 -0.014158759 -0.13224739
000190 6c 2c 26 3e e8 d8 01 be dd 65 a7 3d 34 1f 8b 3d
       0.16227883 -0.126804 0.08173726 0.06793061
0001a0 d1 19 ab bd 82 4b 22 bd 80 35 03 3e 10 61 1d 3d
       -0.083545335 -0.03962279 0.12813377 0.038422644
0001b0 a5 94 0c 3e fc 66 46 be ba ff 07 3e d0 85 5e 3e
       0.13728578 -0.19375223 0.13281146 0.21730733
0001c0 6f f1 f8 3d d4 9a 1a 3c b7 7f 58 3e 1c 35 06 bd
       0.12155425 0.009436328 0.2114247 -0.032765493
0001d0 00 6d 3f bc b1 08 15 bd ef 8b c5 bd ff f0 c2 3c
       -0.0116837025 -0.036385242 -0.09645831 0.023796557
0001e0 be ad 83 3c 33 05 69 bc b8 4d 1e be f8 2d 71 bd
       0.016074058 -0.014222431 -0.15459335 -0.05888173
0001f0 b4 f9 1e 3e 03 28 7b 3d ef a0 fc bd 10 67 80 3e
       0.15524942 0.061317455 -0.12335383 0.2507863
000200 12 59 33 3e 9a 4b 0a be 3f 91 38 3d 7c 09 64 3e
       0.17514446 -0.13505402 0.045060392 0.22269243
000210 cf a9 c6 3d be 12 9a bd 86 dc 0a be 2a 8f 82 bd
       0.09700357 -0.07523106 -0.13560686 -0.06374963
000220 07 6c e0 3b 5d 2c aa 3d 55 32 5b 3e 45 c0 6d be
       0.0068488154 0.08309243 0.21405919 -0.23217876
000230 0a fb 13 3e 51 4e 8e bd 12 43 6b 3e 7d eb cd 3d
       0.14451233 -0.069485314 0.22974804 0.100546815
000240 7f d8 2b 3e 30 eb 82 3e 4d 59 4f 3d 25 dc fb 3c
       0.16781805 0.2557006 0.050622273 0.030744622
000250 f6 0b 09 be b0 83 46 3e c8 99 f1 bd 90 88 af bd
       -0.13383469 0.19386172 -0.117969096 -0.08570969
000260 a3 4f 85 bd b6 65 35 3d 6e 39 6d bd c0 e5 3d 3d
       -0.0650933 0.044286452 -0.057916097 0.046361685
000270 69 6f 24 be a5 0f bd 3c 08 08 2c ba 00 b5 34 be
       -0.16058125 0.023078749 -0.0006562476 -0.17647171
000280 45 6f 67 be 08 85 45 be d8 4e 91 bc 5e 4a 11 be
       -0.2260104 -0.19289029 -0.017737791 -0.14188525
000290 a2 22 4e bd 2f 3d 1b be b7 10 10 be 21 d0 ef bd
       -0.050325997 -0.15160058 -0.14068876 -0.11709619
0002a0 b6 88 0f 3e 33 14 76 3e 39 15 40 be 3b 0c 12 3b
       0.14016995 0.24031143 -0.18758096 0.0022285122
0002b0 95 25 3d 3e 3a 22 55 3e ac 6f da 3c 7b 03 16 be
       0.18471368 0.20813838 0.026664577 -0.14649765
0002c0 74 dd 6f bd d0 06 d7 bc 8d 69 75 3d 5b d6 3a 3d
       -0.058560804 -0.026248366 0.059915114 0.04561458
0002d0 0b 0d 11 3e 72 64 0d 3e 97 8d 97 3d 96 cc e7 bd
       0.14165132 0.13807848 0.07400053 -0.113183185
0002e0 78 cc 6e 3d ce d3 04 3e 6c ad 63 be d9 bb 56 3e
       0.058300465 0.12971422 -0.22234124 0.20970096
0002f0 c4 78 66 3e ed 2b ce 3d bd 09 ac 38 53 c7 50 bd
       0.22507006 0.10066972 8.203413e-05 -0.05097134
000300 9d a2 e1 3d 40 bb 35 3e 63 be 11 3e 68 46 0e 3e
       0.11017344 0.17747211 0.14232783 0.13894045
000310 14 41 ab 3d 86 fe f0 bc 35 c6 66 bd 34 2f 8d bd
       0.08362022 -0.029418241 -0.05634137 -0.06893769
000320 11 b8 bc bd 39 74 f7 3d f8 be f3 bc 91 40 25 3e
       -0.092147954 0.120827146 -0.029754147 0.16137911
000330 2d 8f e4 bd 48 f6 ab bc 98 c0 d0 bc e5 b3 e9 bd
       -0.11160121 -0.02099146 -0.02548246 -0.11411265
000340 a0 69 c5 bd 9c 5f 96 be 9b 56 6b 3e a1 da 6f be
       -0.09639287 -0.2936982 0.22982256 -0.23423244
000350 11 50 13 be de 0e b0 bd 2a 0c 63 3e 2c df b2 bc
       -0.14386012 -0.08596586 0.22172609 -0.021834932
000360 45 6a 28 be 56 45 04 bd f8 a5 08 bd be f0 39 3e
       -0.16446789 -0.032292686 -0.033361405 0.18158242
000370 b0 42 24 3d df 58 ae bc 21 87 a6 bd fc ef a6 bd
       0.04010266 -0.021282611 -0.081312425 -0.08151242
000380 b4 46 c8 3d f6 6e 3f bc 2a 59 bb 3d 2c 5b 87 bd
       0.097791106 -0.01168417 0.09147866 -0.066091865
000390 a9 3c ce 3d 57 7d cd 3d b1 2d ce 3c 80 f2 b0 bd
       0.10070164 0.10033672 0.025168272 -0.08640003
0003a0 c4 fe 9f 3d 5f 51 e1 3a 08 ab d3 3d 5a a5 35 bc
       0.078122646 0.0017190388 0.10335356 -0.011086786
0003b0 4e 3c b9 3d 3f 49 0d 3e ae f3 5d be e7 cb 84 3d
       0.09044705 0.13797472 -0.21674988 0.06484204
0003c0 ec 89 d3 3d f7 6d 04 3e de ec 6a 3c fa 57 84 bd
       0.10329041 0.12932573 0.0143387 -0.06462093
0003d0 b8 27 a4 bd 7d 74 fe bd 9e 35 21 3d 08 2a 32 3e
       -0.08015388 -0.12424562 0.039357774 0.17398846
0003e0 13 84 1a 3e ab 38 31 3b 17 6d 0d be 93 d1 cd 3d
       0.15089445 0.0027041833 -0.13811146 0.10049739
0003f0 d3 4d a5 3d ef ce 36 3e be 0b 00 3d 8e 00 a6 bd
       0.080714844 0.17852376 0.0312612 -0.081055745

out/MatMul_bias f4 [35]
000000 f6 71 8d 3c e6 cb b6 bd 37 87 ce bc 52 db f6 3c
       0.017266255 -0.08925609 -0.02521096 0.030133877
000010 33 7e 9c 3d 19 46 4c 3d 2f 5f 61 bd a4 59 d4 bc
       0.07641258 0.049871538 -0.055022415 -0.02592165
000020 f8 bb 2d bd 76 8b 47 bd d8 f5 7f 3d 69 7c cd bd
       -0.04241559 -0.048716985 0.062490314 -0.10033495
000030 53 46 8a bd 21 2c 6c 3d 0b 2a 76 bd f6 88 31 bd
       -0.067516945 0.057659272 -0.06009869 -0.043343507
000040 d7 bd 09 3d 67 ff b9 3a 7c 99 05 3e d7 31 33 3c
       0.03362831 0.0014190496 0.13046831 0.010937176
000050 67 2d 6e bd 17 52 c2 bd 14 c2 ef bc 23 9f b6 bc
       -0.058148768 -0.09488314 -0.029267348 -0.02229268
000060 3c 9e df 3c e6 a4 84 bb b6 d3 49 3d e9 0e 0b 3d
       0.027297132 -0.0040479777 0.04927417 0.033949766
000070 55 27 7b 3c 13 b0 63 3d ea ac a2 bd 6a 79 bb bc
       0.015329202 0.05558784 -0.07943137 -0.022885043
000080 0e c3 12 3d 9b 48 c9 bc 37 cc 91 bd
       0.03583055 -0.024570754 -0.07119029

out/kernel/transpose f4 [35, 120]
000000 27 89 a2 3e e7 9b 60 3e 0d 3f 8a bf af e6 98 3e
       0.31745264 0.21934472 -1.0800492 0.29863498
000010 2d 7b fa be a1 75 a0 3e 6c 53 09 bf 6a 52 56 3e
       -0.489221 0.31339744 -0.53642917 0.20929876
000020 d9 7b 14 bf a4 1b 73 3e e2 57 09 3d 58 d2 cc be
       -0.58001477 0.23741013 0.033531077 -0.4000423
000030 22 49 2e bf 8a dc 37 bf 76 08 0b 3e 52 4b 19 bf
       -0.6808034 -0.7182089 0.13577446 -0.59880555
000040 f0 49 75 bf 5d 2b 63 bf 81 c1 3b 3e 13 00 95 3c
       -0.95815945 -0.8873804 0.18335535 0.018188512
000050 52 cc 5e bf 80 1d 4c be 2e 3a 7a 3e db c2 b2 3e
       -0.8703052 -0.19933128 0.24436256 0.34914288
000060 11 ba 10 bf 47 5e c2 3e 06 65 8b 3e 1f 98 09 3e
       -0.56533915 0.37962553 0.27225512 0.13436936
000070 70 15 68 bf 26 20 a5 3e 69 2e 1c bf 57 13 0b bf
       -0.9065771 0.3225109 -0.61008316 -0.54326385
000080 bb 8b 79 3e 85 81 0c 3d 78 e3 77 3e fd 9b 24 bf
       0.24369709 0.034303207 0.24207866 -0.6430052
000090 de 53 b5 be 39 4b 30 be 81 8c 82 be 0a 90 d3 3e
       -0.35415548 -0.17216195 -0.2549782 0.4132083
0000a0 7b 9f 35 3e 04 f7 48 3e 6a f6 12 bf 5a bf 8d be
       0.17736618 0.19625479 -0.5740725 -0.27685052
0000b0 db c5 27 bf 95 75 92 3e 4d ed 7c bf dc 3e 25 bf
       -0.6553628 0.28605333 -0.9879959 -0.6454904
0000c0 46 24 30 be 78 4b 92 3e dc a5 31 bf 05 11 81 3e
       -0.17201337 0.28573203 -0.69393706 0.25208297
0000d0 18 b9 b6 be 74 29 24 3e 64 39 fd be 93 f4 3e 3e
       -0.3568809 0.16031438 -0.49457848 0.18647985
0000e0 89 4c fb be 57 52 30 bf 1f da 28 bf 6f e5 a8 3e
       -0.4908183 -0.6887564 -0.65957826 0.32987544
0000f0 3d 13 15 bf a7 41 a6 be 94 6a f2 bd 1e 01 03 bf
       -0.5823248 -0.32471964 -0.118367344 -0.5117358
000100 0b 34 e1 be e3 9b 62 3e 79 5c 95 be 3a de f4 be
       -0.43985018 0.22129779 -0.29172114 -0.47825795
000110 2b 83 98 be 82 8d 3d be ba f1 b4 3e 7f 02 5e be
       -0.29787573 -0.18511012 0.35340673 -0.2168064
000120 25 6e 40 be 43 bf ef be f1 54 89 be 7a e1 5a 3e
       -0.18792017 -0.4682561 -0.26822618 0.21375075
000130 b5 db ad be 58 17 5d 3e e8 16 ef bd e8 20 84 3e
       -0.33956686 0.21590936 -0.11674291 0.25806355
000140 1d b3 53 bf 2b bb 73 3e b6 11 a2 3e 7f 66 86 3e
       -0.8269518 0.23801868 0.31654137 0.26250073
000150 8b 29 ef be 78 c5 7a 3e 97 9d 84 be 4c 6b 96 be
       -0.46711382 0.24489391 -0.25901482 -0.29378736
000160 0c 01 d8 be bf 00 df 3e ae 24 44 3e ea 72 69 bf
       -0.421883 0.43555257 0.19154617 -0.9119097
000170 ab 83 42 bf ba a0 a6 be 15 66 06 bf cf 7a a8 3e
       -0.7598216 -0.325445 -0.52499515 0.32906196
000180 e1 b2 3d 3e f2 67 99 3e ae e4 de be 3d 38 0c bf
       0.18525268 0.29962116 -0.43533844 -0.5477331
000190 66 43 21 bf a9 a9 d4 3e ed 34 af bc a0 9b f3 be
       -0.62993467 0.4153569 -0.021387542 -0.4757967
0001a0 5d f4 9d 3e 0b f3 64 be 56 83 15 bf ee 04 90 3e
       0.30850497 -0.22358339 -0.5840353 0.2812876
0001b0 56 d6 47 3e c0 6b cf be 04 0d b4 3c 2f e4 ef bc
       0.19515356 -0.40511894 0.021978863 -0.029283611
0001c0 ed 5f 98 3e c9 2c 4e be d9 70 25 bf 98 a8 9f 3e
       0.29760686 -0.20134272 -0.64625317 0.31183314
0001d0 31 37 93 3e c7 22 cf be 90 cf 02 bf 17 ed f5 be
       0.28753045 -0.4045622 -0.51097965 -0.48032448
0001e0 72 9e 20 bf d2 bb 9b be 13 c9 a9 be 65 11 9c be
       -0.6274177 -0.30416733 -0.3316122 -0.3048202
0001f0 3b 9e 65 3e 48 9c ae 3c c4 f8 3e bf b3 8f bd 3e
       0.22423641 0.021314755 -0.74598336 0.37023696
000200 2c ff 71 3e cd 62 73 3e 2a 01 34 bf 0e 39 41 bf
       0.23632497 0.23768158 -0.70314276 -0.75477684
000210 81 ae 7e bf 92 b6 fc 3d 69 be d8 be d1 59 4a bf
       -0.9948502 0.1233951 -0.4233277 -0.790433
000220 c1 09 83 be c1 25 99 3e 3f 6d 32 3e c7 79 ac 3e
       -0.2559338 0.29911616 0.17424487 0.3368666
000230 35 a5 3a bf bd fc 80 3e 34 37 83 be 09 18 ba 3e
       -0.72908336 0.25192824 -0.25628054 0.36346462
000240 41 77 fe 3c 4d 74 0b bf a5 86 b2 3e 29 4d 91 be
       0.031062724 -0.54474336 0.3486835 -0.2837918
000250 79 66 40 bf 7b c6 27 bf 30 07 32 3e e2 80 7b bf
       -0.7515636 -0.6553723 0.17385554 -0.98243535
000260 d7 b2 96 be cc cb 35 bf 70 e6 5f bf 24 54 96 3e
       -0.2943332 -0.71014094 -0.87460995 0.2936107
000270 59 21 9c 3e f8 3d cd be b9 74 a6 3e d0 c4 d3 be
       0.30494192 -0.4008634 0.32510927 -0.41361094
000280 fe d5 af be b9 c4 0f 3e 3b 4d 55 3e a2 af c2 be
       -0.3434295 0.14039887 0.20830242 -0.38024622
000290 43 47 70 bf 44 83 80 bf 79 5f 35 bf 58 da f6 be
       -0.93858737 -1.0040059 -0.70848805 -0.48213458
0002a0 f1 a8 1a bf ab 88 a3 3d 25 04 13 bf 4a d1 b4 be
       -0.60414034 0.07985052 -0.574282 -0.35315925
0002b0 29 4f 6a 3e 07 a2 52 3e 43 4d f4 be c7 76 c3 3d
       0.2288176 0.20569621 -0.47715196 0.09544139
0002c0 23 29 76 3e 97 de e5 be 31 ea 4c 3e e7 a7 33 3e
       0.2403913 -0.44896385 0.20011212 0.17544518
0002d0 58 17 9d 3e 02 0f e7 3d fd 59 c0 be f8 87 52 bf
       0.30681872 0.112821594 -0.37568656 -0.8223872
0002e0 77 c8 27 3e c0 d0 a8 3e 7d 1e ca 3d fe 0c 01 bf
       0.16385065 0.32971764 0.098690964 -0.5041045
0002f0 4a 9b 74 3e b7 00 81 3e d1 06 93 3e c4 76 a4 be
       0.23887363 0.25195858 0.28716138 -0.3212186
000300 1a ae 83 be 68 99 b8 be c1 74 ac 3e a3 42 03 bf
       -0.25718766 -0.3605454 0.33682826 -0.51273555
000310 25 f4 46 be e6 6c f8 be ad 71 62 3e db 9e 1d be
       -0.19429071 -0.48520583 0.22113676 -0.1539263
000320 4d 96 1f bf 92 18 88 bf 9c 3a 07 be 97 c6 82 3e
       -0.62338716 -1.0632498 -0.13205951 0.25542137
000330 99 2f 87 3e 98 63 bd 3e c7 8c b8 3e 9f fa 06 bf
       0.26403502 0.36990047 0.36044905 -0.5272617
000340 7a b4 7f 3e 4b 54 a1 3e 44 2b 51 3e f3 91 c2 bd
       0.2497119 0.31509623 0.20426661 -0.09500494
000350 43 a3 0f 3e 7b 86 4d bf 2b b1 fb be ba bd 72 be
       0.14027123 -0.80283326 -0.49158606 -0.23705187
000360 f9 a5 7d be 8d c1 b2 3e 70 98 3d bf 1f 9d af be
       -0.24770345 0.34913293 -0.74060726 -0.3429956
000370 42 18 59 3e db 23 2c bf fd 55 94 3e 3d ea ff 3d
       0.2120066 -0.6724221 0.28971854 0.12495849
000380 a2 2b 11 3e eb 96 87 3e 15 b3 38 be f7 cb b0 3e
       0.14176801 0.2648233 -0.18037064 0.34530613
000390 3e c8 d4 be 0a 0a 34 3e 09 ef 7b 3e d3 02 ae 3e
       -0.41559023 0.17581955 0.24602903 0.3398653
0003a0 06 ac f2 be 9b 82 90 be bf e3 37 bf 3c f3 88 3e
       -0.47396868 -0.28224644 -0.7183189 0.26748073
0003b0 15 c9 48 be a8 8e 62 bf 52 08 c1 3d bc c0 86 3e
       -0.19607957 -0.88498926 0.09425415 0.2631892
0003c0 15 0e 7d 3e 67 e6 95 be 84 82 19 bf 26 7b 81 3e
       0.24712403 -0.29277346 -0.59964776 0.25289267
0003d0 10 77 2d 3e e1 fc 5b 3e 3e bb b7 be 14 da f0 be
       0.1693995 0.21483184 -0.35885042 -0.4704138
0003e0 35 9f f2 be e6 6a 43 bf c4 58 12 bf d9 35 94 3e
       -0.4738709 -0.7633499 -0.57166696 0.28947333
0003f0 e3 24 cb bd b8 ed 0a bf d2 49 83 3e 66 17 9d 3e
       -0.09919145 -0.5426898 0.25642258 0.30681914
