bots/Daenerys.chatbot/converted_model.tflite (tflite, 299128 bytes, 4 tensors)

in/MatMul_bias f4 [128]
0	0x3e4877de	0.19576976
1	0x3e4f0d01	0.20219804
2	0x3e1fb25a	0.1559538
3	0x3e34006a	0.17578283
4	0x3e4b3ffc	0.19848627
5	0x3e207111	0.15668131
6	0x3e04015f	0.12891148
7	0x3e5b0166	0.21387252
8	0x3e31e174	0.1737116
9	0x3e331f9a	0.17492524
10	0x3e28c6f9	0.16482152
11	0x3e64b92d	0.22336264
12	0x3e776cde	0.24162623
13	0x3e355868	0.17709506
14	0x3e49cdb2	0.19707373
15	0x3e54f41c	0.20796245
16	0x3e120ff9	0.14263906
17	0x3e48fc7d	0.19627567
18	0x3e108c8f	0.14116119
19	0x3e1df83f	0.1542673
20	0x3e482386	0.19544801
21	0x3e035f56	0.12829337
22	0x3e51b52f	0.20479272
23	0x3e4a312b	0.19745319
24	0x3e15272f	0.14565729
25	0x3e58c8c3	0.21170335
26	0x3e197f70	0.1499002
27	0x3e561b62	0.20908883
28	0x3df3c4a8	0.119027436
29	0x3e29c841	0.16580297
30	0x3e4cd396	0.20002589
31	0x3e5bba0e	0.21457693
32	0x3e283f1d	0.16430326
33	0x3ded2321	0.11578966
34	0x3e111864	0.1416946
35	0x3e45a7f4	0.1930235
36	0x3e3a3e07	0.18187724
37	0x3e3ae3b1	0.1825092
38	0x3e4043e0	0.18775892
39	0x3e3b69fb	0.18302147
40	0x3e68fad0	0.22751927
41	0x3e73c69b	0.2380623
42	0x3e2b9222	0.16754964
43	0x3e2e9834	0.17050248
44	0x3e384f5d	0.17999025
45	0x3e5dde03	0.21666722
46	0x3e20cc40	0.15702915
47	0x3e2ec16c	0.17065972
48	0x3e410e2b	0.18853061
49	0x3e336101	0.17517473
50	0x3e2ee55f	0.17079686
51	0x3e3da188	0.1851865
52	0x3e310d37	0.17290197
53	0x3e409898	0.1880821
54	0x3e0c6e91	0.13714053
55	0x3e2723e8	0.16322291
56	0x3e75b961	0.23996498
57	0x3decbfe4	0.11560038
58	0x3e7a291b	0.24429743
59	0x3e2bc6db	0.16775076
60	0x3e059eb7	0.13048826
61	0x3e34dd47	0.17662536
62	0x3e3d9929	0.18515457
63	0x3e6d59ca	0.23178783
64	0x3e3c59b8	0.183936
65	0x3e5868bf	0.21133707
66	0x3e564b91	0.20927264
67	0x3e2d827b	0.16944306
68	0x3e28d89c	0.1648888
69	0x3e67468f	0.2258551
70	0x3e3adc16	0.18248019
71	0x3e4f189b	0.2022423
72	0x3e410614	0.18849975
73	0x3e572115	0.21008714
74	0x3e2f77e0	0.17135572
75	0x3e2743bc	0.16334432
76	0x3e4a9f59	0.19787349
77	0x3e7128b8	0.23550689
78	0x3e147992	0.144995
79	0x3e3d7b9e	0.18504187
80	0x3e317b65	0.17332228
81	0x3e23bc54	0.1598981
82	0x3e6f4502	0.23366168
83	0x3e625882	0.22104076
84	0x3e0a5487	0.13508807
85	0x3e397332	0.1811035
86	0x3e327bcb	0.17430036
87	0x3e3307d9	0.17483462
88	0x3e2ba1a9	0.16760887
89	0x3e2b53f9	0.16731252
90	0x3e6831db	0.22675268
91	0x3e481fb2	0.19543341
92	0x3e4382fc	0.19092935
93	0x3e0e0f79	0.1387309
94	0x3e50d05e	0.20391986
95	0x3e586cdf	0.21135281
96	0x3e4bb690	0.19893861
97	0x3e446695	0.19179757
98	0x3e079a1b	0.1324238
99	0x3e4dac2c	0.2008521
100	0x3e4d61b2	0.20056799
101	0x3e0c12d3	0.13679056
102	0x3e22aae1	0.15885498
103	0x3e215080	0.15753365
104	0x3e0f4994	0.13992912
105	0x3e278d66	0.16362533
106	0x3e5076ef	0.2035787
107	0x3e1a6c0f	0.15080284
108	0x3e0d552b	0.1380202
109	0x3e502d37	0.20329748
110	0x3e302ad4	0.17203838
111	0x3e165687	0.14681445
112	0x3e20dd6d	0.15709467
113	0x3e336e98	0.17522657
114	0x3e06b09c	0.13153309
115	0x3e5f3020	0.21795702
116	0x3df36904	0.118852645
117	0x3e319a9d	0.17344137
118	0x3e337625	0.17525537
119	0x3e556a8a	0.20841423
120	0x3e06aaf4	0.13151151
121	0x3e524e1e	0.20537612
122	0x3e5d6c59	0.21623363
123	0x3e42e825	0.19033869
124	0x3e5a456a	0.21315542
125	0x3e22c1fa	0.15894309
126	0x3e3c157f	0.18367575
127	0x3e3ec440	0.18629551

in/kernel/transpose f4 [128, 557]
0	0x3e23a5b8	0.15981185
1	0xbb1443ee	-0.0022623497
2	0x3d8dda7d	0.06926439
3	0x3d9c9c7c	0.076470345
4	0xbe05faf5	-0.13084014
5	0xbe15dad7	-0.14634262
6	0x3dfee1c8	0.12445408
7	0x3c121304	0.0089156665
8	0x3ddccdb2	0.10781421
9	0x3e478fb2	0.19488409
10	0x3d269769	0.04067174
11	0xbc117050	-0.008876875
12	0x3e391256	0.18073401
13	0x3e27137c	0.16316026
14	0x3d5dab92	0.0541187
15	0xbe290143	-0.16504388
16	0x3dbd7327	0.09250479
17	0x3d75495c	0.059884414
18	0x3e0ff6da	0.1405901
19	0x3e2b18b6	0.16708645
20	0x3e173fbc	0.14770406
21	0x3e55c9a7	0.20877706
22	0x3e2e0194	0.1699279
23	0xbdb5f527	-0.0888465
24	0x3e7a34e3	0.24434237
25	0xbd9d189d	-0.0767071
26	0x3e46d420	0.19416857
27	0xbdb6ab23	-0.089193605
28	0x3d89a56d	0.067210056
29	0x3e124d19	0.14287223
30	0xbe5cd6ea	-0.21566358
31	0x3e5035ae	0.20332977
32	0x3e2b0f4f	0.16705059
33	0xbc13c4c7	-0.009019083
34	0x3df14441	0.117805965
35	0x3d141b97	0.036159124
36	0x3dd27da5	0.10277871
37	0x3d9c54db	0.076333724
38	0xbe0f1353	-0.13972215
39	0x3e66bb07	0.22532283
40	0x3ded23e2	0.1157911
41	0x3e6ca31d	0.23109098
42	0xbe66eefc	-0.22552103
43	0x3d141f2f	0.03616255
44	0x3cffe835	0.031238655
45	0x3da789d2	0.08180584
46	0x3e4c9866	0.1998001
47	0x3e20734b	0.15668981
48	0xbc42e968	-0.011896469
49	0xbc98182d	-0.018566215
50	0x3e042616	0.12905154
51	0x3d558920	0.052132726
52	0x3e404a16	0.18778262
53	0x3e290a2d	0.16507788
54	0xbcc88734	-0.024478532
55	0x3da25733	0.07926788
56	0x3dab845c	0.08374855
57	0x3e403d47	0.18773375
58	0xbd15de98	-0.036589235
59	0x3dbd4dc0	0.09243345
60	0xbd846d97	-0.06466215
61	0x3d021197	0.031755056
62	0xbe09b4cc	-0.13447875
63	0xbdcace70	-0.09902656
64	0x3d1c66b9	0.0381839
65	0xbdeb439f	-0.11487507
66	0x3ac38105	0.001491577
67	0x3a26d5d3	0.000636426
68	0xbde0e6cd	-0.10981522
69	0x3df63806	0.120224044
70	0xbc9d7d68	-0.019224837
71	0xbc812776	-0.015765887
72	0xbb1fccef	-0.0024383625
73	0x3daa833a	0.08325811
74	0x3e0d146c	0.13777322
75	0x3e2f0c86	0.17094621
76	0xbe001553	-0.12508135
77	0xbdb56ccb	-0.08858641
78	0x3e17b128	0.14813673
79	0x3d96a693	0.0735599
80	0x3c2a5ef9	0.01039862
81	0x3e0d1e07	0.13780986
82	0xbe0c605c	-0.13708633
83	0x3ce0895f	0.027409254
84	0xbcc0d240	-0.023537755
85	0x3d6e7b56	0.05822309
86	0xbe32ec17	-0.17472874
87	0xbd7a7663	-0.06114806
88	0xbd83152b	-0.06400522
89	0xbe1d2473	-0.15345936
90	0xbe0aad32	-0.13542631
91	0x3e1c4368	0.15260088
92	0x3db0be68	0.08630067
93	0xbc8ffabb	-0.017575612
94	0xbd7e5bc9	-0.062099252
95	0x3d28d301	0.041216854
96	0x3d6962e3	0.05697907
97	0x3df420cf	0.1192032
98	0xbd526b5b	-0.051371913
99	0x3db77030	0.08956945
100	0x3c8511cf	0.016243843
101	0x3bc814b4	0.0061059836
102	0x3e124c17	0.14286838
103	0x3d9c61ac	0.07635817
104	0xbd7e739f	-0.062121984
105	0x3e30bde2	0.17259935
106	0x3e08ae60	0.13347769
107	0x3da32031	0.079651244
108	0x3dcc1244	0.099644214
109	0xbbf7b317	-0.007559191
110	0x3e40974b	0.18807714
111	0x3e77cb1e	0.24198577
112	0x3e04926e	0.12946483
113	0xbd646941	-0.05576444
114	0xbda6604f	-0.08123838
115	0xbdf4a425	-0.119453706
116	0xbd9c8ebb	-0.07644411
117	0xbe0d83ce	-0.13819811
118	0x3e0f6a8b	0.14005487
119	0x3d0739b7	0.033014026
120	0xbb52d01f	-0.0032167507
121	0x3db842dd	0.08997128
122	0x3d739291	0.05946595
123	0x3e0256ce	0.12728426
124	0xbe1c3509	-0.15254606
125	0xbdeb84a3	-0.11499908
126	0xbd0b24f3	-0.033970784
127	0xbd99b638	-0.075054586
128	0xbd9ad4d1	-0.07560123
129	0xbba42e1b	-0.005010379
130	0xbdee0a5a	-0.11623068
131	0xbe356476	-0.17714104
132	0xbe292a36	-0.16520008
133	0xbdfae4a2	-0.122506395
134	0xbb7a9611	-0.003823642
135	0x3d0b1463	0.03395499
136	0xbd1097eb	-0.03530113
137	0x3db13ff2	0.08654775
138	0x3e224305	0.15845878
139	0x3d875091	0.06607164
140	0x3de5b67f	0.11216449
141	0xbe168e8b	-0.14702813
142	0x3e157d5d	0.14598604
143	0xbdd0361a	-0.10166569
144	0xbcdc1493	-0.02686528
145	0xbd812163	-0.06305196
146	0xbd788a4d	-0.06067877
147	0x3ca6dc58	0.02036874
148	0xbe5ed943	-0.21762566
149	0xbd2b121d	-0.04176532
150	0xbc2f7044	-0.010707919
151	0xbd9598fa	-0.073045686
152	0xbe1f8b46	-0.15580472
153	0x3d1bd789	0.038047347
154	0x3e48b7b6	0.1960133
155	0xbd3348ba	-0.04377053
156	0x3e2d6227	0.16931973
157	0x3d94f9d2	0.07274212
158	0x3d8a948b	0.067666136
159	0x3e22f588	0.15913975
160	0xbda39efb	-0.079893075
161	0x3cde9160	0.02716893
162	0xbe18ccf0	-0.14921927
163	0x3e46a473	0.1939867
164	0xbe24ac0b	-0.16081254
165	0x3d041c80	0.032253742
166	0xbc3e8c9f	-0.011630206
167	0x3ce0f583	0.02746082
168	0xbd7e910d	-0.06215005
169	0x3d238eed	0.039931227
170	0xbc1b4e40	-0.0094791055
171	0x3e230f71	0.15923859
172	0xbe00659e	-0.12538764
173	0xbd5c9c2d	-0.05385988
174	0x3d860241	0.06543399
175	0xbd44d830	-0.048057735
176	0x3d408b01	0.047007564
177	0x3e240424	0.16017205
178	0x3dcc614b	0.09979495
179	0xbdad63e5	-0.08466319
180	0x3d9f4fb0	0.07778871
181	0x3dae9dd9	0.08526201
182	0x3e52c8ca	0.20584407
183	0xbd6d2bf2	-0.057903238
184	0xbe2af7d2	-0.16696098
185	0xbde29bc5	-0.11064867
186	0xbe2a65a2	-0.16640332
187	0xbe022844	-0.12710673
188	0xbd34ffd6	-0.044189297
189	0xbe0c2b76	-0.13688454
190	0x3e18869d	0.14895101
191	0x3e4a9e82	0.19787028
192	0x3d105c06	0.03524401
193	0x3dbc6384	0.091986686
194	0x3d02342b	0.031788033
195	0x3c020108	0.007934816
196	0x3e3f5210	0.18683648
197	0x3e222e48	0.15837967
198	0x3cc4d5c2	0.024027709
199	0xbe549db2	-0.20763281
200	0xbdd5d4b6	-0.10440962
201	0xbdfd1bb2	-0.12358798
202	0xbdbfcffa	-0.0936584
203	0x3d2fd554	0.042928055
204	0x3e841c91	0.25803044
205	0xbcc356bc	-0.02384507
206	0x3e2b21a1	0.16712047
207	0xbc119bf0	-0.008887276
208	0x3e5e5cff	0.21715163
209	0x3dcefa6a	0.101063564
210	0x3dbf5c34	0.09343758
211	0xbe3bd1b0	-0.18341708
212	0xbd8a951a	-0.0676672
213	0x3e759b37	0.23984991
214	0xbc43b889	-0.011945852
215	0xbdadc673	-0.08485117
216	0x3ca68811	0.020328553
217	0xbd440f58	-0.047866195
218	0xbd4430f5	-0.04789825
219	0xbe0bd49a	-0.1365532
220	0x3e410ea6	0.18853244
221	0x3d8ff540	0.070291996
222	0xbca3a5dc	-0.019976549
223	0x3da1c47e	0.07898806
224	0x3c264157	0.010147414
225	0xbdf6a2b3	-0.12042751
226	0xbc188b49	-0.009310552
227	0x3e21d6bf	0.15804575
228	0x3e49b031	0.19696118
229	0xbd5e58a4	-0.054283753
230	0x3dabcad9	0.083882995
231	0xbd69428b	-0.056948226
232	0x3d82fa1a	0.06395359
233	0xbd460aa2	-0.048349984
234	0xbccd3cac	-0.025053345
235	0x3d5a775f	0.053336497
236	0x3e1e4318	0.15455282
237	0xbdd72ba9	-0.105063744
238	0x3e2cb7f1	0.16867043
239	0x3e754155	0.23950703
240	0x3d70a4a2	0.058750756
241	0xbc723f31	-0.014785574
242	0xbe4a4b06	-0.19755182
243	0xbe39091b	-0.1806988
244	0xbe824e45	-0.2545034
245	0xbe2d4634	-0.16921312
246	0xbe8e9ca3	-0.2785388
247	0xbe154be9	-0.14579739
248	0x3da31267	0.07962494
249	0xbce4d7ac	-0.027934872
250	0x3e0679c5	0.13132389
251	0x3df74412	0.1207353
252	0xbe08e14a	-0.13367191
253	0xbcff2d08	-0.031149402
254	0x3e637f7d	0.22216602
255	0xbd14e1a6	-0.036348008

out/MatMul_bias f4 [24]
0	0xbc41ba02	-0.011824133
1	0x3dba5fc6	0.091002986
2	0x3c28e794	0.010309119
3	0xbd239148	-0.039933473
4	0xbd181f0e	-0.03713899
5	0x3cd9db4a	0.026593823
6	0xbd67321f	-0.056444284
7	0xbc52adda	-0.012858832
8	0x3c891020	0.016731322
9	0xbcb49ef5	-0.022048453
10	0xbdaba129	-0.08380348
11	0xbca01efc	-0.019546025
12	0x3d32eaf7	0.04368111
13	0x3c0c8a27	0.00857786
14	0x3d44e71b	0.04807196
15	0x3c9b662f	0.018969623
16	0xbc863bb4	-0.01638589
17	0xbd098eb9	-0.033583377
18	0xbceff900	-0.029293537
19	0xbcb4e7fa	-0.022083271
20	0xbd617c94	-0.055050448
21	0xbd6981ed	-0.057008673
22	0x3c9b0a54	0.018925823
23	0xbb854b40	-0.0040678084

out/kernel/transpose f4 [24, 128]
0	0x3eb4e95b	0.35334286
1	0x3e2d78db	0.16940634
2	0xbf0c83f5	-0.5488885
3	0xbea2e0c3	-0.31812105
4	0xbef45c44	-0.47726643
5	0xbeb84981	-0.3599358
6	0xbea786d8	-0.32720065
7	0x3ea20c94	0.3165022
8	0x3e01a967	0.12662278
9	0x3e8ac819	0.27105787
10	0x3e565d1c	0.20933956
11	0xbe6be378	-0.23035991
12	0xbef3ec20	-0.47641087
13	0x3df7158b	0.12064656
14	0xbf290e7f	-0.66037744
15	0xbe5ae1a8	-0.21375144
16	0xbe88704c	-0.26648176
17	0xbe4ee8ac	-0.20205945
18	0xbee4768a	-0.44621688
19	0xbee524f8	-0.44754767
20	0xbed56681	-0.41679767
21	0xbecff310	-0.4061513
22	0x3e6f7eb5	0.23388179
23	0xbea6c341	-0.32570842
24	0xbf14bd70	-0.5810156
25	0x3e45a8db	0.19302694
26	0x3e80fdd2	0.2519365
27	0x3e60dbf4	0.21958905
28	0xbea35cd0	-0.31906748
29	0xbf03dff8	-0.51513624
30	0xbed16888	-0.40900064
31	0xbeb1ae76	-0.34703416
32	0x3e575f4e	0.2103245
33	0xbef4b0bf	-0.47791097
34	0xbed12d29	-0.40854767
35	0xbeb1d5a6	-0.34733313
36	0xbe5a1642	-0.21297553
37	0xbe9d442c	-0.30716074
38	0x3e495a61	0.19663383
39	0x3e38cf99	0.18047942
40	0x3e44b5d6	0.1920999
41	0x3e9faac5	0.31184974
42	0xbf36b659	-0.7137199
43	0x3e7c67bc	0.24648947
44	0xbee77176	-0.4520375
45	0xbed11c4f	-0.4084191
46	0xbe1b9f03	-0.15197377
47	0x3e51eac1	0.20499708
48	0xbef70130	-0.48243093
49	0x3e2fd13d	0.17169662
50	0xbf05be38	-0.52243376
51	0x3e2f4115	0.1711467
52	0xbeb0674c	-0.3445381
53	0x3eb6f1cb	0.35731348
54	0x3eaa771a	0.33293992
55	0x3e3bb8fc	0.18332285
56	0xbf04894d	-0.51772004
57	0xbe46a322	-0.19398168
58	0x3e719dee	0.23595402
59	0xbe6dacf2	-0.23210505
60	0xbca130da	-0.019676615
61	0x3e9ef888	0.3104899
62	0x3e65f0eb	0.22455184
63	0x3bfea4d1	0.0077711125
64	0xbf241744	-0.64098
65	0xbe54dfe2	-0.2078853
66	0xbe65d404	-0.22444159
67	0xbe9c2574	-0.30497324
68	0x3df6e42d	0.1205524
69	0xbf06683f	-0.52502817
70	0xbf13a937	-0.57680076
71	0xbed44f83	-0.41466913
72	0xbee489c3	-0.44636354
73	0xbef7b5f4	-0.48381007
74	0x3e5f571b	0.21810572
75	0x3e915680	0.28386307
76	0x3e845a38	0.2585008
77	0xbf1f8504	-0.6231234
78	0xbf280370	-0.65630245
79	0xbeb0662e	-0.34452957
80	0x3e768065	0.24072416
81	0xbe8403b1	-0.25784066
82	0x3dcff1a4	0.10153511
83	0x3ea66ef9	0.3250654
84	0xbd990d8f	-0.07473289
85	0x3cc2a8ad	0.023762072
86	0x3e8dbbe6	0.27682418
87	0x3ddca628	0.10773879
88	0xbf391d74	-0.72310567
89	0xbece800d	-0.4033207
90	0xbeca5525	-0.39518085
91	0x3e879770	0.26482725
92	0x3e51ba89	0.20481314
93	0xbf1a4cfa	-0.60273707
94	0xbf3b4d3e	-0.7316474
95	0xbe9f77b6	-0.3114602
96	0xbe8ff42f	-0.28115985
97	0x3e9924a4	0.29910767
98	0xbe8a9980	-0.27070236
99	0xbf3f88ea	-0.7481829
100	0x3e2c2f5c	0.16814941
101	0xbe345a8b	-0.17612664
102	0x3e8a97ae	0.27068847
103	0x3bf9a108	0.0076180734
104	0xbef5b6a2	-0.479909
105	0xbe1f4fd8	-0.15557802
106	0xbe44b147	-0.19208251
107	0x3e83e08e	0.2575726
108	0x3e4c3da6	0.19945392
109	0x3ea142b4	0.31496203
110	0xbf146477	-0.579658
111	0x3e3ec563	0.18629985
112	0x3d928bba	0.07155557
113	0xbf2048df	-0.6261119
114	0x3e3bcc29	0.183396
115	0xbed2d4cc	-0.41177976
116	0xbf16d77b	-0.5892255
117	0x3e7cc6ee	0.2468526
118	0xbe86b2ed	-0.26308385
119	0x3ea5047b	0.3222998
120	0xbea276b5	-0.3173119
121	0x3e1fdd2d	0.15611716
122	0xbe9ffcbf	-0.31247517
123	0xbe9c0ca2	-0.30478388
124	0xbf4edbce	-0.80804145
125	0xbeab37ed	-0.33441105
126	0xbf291849	-0.6605268
127	0x3e14a002	0.14514163
128	0x3e056a3d	0.13028808
129	0x3eb0ed13	0.34555873
130	0x3e587bbf	0.21140955
131	0xbe18a8bf	-0.14908122
132	0x3e9ce272	0.30641514
133	0xbeda83ef	-0.42678782
134	0xbf175dee	-0.591277
135	0x3e8d5729	0.2760556
136	0x3d8cbd93	0.06872096
137	0xbf3017de	-0.6878642
138	0xbe1dc0b1	-0.15405537
139	0x3e967896	0.29388875
140	0x3eaf1046	0.34192103
141	0xbe39ddbd	-0.18150993
142	0xbeeb9b4d	-0.46016923
143	0x3e5589f2	0.20853403
144	0xbe8f1086	-0.27942294
145	0xbeddc01e	-0.43310636
146	0xbedf3bea	-0.43600398
147	0xbd8861fc	-0.06659314
148	0x3e59ec48	0.2128154
149	0xbefaf9f4	-0.49018824
150	0x3de4cb52	0.11171593
151	0x3eb11c2b	0.34591803
152	0xbe8c7c4d	-0.27438584
153	0x3e74a24c	0.23890036
154	0xbedf8a17	-0.43660042
155	0x3ead075c	0.33794677
156	0xbf58f7d0	-0.8475313
157	0xbed8cfa2	-0.4234591
158	0x3e448096	0.19189677
159	0x3e83f870	0.2577548
160	0xbe7decc6	-0.24797353
161	0xbe8e29b4	-0.27766192
162	0xbeba0382	-0.363308
163	0x3ded79ba	0.11595483
164	0x3e29b323	0.16572241
165	0x3eb0668b	0.34453234
166	0x3e9aaaa5	0.30208316
167	0x3e38fd6a	0.1806542
168	0xbe1ca0c0	-0.15295696
169	0x3e2dfd39	0.16991128
170	0xbeb9abd4	-0.36263907
171	0xbee30751	-0.4434152
172	0x3e8931d2	0.26795822
173	0x3e874e1b	0.26426777
174	0xbf51e482	-0.819893
175	0xbf26efd1	-0.6520968
176	0xbeabc3f6	-0.33547944
177	0x3e97e1a0	0.29664326
178	0xbe5d9168	-0.216375
179	0x3dcccc0b	0.099998556
180	0xbf001ae0	-0.5004101
181	0x3e583ab1	0.21116139
182	0xbeaadf5b	-0.33373532
183	0xbe85e8b0	-0.2615409
184	0x3e6cad61	0.23113014
185	0xbea3bf80	-0.3198204
186	0x3ea91272	0.33021885
187	0xbeb9ee8f	-0.36314818
188	0xbeea6218	-0.45777965
189	0xbf373efb	-0.71580476
190	0xbe07e45d	-0.13270707
191	0x3dad6660	0.08466792
192	0x3e60e029	0.2196051
193	0xbe2d8caa	-0.1694819
194	0x3e2a21e2	0.16614488
195	0xbe81bdf2	-0.2534023
196	0xbe405fbc	-0.1878652
197	0x3e8d804d	0.27636948
198	0x3e986780	0.29766464
199	0x3ded77f3	0.11595144
200	0xbe9df173	-0.30848274
201	0x3e5e31c8	0.21698678
202	0x3ddd42f7	0.10803788
203	0xbeedf467	-0.46475527
204	0x3db75b7a	0.08952995
205	0x3ed061ca	0.40699607
206	0xbe829f65	-0.25512233
207	0xbec7f738	-0.390558
208	0xbf1d9803	-0.61560076
209	0xbd3a794f	-0.045525845
210	0x3eb1aae2	0.34700686
211	0x3e9579c0	0.2919445
212	0xbeafe933	-0.34357604
213	0x3e870193	0.2636839
214	0xbf118545	-0.5684398
215	0xbf00345b	-0.5007989
216	0x3d5da1f4	0.05410953
217	0xbe9fba7a	-0.31196958
218	0x3e7c6098	0.24646223
219	0xbe2cb358	-0.16865289
220	0xbee0dc37	-0.4391801
221	0xbea79b77	-0.32735798
222	0x3de844f9	0.113412805
223	0x3e5b9b2f	0.21445917
224	0xbe0f3e0f	-0.13988517
225	0x3e9031bf	0.28162953
226	0xbe3a9af5	-0.18223174
227	0xbeedd1ca	-0.4644912
228	0xbef343b9	-0.47512606
229	0xbddc6a1f	-0.107624285
230	0xbf25245f	-0.6450862
231	0xbe421ded	-0.18956728
232	0xbee9019f	-0.4550905
233	0xbe4a9ec9	-0.19787134
234	0xbe896b02	-0.26839453
235	0xbeea9df3	-0.4582363
236	0xbe717511	-0.23579814
237	0xbf19f72a	-0.6014277
238	0xbef7b1d0	-0.48377848
239	0xbee50ea7	-0.4473774
240	0x394d3d22	0.00019573097
241	0xbee0e565	-0.43925014
242	0xbebbcee2	-0.36681277
243	0x3e996019	0.2995613
244	0x3e80fe5e	0.25194067
245	0xbec2f9f1	-0.38081315
246	0xbe93ab70	-0.28841734
247	0x3eca4010	0.39502
248	0xbeb16c9d	-0.34653178
249	0x3e52a3ad	0.2057025
250	0x3e06c337	0.13160406
251	0x3e6cc643	0.23122506
252	0x3e4249e4	0.189735
253	0xbe643369	-0.22285236
254	0xbe41cf24	-0.18926674
255	0x3e19fb2b	0.15037219
