bots/en/Corleone.chatbot/converted_model.tflite (tflite, 460476 bytes, 4 tensors)

in/MatMul_bias f4 [128]
00000000: d3e2 5c3e e252 473e 2c45 503e 3375 543e
00000010: ed7e 3f3e e8b5 5c3e e4c5 973e a7ea 823e
00000020: 8014 533e 0187 3a3e 91b4 693e b86b 4f3e
00000030: 0ffa 3f3e 0249 4a3e 62db 6d3e 381d 373e
00000040: f96e 453e f43c 363e 82a3 143e f2be 7f3e
00000050: c66e 4f3e d0ad 593e 6536 423e 4075 5f3e
00000060: 1096 0f3e 6a8d 913e 4e43 6c3e 9f73 403e
00000070: cb64 693e e4e3 853e 2c3d 483e ba17 4f3e
00000080: 0611 383e b806 233e d9ec 5a3e ff0a 353e
00000090: a649 6a3e 4a54 473e 341c 0d3e 6172 553e
000000a0: a0fe 363e e105 763e 46de 1a3e 5b90 613e
000000b0: 96f9 873e a986 333e 2401 133e 1d5d 9c3e
000000c0: ab53 3f3e a783 333e 3941 423e 496f 513e
000000d0: 7122 6d3e 75bd 693e a85d 673e d10c 2f3e
000000e0: 0b4a 693e f4b7 533e fc6b 733e 2dc2 343e
000000f0: 7ede 453e f2ac 513e c8d7 623e 1f53 f53d
00000100: f09b 4d3e 630b 6b3e 510a 213e 65f1 7d3e
00000110: 452a 4d3e 6ece 553e 0b97 453e 3778 683e
00000120: 1665 363e 2897 583e 220f 1e3e 8433 633e
00000130: ef67 273e c6e1 613e 24eb 663e 53f6 373e
00000140: df07 3d3e f658 7c3e f01d 403e 631b 6b3e
00000150: 4fd0 6a3e 9baf 4f3e 807e 543e 4b76 5a3e
00000160: 4245 4e3e b5f2 2f3e b534 903e 20ce 4f3e
00000170: b0cf 383e 2c79 3b3e 9ff8 4a3e 5c3b 5c3e
00000180: d81d 643e 1d59 1d3e 7efb 6b3e 9a3d 4f3e
00000190: 4678 6d3e 25fc 6e3e 97ae 5c3e 6985 393e
000001a0: 21d8 2b3e 802b 2a3e ecf5 203e 06aa 633e
000001b0: c86a 1d3e 521e 6e3e 5e32 2f3e a2bb 4c3e
000001c0: e8bd 1f3e 0a90 5d3e 5d1b 5d3e 1172 533e
000001d0: 0a9d 753e 4189 813e 0017 3b3e 442e 633e
000001e0: 8e19 423e a64d 4a3e cdd5 263e 9d14 3f3e
000001f0: 2899 643e 83e3 873e 7286 863e 7445 2b3e
0.21570902 0.19465211 0.20338887 0.20747833 0.18700762 0.21553767 0.29643166 0.2556965
0.20613289 0.18215562 0.22822787 0.20255935 0.18747734 0.19754413 0.23228219 0.1788224
0.19280614 0.1779669 0.14515498 0.24975184 0.202571 0.2125771 0.18966062 0.21822071
0.14022088 0.28428203 0.2307255 0.18794106 0.22792356 0.2615043 0.19554585 0.20223895
0.17975244 0.15920532 0.21379413 0.17679976 0.22879657 0.19465747 0.1378029 0.20844413
0.17870569 0.2402568 0.15123853 0.22027723 0.26557606 0.17531838 0.14355904 0.3053979
0.1868426 0.1753069 0.18970193 0.20452608 0.2315767 0.22826178 0.22594321 0.17094733
0.22782151 0.20675641 0.23771662 0.17652197 0.19323155 0.2047613 0.22152627 0.11978745
0.20079017 0.22953562 0.15726592 0.24799116 0.20035656 0.20879528 0.192959 0.22702108
0.17811999 0.21151412 0.1543546 0.2218762 0.16348241 0.22058782 0.22550637 0.17965059
0.18460034 0.24643311 0.1876142 0.22959666 0.22931026 0.20281832 0.20751381 0.21334188
0.20143607 0.17182429 0.28165212 0.20293474 0.18047976 0.18307942 0.19821404 0.21507019
0.2227701 0.15366025 0.23045155 0.20238343 0.23190412 0.23338373 0.21550976 0.18117298
0.16781665 0.16618156 0.15718812 0.22232828 0.15372765 0.23253754 0.17109057 0.19993451
0.15599787 0.21636978 0.2159247 0.20648982 0.23985687 0.2530003 0.18270493 0.22185618
0.18955061 0.19756183 0.16292496 0.18660207 0.2232405 0.26540765 0.2627445 0.16725713

in/kernel/transpose f4 [128, 855]
00000000: 1012 4e3c 19ab da3d 1e20 123d bbbf a33d
00000010: b2e6 eb3d 9343 bbbc 7e04 0e3e adc9 99bd
00000020: 6775 abbd e5fa f7bd 7917 98bc 2fd2 afbd
00000030: 354c 9abd 2890 233e 3053 033e 0f3b 583d
00000040: 0335 023e 0fb1 b13c bcbe 623d 909e 273d
00000050: 29df 353e 3b04 063e 93c8 ccbd 394d 613a
00000060: 682d 5fbd 791e 833d 7552 03bd 80ef df3c
00000070: f38e 013e 4cc5 413e 3df9 293e 50ac 80bd
00000080: 29c6 a4bd eb3e f4bb 64ac 5c3e 11df d13d
00000090: 3804 993d 687d 1ebd 00d0 103e 1d26 3c3e
000000a0: 8d77 523e 14f2 19be 334d 043e af3a 3a3e
000000b0: 740b 8c3e 6583 0abd ddee b83d 172d 6ebd
000000c0: a3ba 113e f109 823d 3a54 453e fa8b 6bbe
000000d0: cade a0bc ff92 003e 7782 173e c80f 4abe
000000e0: 6afa 06bd 8d42 1cbd b43a 903d 7c12 d4bd
000000f0: 84f0 54be 5e09 453e 15fc 283d c302 e73d
00000100: 87cd e1bb 3b97 c1bd 0680 b5bd efbb e0bd
00000110: 5f17 38bd 6be6 c23d 2384 4b3e 53a1 083e
00000120: 9ddc 4cbe ddb7 ea3c 801c 593d 3a5f a1ba
00000130: 0584 97bd b4d1 2e3e ccb4 ebbd cc15 94bd
00000140: 0c08 e33d 21d8 e33d 8e69 423d b19d 00be
00000150: 2d50 6d3d 4a18 3f3e f913 b0bd 5274 14bd
00000160: 46ff c6bd 14ea 15bd 2c8c 753d fc79 c8bc
00000170: 0bfc a6bc cc1d d03d 3dce 533d 8be4 62bd
00000180: 121f cf3d 6d80 f9bc d723 93bd 2ce6 d03c
00000190: 527a c3bc f783 ab3d 5875 433e 04ed 25bd
000001a0: d55c b4bd ec31 a7bd 99f8 30be 9e5e f43d
000001b0: 08d0 8d3b 4191 01be fe96 fa3c 10ee 823c
000001c0: 945e 10be ed94 ed3d 9867 92bd 1fc1 213e
000001d0: 40fe c03d 86d0 e53d 3b6d a5bd 2f4e b43d
000001e0: 3dac a63d 74a0 db3d 736a 993d bce9 9e3d
000001f0: 10db 013e 021b 163e cf69 c03d b011 623d
00000200: cfda cc3d 6c76 f1bc 3486 c4bd 2a64 00ba
00000210: 637b cdbd 1504 3dbd 3273 f53c 2c28 f73d
00000220: 3082 b7bd 078b 143e 7dee 43be 4adf 563e
00000230: 3be0 ffbd d352 6d3e 1a12 063e 1711 ea3d
00000240: 706d 883c c5be f13d 60ac 8e3d 9ff9 a0bd
00000250: 8152 03be c4d8 6e3d 45bf 733d 0dbc 263d
00000260: ba85 b93c 26d2 853d 9121 1a3e f084 2f3e
00000270: 1f56 633e d2bc efbd 46d0 94bd 7e29 823c
00000280: b315 acbd 96ce c93b 574c 823d 42a9 b03d
00000290: 7f17 bf3d aec5 663e cf65 f43d 402b 2f3d
000002a0: 53e3 0d3e a398 083c f8c5 093e 4f00 013e
000002b0: d512 d3bd eac8 2fbd bd9c f4bd c2e5 c13d
000002c0: 66bc 903d b8b3 d93d 0bb0 883d 2952 ef3d
000002d0: b7dd 813e 2c4c 14be 7748 43bc e44a 123e
000002e0: e74d b73d 344b 12be a53b 423e 2b58 40bd
000002f0: a06e 333e 6782 ae3c 882a 013e ce51 d63c
00000300: fd8f 583e 71c2 013d dadb 4c3e 7a8f a1bd
00000310: d91a 233e f920 a93d 23fb 25be 0eeb c1bd
00000320: c86b dabd 1fea 42bd 9a31 3dbe 1cae 473e
00000330: ae1b 3bba 380b 333e cdd4 5d3e 628f 85bc
00000340: 8019 efbb 0eed 293c b261 fdbd 5618 063e
00000350: d24a ed3d 7cfd adbd 06b2 81bd 865a 793c
00000360: 249d 793e b130 363d 6777 ccbd b886 0f3e
00000370: 92f8 2f3e b711 ee3d a0be 63bd 27cc 2b3e
00000380: 11a7 e5bc 5385 21bb 2442 eabd f66d fcbc
00000390: 5b57 e23d 62ed b93d 920f 9dbc 5e51 d03d
000003a0: 6ee1 50bd 69de 043e c7ff 8ebd a140 12be
000003b0: f080 123e 99db 093e 3ded f53d be0b 453d
000003c0: 05a6 29be 7915 293e b94b 143e fcd3 1ebd
000003d0: 79a0 01be 1272 41bd 3abf 05be af6a 263e
000003e0: 0429 1d3e 5d9d d7bc b42f 483e 68c4 ef3d
000003f0: 923f 9b3d 9958 233e 5923 ffbd b24c 0b3e
0.012577549 0.106771655 0.03567516 0.07995554 0.11518611 -0.02285937 0.13868901 -0.0750917
-0.08372002 -0.12108401 -0.01856588 -0.08585011 -0.075340666 0.1597296 0.12824702 0.052790698
0.12715535 0.021690873 0.05535768 0.0409227 0.1776091 0.13087551 -0.09999194 0.0008594576
-0.054486662 0.064022966 -0.03206106 0.027335882 0.12652187 0.18922919 0.16598983 -0.06282866
-0.080456086 -0.0074537895 0.21550137 0.10247625 0.07471508 -0.038693815 0.14141846 0.18373914
0.20553418 -0.15033752 0.12920074 0.18186449 0.27352488 -0.033816714 0.090299346 -0.05814847
0.14231353 0.063495524 0.19270411 -0.23002616 -0.019637484 0.12556075 0.14795862 -0.19732583
-0.032953657 -0.038149405 0.07042447 -0.10355088 -0.20794874 0.19241855 0.04125603 0.11279824
-0.006890956 -0.09452673 -0.08862309 -0.109733455 -0.044944163 0.09516605 0.19874625 0.1334279
-0.20006032 0.028652126 0.053005695 -0.0012311705 -0.073982276 0.17072183 -0.11509094 -0.0723072
0.11085519 0.11125208 0.047463946 -0.12560154 0.05793779 0.1866161 -0.085975595 -0.036243744
-0.09716658 -0.036600187 0.05994813 -0.02447223 -0.020383855 0.10161933 0.051710356 -0.055393737
0.10113348 -0.030456746 -0.0718457 0.02550038 -0.023862038 0.0837478 0.19087732 -0.04050924
-0.08806769 -0.08163819 -0.17282332 0.11932109 0.004327778 -0.12653066 0.030589577 0.015982658
-0.14098579 0.11600671 -0.07148665 0.15796326 0.09423494 0.11221413 -0.08077475 0.08803975
0.081383206 0.107239634 0.07491007 0.07759425 0.12681222 0.1465874 0.093951814 0.05519265
0.10002672 -0.029475413 -0.0959591 -0.0004897738 -0.100333 -0.04614647 0.029962156 0.12068209
-0.08960378 0.1450616 -0.19133945 0.20983616 -0.124939404 0.23176126 0.13092843 0.11429041
0.016653746 0.118039645 0.06966472 -0.078601114 -0.12824441 0.058312193 0.05950858 0.040706683
0.022646774 0.06534223 0.15051867 0.17140555 0.22200821 -0.117059365 -0.072662875 0.015888926
-0.08402576 0.00615866 0.06362217 0.08626033 0.093306534 0.22536346 0.11933481 0.042765856
0.13856249 0.008337173 0.13454425 0.12597774 -0.10306326 -0.042916216 -0.11943958 0.09467651
0.07067184 0.10629982 0.066742025 0.11685593 0.25364468 -0.14482182 -0.011919132 0.14286381
0.089504056 -0.142865 0.18968065 -0.046959084 0.17522669 0.021302415 0.1261388 0.026162054
0.21148677 0.031679574 0.20005742 -0.07888694 0.1592821 0.08258242 -0.16209082 -0.09468661
-0.10665089 -0.047586557 -0.18475953 0.19500011 -0.00071376085 0.17484748 0.21663208 -0.016303722
-0.007296741 0.01037146 -0.123721495 0.13095221 0.115865365 -0.08495614 -0.063327834 0.015219336
0.2437635 0.04448003 -0.09983712 0.14016235 0.17184666 0.116244726 -0.055601716 0.16777097
-0.028033765 -0.0024646118 -0.114383966 -0.030814152 0.11051818 0.0907848 -0.019172464 0.101717696
-0.050996237 0.12975468 -0.069823794 -0.14282466 0.14306998 0.13462676 0.1200814 0.0481069
-0.16567238 0.16512097 0.14482011 -0.038776383 -0.12658872 -0.047227927 -0.13061228 0.16251634
0.15347677 -0.026320154 0.19549447 0.117073834 0.075804844 0.15951766 -0.12457914 0.13603476

out/MatMul_bias f4 [41]
00000000: 7d40 ea3c 1278 a2bc aa44 b33a 37d6 643c
00000010: 93b8 e4bc 0896 3bbd b4c4 61bc 37b8 8cbb
00000020: d3e6 76bd 53f2 14bd cae8 9b3d 536f e63d
00000030: cef7 63bd f7b0 8d3c 21f5 9d3c a14c 323c
00000040: bdc0 9dbc cf10 483a 0f7c c4bb e60d 03bd
00000050: b551 893c 6f46 16bd e3aa 34bd e148 b63c
00000060: 5f27 7ebd 4d3c 80bd 03e9 123b d4ef 95bc
00000070: 914f dcbc 5fd9 c03d b2d7 163d 538c 10bd
00000080: e0f3 14bd 2bec 03be 4b19 2b3c 2142 51bd
00000090: 0260 b73c 994c 263d 4860 503d 2637 a1bd
000000a0: 2e64 4ebd
0.028595204 -0.019832645 0.001367708 0.013967088 -0.027920043 -0.045797378 -0.013779808 -0.004294421
-0.060278725 -0.03636391 0.0761276 0.11251702 -0.055656247 0.017296297 0.019281926 0.010882528
-0.019256944 0.0007631899 -0.0059962342 -0.031995676 0.016762594 -0.036688264 -0.044108283 0.022251548
-0.062049266 -0.062615015 0.0022416718 -0.018302836 -0.026893409 0.0941646 0.036826797 -0.035290074
-0.03636539 -0.1288306 0.010443042 -0.051088456 0.022384647 0.040600393 0.05087307 -0.07871847
-0.050388508

out/kernel/transpose f4 [41, 128]
00000000: 2daa 9d3e 88e5 0dbf c6e2 ba3e 9f97 04bf
00000010: dfb7 50bf d5ad 3d3e b379 8b3e 3465 9dbe
00000020: df24 1dbf aa28 ddbe fc5b 9a3e ea84 3a3e
00000030: 6e79 843e 1121 3bbf 6233 b83e 6f7e c5be
00000040: 16da 3cbf 693b 1dbf 6ee7 f5be 48d5 a33e
00000050: f0ea 15bf d59a ffbe 5c81 9c3d 3fb6 24bf
00000060: 3dfc 413e cd7a b1be 8735 433e 7082 c63d
00000070: 6e87 b3be 6e4f 913e 1229 8d3e 3268 30bf
00000080: 36df 4cbf 23d5 31be 9e3c f53d e56e 73be
00000090: 2d90 27bf a2c9 433e 6606 acbe 425c 0f3e
000000a0: 8c1b 2ebf c76b 37be d4d6 adbe a7b1 8e3e
000000b0: 5de4 f0bd 730e 343e 3e7e c9be 75bc 8dbe
000000c0: 2494 463e 164c 713e 8a2f 5ebf a492 7e3e
000000d0: fad5 09bf 568e 85be 7fd6 5f3e ae09 9b3d
000000e0: f011 a0be 7560 1f3e 51b4 06bf 938d 8f3e
000000f0: b72d 72be 0205 2bbf b1c7 26be a1de 473e
00000100: 09d7 9c3e 5e94 dbbe e4e3 333e 198f 28bf
00000110: b973 c6be 47e4 3e3e 3257 efbe 3749 23bf
00000120: 0e19 30bf dd84 27bf ee47 13bf fba4 47bf
00000130: 3835 3f3e 9fdd 403e 7b51 eebe 28ab 15bf
00000140: 4af8 023e 1ff8 d1be 96ae ecbe 6263 843e
00000150: e26a e4be 8b40 453e 4cfb a63e a7a1 4a3e
00000160: afb7 7ebe 3b4c cabe edaa aa3e c912 efbe
00000170: 1392 4cbf ab32 cd3d 2119 b03d 1e4c 893e
00000180: 454a cabe fea1 303e d181 4fbf e9bc 4a3e
00000190: 6f17 e5be 1c75 57bf f6e1 d9bd 707f 4b3e
000001a0: 9d0b 113e 16c2 72bc f6bd 30bf b487 2ebf
000001b0: 5c38 9f3e b857 1ebf b249 52bd 6954 c63d
000001c0: df1f 9bbe 98a1 203e ad78 0ebf 1b0b 6e3e
000001d0: f111 863e ec27 5f3e c90a 1abf 64c9 c8be
000001e0: d7d2 793e 869f 24bf 1396 4c3e 9f40 72bc
000001f0: 08d6 41bf eccc 9bbd 463c 7dbe e8fb 63be
00000200: 3044 543e 1ea5 04bf 5b85 653e 01e6 9f3e
00000210: fd2d 623e b056 edbe 3552 0d3e 3767 a73e
00000220: 0703 cd3d dc19 10bf 9767 fbbe 775f 963e
00000230: 26d1 04bf 7bfc 363e 5caa cbbe 084d a6be
00000240: 4464 9b3d 37c3 353e 8fc0 28be b1e5 eabe
00000250: d380 edbe 16b4 903e 0b7c 1cbf 7da2 6a3d
00000260: 0b39 8fba d84a 6e3e fa7d 0ebf 0623 603e
00000270: e95f 8d3d ebd7 00bf 7d27 a8be cc1d 083e
00000280: fb5e 0ebf cdc0 c03d 52cf 893e 1040 fa3d
00000290: 7aef 53bf 2102 b3bd 5873 0bbf f03b 323e
000002a0: 4221 f33d 9204 133e ad2e 2abf ec5b 1dbf
000002b0: ed94 473e c55b 513e 873d b3be 1c22 5e3e
000002c0: c854 93be 6425 bcbe 811a d4be 0b5c 07bf
000002d0: 2a55 a73d 1eb9 0bbf cf47 443d f895 c7be
000002e0: da65 dabe 0f55 85bc cfd3 16bf 8ae6 38bf
000002f0: 9e40 09bf 9b00 06bf 403e 4d3e 7138 04bf
00000300: 3688 183e 7b5f 67be 94e4 93be be9e 303e
00000310: 225d 84be a53b 7f3e e0de 313e 1c03 683e
00000320: 61cc 973e de76 883e 5b18 8e3e d2bc ccbe
00000330: dae4 8c3e 472b 05bf 0236 26bf dd4a 0b3e
00000340: 5b53 f93d eaaf 253e f0a2 b4be 532f 163e
00000350: 5034 e7be 4fef 883e 012c 33be 7932 b4be
00000360: f376 0dbf 7d1c 533e 84d2 83bf c8c5 fbbe
00000370: 16c4 503e 8712 b53e 2d11 bdbe a1e5 b5be
00000380: 0951 883e 22e9 8b3e 7e8a 08bf f934 0ebf
00000390: 6d79 473e 305e 183e 50a1 7abf 3f25 2ebf
000003a0: 3933 72be 1b2f 6f3e a30b 13bf ff83 523e
000003b0: b0dc 653e 55ba 20bf 399f 263e be77 1ebe
000003c0: af37 703e 6132 4fbe b6e7 aebe 3c76 393e
000003d0: 363f 53bf d6ea 2abf 0189 973e a57f b7be
000003e0: bed5 28be d1a7 3cbf fd80 03bf c32b d8be
000003f0: efc4 7f3e 462f 3a3e 6196 bcbe 6fbc 9e3e
0.30793896 -0.5542836 0.3650114 -0.51793855 -0.81530565 0.18523343 0.27241287 -0.30741274
-0.61384386 -0.43195087 0.30148304 0.18214765 0.25873893 -0.7309733 0.35976702 -0.38573024
-0.7377027 -0.6141878 -0.4802813 0.31998658 -0.5856161 -0.49922815 0.07641861 -0.64340585
0.18943878 -0.34664002 0.19063388 0.09692848 -0.35064262 0.28380913 0.27570397 -0.6890899
-0.8002809 -0.17366461 0.119744524 -0.23772772 -0.6545437 0.19119886 -0.33598632 0.14000037
-0.68010783 -0.17912208 -0.33952963 0.27869913 -0.11762307 0.17583637 -0.39354128 -0.27682844
0.19392449 0.2356418 -0.8679129 0.24860626 -0.5384213 -0.26085156 0.21859168 0.07570206
-0.31263685 0.15564139 -0.5261889 0.280377 -0.23650251 -0.66804516 -0.16287114 0.1951852
0.3063281 -0.42886633 0.17567402 -0.6584335 -0.38760164 0.18641768 -0.46746212 -0.6378359
-0.6878823 -0.6543711 -0.5753163 -0.77986115 0.18672645 0.18834542 -0.4654654 -0.5846429
0.12790027 -0.41009614 -0.46226948 0.25857073 -0.44612795 0.19262902 0.326136 0.19788228
-0.24874757 -0.39511284 0.3333353 -0.4669402 -0.7991039 0.1001943 0.08598543 0.26815885
-0.39509788 0.17249295 -0.8105746 0.19798626 -0.4474444 -0.8416307 -0.10638802 0.19872832
0.14164586 -0.0148167815 -0.6903986 -0.68175817 0.31097686 -0.618526 -0.051339813 0.09684069
-0.30297753 0.15686643 -0.55652887 0.23246424 0.26185563 0.21792573 -0.60172707 -0.3921615
0.24396835 -0.64305913 0.19979124 -0.014785915 -0.7571721 -0.07607445 -0.24730024 -0.22264063
0.20729136 -0.5181445 0.22414152 0.31230167 0.22087856 -0.463552 0.1380089 0.32695934
0.10010343 -0.5628946 -0.4910247 0.2936971 -0.51881635 0.17869751 -0.3977841 -0.32480645
0.075874835 0.1775025 -0.16479705 -0.45878366 -0.46387348 0.28262395 -0.61126775 0.057283867
-0.0010927034 0.23270738 -0.55660975 0.2188836 0.06903059 -0.50329465 -0.32842627 0.13292617
-0.5561368 0.09411774 0.26915985 0.1221925 -0.8278729 -0.087406404 -0.54472876 0.17405677
0.11871578 0.14357212 -0.6647747 -0.61468387 0.19490404 0.20445164 -0.3500788 0.21692699
-0.2877562 -0.36747277 -0.4142647 -0.5287482 0.08170541 -0.5457934 0.047920045 -0.38981605
-0.42655832 -0.01627591 -0.58916944 -0.72226775 -0.53614223 -0.52344674 0.20043278 -0.5164862
0.1489571 -0.22595017 -0.2888533 0.17248055 -0.25852305 0.24925096 0.17370176 0.22657436
0.29648116 0.26653188 0.27752957 -0.39987808 0.2751835 -0.5201916 -0.6492616 0.13602777
0.12174102 0.16180387 -0.3528056 0.1466649 -0.451571 0.26745078 -0.17497255 -0.35194758
-0.5525963 0.20616336 -1.0298619 -0.49174333 0.20387301 0.35365698 -0.36927167 -0.35526755
0.26624325 0.27326304 -0.5333632 -0.5554958 0.19479914 0.1487968 -0.97902393 -0.68025583
-0.23652352 0.23357813 -0.5743963 0.20558165 0.22447467 -0.6278432 0.16271676 -0.15475366
0.23458742 -0.20234062 -0.34161156 0.18111509 -0.8251833 -0.6676458 0.29596713 -0.35839573
-0.16487786 -0.7369357 -0.51368695 -0.42220888 0.24977468 0.18182096 -0.3683348 0.31003138
