bots/Yoda.chatbot/converted_model.tflite (tflite, 353416 bytes, 4 tensors)

in/MatMul_bias f4 [128]
0	0x3e5ac513	0.2136424
1	0x3e5d4b20	0.21610689
2	0x3e4a22e2	0.19739869
3	0x3e62346f	0.22090314
4	0x3e8a919e	0.27064222
5	0x3e450206	0.19239053
6	0x3e9828e0	0.29718685
7	0x3e0a4b7c	0.13505358
8	0x3e76572c	0.24056691
9	0x3e1a5027	0.15069638
10	0x3e467507	0.1938058
11	0x3e106787	0.14101993
12	0x3dcb7404	0.099342376
13	0x3e8867f0	0.26641798
14	0x3dd48b81	0.10378171
15	0x3e3a0173	0.18164615
16	0x3dd95ba8	0.10613185
17	0x3e313f9f	0.17309426
18	0x3e7ced80	0.24699974
19	0x3e0444bd	0.12916847
20	0x3e25fdaa	0.16210046
21	0x3e5dbdd0	0.21654439
22	0x3e89bf40	0.26903725
23	0x3e16324b	0.14667623
24	0x3e28367f	0.16427039
25	0x3e392144	0.18079096
26	0x3e5b6262	0.21424249
27	0x3e5e3e5c	0.21703476
28	0x3e6bdae9	0.23032726
29	0x3e1aa480	0.15101814
30	0x3e8325c0	0.25614738
31	0x3e85da69	0.26143196
32	0x3e8ba801	0.27276614
33	0x3e14aec8	0.14519799
34	0x3e767114	0.24066573
35	0x3e250cfc	0.16118234
36	0x3e35adef	0.17742132
37	0x3e69b97e	0.22824666
38	0x3e86ff06	0.26366442
39	0x3e4dc897	0.2009605
40	0x3e48de1e	0.19615981
41	0x3e597120	0.2123456
42	0x3e24af0e	0.16082403
43	0x3e3d4395	0.18482812
44	0x3e63aa80	0.2223301
45	0x3e920e9a	0.28526765
46	0x3e7f7188	0.24945652
47	0x3e513023	0.20428519
48	0x3e0404fd	0.12892528
49	0x3e5bb0c1	0.21454145
50	0x3e57e00a	0.21081558
51	0x3e665b69	0.22495808
52	0x3e3cbefa	0.18432227
53	0x3e73d557	0.23811851
54	0x3e6728e3	0.22574191
55	0x3e527db1	0.2055576
56	0x3e53f017	0.20697056
57	0x3e20a94b	0.1568958
58	0x3e4cde79	0.20006742
59	0x3e45b9c7	0.1930915
60	0x3e847735	0.25872198
61	0x3e5d5a26	0.2161642
62	0x3dd59a18	0.10429782
63	0x3e5d577a	0.21615401
64	0x3e82fde5	0.2558433
65	0x3e1d6530	0.15370631
66	0x3df8140e	0.121132
67	0x3de63345	0.11240248
68	0x3e22f3bf	0.15913294
69	0x3e713f3a	0.23559275
70	0x3e8b7cb7	0.27243587
71	0x3e405388	0.18781865
72	0x3e413332	0.18867186
73	0x3dd07418	0.10178393
74	0x3e84ebea	0.25961238
75	0x3e2a529a	0.16633072
76	0x3e74bd5e	0.23900363
77	0x3e01ea96	0.12687144
78	0x3e4e0513	0.20119123
79	0x3dc25734	0.09489289
80	0x3e705cf2	0.23472956
81	0x3e5d40a8	0.21606696
82	0x3e87970f	0.26482436
83	0x3e75651a	0.23964348
84	0x3e773e11	0.2414477
85	0x3e1ea299	0.15491714
86	0x3e6c0852	0.23050049
87	0x3e32e2dd	0.17469354
88	0x3e734655	0.23757298
89	0x3df91c0a	0.12163551
90	0x3e3cc578	0.18434703
91	0x3e64c0df	0.223392
92	0x3e805fc2	0.25073057
93	0x3e6d5910	0.23178506
94	0x3e55ac91	0.2086661
95	0x3ea23016	0.31677312
96	0x3e610224	0.21973473
97	0x3dd5bdfc	0.10436627
98	0x3e22c31c	0.15894741
99	0x3e70384e	0.23458979
100	0x3e2c7eae	0.168452
101	0x3e667bcb	0.22508161
102	0x3e07e150	0.13269544
103	0x3e814eb1	0.2525535
104	0x3e2fffc7	0.17187415
105	0x3e4cd8a2	0.20004514
106	0x3e1c5711	0.15267588
107	0x3e260898	0.16214216
108	0x3e10757f	0.14107321
109	0x3e200601	0.1562729
110	0x3e48c8c8	0.19607842
111	0x3e559e85	0.20861252
112	0x3e397230	0.18109965
113	0x3e3e4981	0.18582727
114	0x3e67dcec	0.22642869
115	0x3e0b6606	0.13613138
116	0x3e7e57f9	0.24838246
117	0x3e457c68	0.19285738
118	0x3e48b830	0.19601512
119	0x3e332cdd	0.17497583
120	0x3e8ab4dd	0.27091113
121	0x3e461d28	0.1934706
122	0x3e4f1502	0.20222858
123	0x3e50f422	0.2040563
124	0x3e36ed92	0.17864063
125	0x3e43e6c2	0.19130996
126	0x3e0811fe	0.13288113
127	0x3e3d4bcb	0.18485944

in/kernel/transpose f4 [128, 659]
0	0xbe0c0f7b	-0.1367778
1	0xbcf6a385	-0.030107269
2	0xbd23e929	-0.04001728
3	0xbb45c133	-0.003017497
4	0x3d9ac95d	0.07557938
5	0x3cb68002	0.022277836
6	0x3c2fd019	0.010730767
7	0x3c469e72	0.012122737
8	0xbdbcc6e9	-0.092176266
9	0xbdf608d1	-0.120134
10	0x3e4118f2	0.18857172
11	0xbda80909	-0.08204848
12	0x3da872e1	0.082250364
13	0xbdab8c07	-0.083763175
14	0xbd495d36	-0.04916116
15	0xbe0f4901	-0.13992693
16	0x3c8ee2b4	0.017442085
17	0xbd8d2698	-0.06892127
18	0xbe5b191d	-0.21396299
19	0x3d744b88	0.059642345
20	0xbdd5eac2	-0.10445167
21	0x3c8e09ac	0.017338596
22	0x3e317aa3	0.17331938
23	0xbced6595	-0.028979102
24	0xbe30d408	-0.17268384
25	0xbe019a23	-0.12656455
26	0xbe1271b4	-0.14301187
27	0xbcbd7d1f	-0.023130951
28	0xbd07ced7	-0.033156242
29	0x3d013391	0.03154332
30	0xbe11c0eb	-0.14233749
31	0xbded1abb	-0.11577364
32	0x3e03d5fa	0.12874594
33	0xb9f9ad00	-0.00047621876
34	0x3db95e81	0.09051228
35	0x3d819cb7	0.06328719
36	0x3e24ab3e	0.16080949
37	0x3d0cbe41	0.034361128
38	0x3e52e179	0.20593823
39	0x3d6aafba	0.057296492
40	0x3e0ac2c1	0.13550855
41	0x3e011b81	0.12608148
42	0x3dc7de43	0.0975919
43	0x3df1f9e7	0.11815243
44	0xbe281149	-0.16412844
45	0x3e17f024	0.148377
46	0xbddeaf8e	-0.10873328
47	0x3e46aa22	0.19400838
48	0xbe467dc8	-0.19383919
49	0x3d87b529	0.066263504
50	0x3cdb4ac3	0.026769048
51	0x3ddccd25	0.10781316
52	0xbe273683	-0.16329388
53	0x3e13292e	0.14371178
54	0x3daa0618	0.083019435
55	0x3e3a5700	0.1819725
56	0x3bf35ea0	0.0074270517
57	0x3db551b5	0.08853475
58	0xbd889acc	-0.0667015
59	0xbd50e533	-0.05099983
60	0xbd97bdd0	-0.07409251
61	0x3e3ebfed	0.18627901
62	0x3dc520fa	0.096254304
63	0x38137ca7	3.5163623e-05
64	0xbe01370b	-0.12618653
65	0xbc0ab3c7	-0.008465714
66	0xbe110e21	-0.14165546
67	0xbd9cf55e	-0.076639876
68	0xbd4f290f	-0.050576266
69	0xbd8777b8	-0.066146314
70	0xbd25ed88	-0.04050973
71	0x3e0dd742	0.13851646
72	0xbdb6af19	-0.08920116
73	0xbd92e137	-0.071718626
74	0x3e66a3fd	0.22523494
75	0xbe228e99	-0.15874709
76	0xbd0a15b8	-0.03371212
77	0xbcc40173	-0.023926472
78	0xbd23448d	-0.039860297
79	0x3e087df8	0.13329303
80	0x3ddbc2be	0.107305035
81	0xbd900fd2	-0.070342675
82	0x3db2b10d	0.08725176
83	0x3e1bf675	0.15230735
84	0xbde3a548	-0.11115509
85	0x3cc522cc	0.024064444
86	0x3df482da	0.119390205
87	0xbdd9e648	-0.10639626
88	0x3ddf7b92	0.10912241
89	0xbdef36b6	-0.11680357
90	0xbc1a371f	-0.009412556
91	0xbd8684a0	-0.06568265
92	0xbd7f96b0	-0.062399566
93	0xbdf82f04	-0.121183425
94	0xbe132baf	-0.14372133
95	0xbdca6bda	-0.09883852
96	0xbd4f517f	-0.05061483
97	0xbd44da90	-0.04806
98	0x3c823ef6	0.015899163
99	0xbe581465	-0.2110153
100	0x3d276491	0.040867392
101	0xbdb686be	-0.08912419
102	0xbb6a1865	-0.0035720107
103	0x3de1d2d6	0.11026542
104	0x3be53a34	0.0069954637
105	0x3d9abb65	0.07555274
106	0x3e0bdd7b	0.13658707
107	0x3d7dd82a	0.06197373
108	0x3cce4aa9	0.025182085
109	0x3c94eb23	0.018178528
110	0x3dde981c	0.10868856
111	0x3d02d9fd	0.03194617
112	0x3d9ffc53	0.07811799
113	0xbd883ddd	-0.066524245
114	0x390f020a	0.00013638302
115	0xbdb4fa2b	-0.08836778
116	0x3d1e2e70	0.038618505
117	0x3d80ace3	0.062829755
118	0x3ccfc029	0.025360184
119	0xbb17a6fe	-0.0023140307
120	0x3d4cda08	0.05001262
121	0xbd8b2c2c	-0.067955345
122	0x3cab2870	0.020893306
123	0x3d16cb2c	0.036814854
124	0xbd7d4f21	-0.06184304
125	0x3e0c14a7	0.13679753
126	0x3db12766	0.08650093
127	0xbe2bce26	-0.16777858
128	0xbd95fe7a	-0.07323928
129	0x3e9b10c1	0.3028622
130	0x3d28ab94	0.041179255
131	0x3dd583b2	0.104255095
132	0x3cf6bb71	0.030118676
133	0x3e3b0458	0.18263376
134	0xbda93c04	-0.082634
135	0xbe01b377	-0.12666117
136	0xbdaad3b9	-0.08341164
137	0x3d94b5bd	0.07261226
138	0xbe239efc	-0.15978616
139	0xbd37009c	-0.044678316
140	0x3de7e2f2	0.11322583
141	0xbdccc1b8	-0.099978864
142	0x3d5025c2	0.05081726
143	0x3e4def96	0.20110926
144	0x3c82956a	0.015940387
145	0x3e3b3965	0.18283613
146	0x3bf35308	0.0074256696
147	0x3db5ef0b	0.088834845
148	0xbdda6e35	-0.106655516
149	0xbe15a429	-0.14613403
150	0x3d514c8c	0.05109839
151	0xbdb10bd9	-0.08644838
152	0xbb9a8270	-0.0047152564
153	0x3d032eeb	0.032027166
154	0x3cd8d134	0.026466943
155	0x3e0df114	0.13861495
156	0xbe0a8762	-0.13528207
157	0xbdb9f1d4	-0.09079328
158	0xbdcf4c4f	-0.101219766
159	0x3da87267	0.082249455
160	0xbd8a7dac	-0.06762251
161	0xbda4851c	-0.08033201
162	0xbd951bdf	-0.072807066
163	0xbd86cf0b	-0.06582459
164	0x3bef1fa8	0.007297475
165	0xbd70b3a2	-0.05876506
166	0xbdd60d1c	-0.10451719
167	0x3d6daa9f	0.058024045
168	0x3e357384	0.17719847
169	0xbdbdcb6a	-0.09267314
170	0x3d2d9b35	0.042384345
171	0x3e1d4921	0.15359928
172	0xbdb1f8b5	-0.08690015
173	0xbd541466	-0.051777266
174	0x3e000826	0.12503108
175	0xbd5c9d7e	-0.053861134
176	0xbda3fca4	-0.08007172
177	0x3e515ad4	0.20444804
178	0xbde56306	-0.11200528
179	0x3c8fe2ae	0.017564144
180	0xbb5f8248	-0.0034104753
181	0x3c8f1718	0.017467067
182	0xbd815adb	-0.063161574
183	0x3d5d46b4	0.054022506
184	0xbe0e54de	-0.13899562
185	0xbd4c6e77	-0.049910035
186	0xbc948791	-0.01813105
187	0x3e923ce7	0.2856209
188	0x3d06bc47	0.0328944
189	0x3deaf074	0.11471644
190	0xbe098420	-0.13429308
191	0x3be89cfa	0.007098791
192	0xbc72dc43	-0.014823022
193	0xbd1dc5f8	-0.038518876
194	0x3e2c0378	0.16798198
195	0xbdde345b	-0.1084983
196	0x3dc4914d	0.095980264
197	0x3d71dce8	0.059048563
198	0xbbe5b0dd	-0.007009609
199	0x3da0f519	0.07859249
200	0x3d4a2dee	0.04936021
201	0xbc8de9a2	-0.017323319
202	0x3bd9bb98	0.0066446774
203	0xbd5c84a4	-0.053837433
204	0x3dae48c2	0.08509971
205	0x3d793b8d	0.060847808
206	0x3de9c4bb	0.114144765
207	0x3d85c085	0.06530861
208	0xbd98e7e5	-0.07466105
209	0x3cf89cdd	0.030348236
210	0xbdbd904b	-0.09256037
211	0xbd6de6d5	-0.058081467
212	0x3de00fc5	0.10940508
213	0xbdf062e6	-0.117376134
214	0xbd72124c	-0.05909948
215	0x3d1ba009	0.03799442
216	0x3d11f566	0.03563442
217	0x3d628524	0.055302754
218	0xbd259537	-0.040425505
219	0xbcab9714	-0.020946063
220	0xbde44220	-0.11145425
221	0xbbebbfb4	-0.0071944837
222	0xbdaddbfc	-0.08489224
223	0xbdc964e4	-0.098336965
224	0xbd393905	-0.045220394
225	0x3dc3e624	0.0956538
226	0xbde4ef35	-0.111784376
227	0x3d7fe2ee	0.062472276
228	0xbd99cfb4	-0.07510319
229	0xbe56babf	-0.20969675
230	0xbbdcd733	-0.006739521
231	0xbe03a96e	-0.12857601
232	0xbe01888a	-0.12649742
233	0x3c7fa8a4	0.015604172
234	0xbde4a0c6	-0.111634776
235	0xbc340322	-0.010987075
236	0xbe02974b	-0.12753026
237	0x3c590b9b	0.013247396
238	0x3babfee8	0.005248893
239	0xbcc94b2f	-0.024571983
240	0xbd993369	-0.07480509
241	0xbdd6a73a	-0.10481115
242	0xbdb84cc2	-0.089990154
243	0x3d788290	0.06067139
244	0xbc8ffe85	-0.017577419
245	0x3d93154b	0.07181796
246	0xbd3558b0	-0.044274032
247	0x3ac2a758	0.0014850898
248	0x3d3e470b	0.04645447
249	0xbd9cc959	-0.076555915
250	0x3d793dac	0.06084983
251	0x3e0fa934	0.1402939
252	0xbd6dbf4d	-0.058043767
253	0x3c99b403	0.018762594
254	0xbd274e9d	-0.040846456
255	0x3d7370fe	0.05943393

out/MatMul_bias f4 [28]
0	0xbc674f40	-0.014118016
1	0xbd81c178	-0.06335729
2	0xbd883b79	-0.066519685
3	0xbcdb3597	-0.026758952
4	0xbc5743e1	-0.013138742
5	0x3d99d88a	0.07512005
6	0xbd42687c	-0.047462925
7	0xbc4fc7d0	-0.012681916
8	0xbd2c018a	-0.041993655
9	0x3d89125b	0.06692954
10	0xbd3cb5fd	-0.046071995
11	0xbe0ee9e5	-0.13956411
12	0xbd83c1ce	-0.0643345
13	0xbc3577bb	-0.011075909
14	0xbdcc3c68	-0.09972459
15	0x3d902bbd	0.070395924
16	0x3d0765e9	0.033056173
17	0x3d4865a6	0.048925065
18	0xb9cee352	-0.0003946075
19	0xbd3415b9	-0.04396603
20	0x3cd2b69c	0.02572184
21	0x3c8f7f24	0.01751668
22	0x3949e2ac	0.00019253296
23	0xbd1de331	-0.038546745
24	0xbcc95fa6	-0.024581742
25	0xbccd265a	-0.025042702
26	0xbccc667b	-0.02495121
27	0xbd87dc01	-0.06633759

out/kernel/transpose f4 [28, 128]
0	0xbeb38492	-0.3506208
1	0xbec28807	-0.37994406
2	0x3e9eb485	0.309971
3	0xbe3b5ea8	-0.18297827
4	0x3e844a9d	0.25838175
5	0x3e871f5b	0.2639111
6	0xbea34f61	-0.318965
7	0x3e576edf	0.21038388
8	0xbf10ed9e	-0.56612575
9	0xbf064d84	-0.5246203
10	0xbf1e39a7	-0.6180672
11	0xbf0ee1df	-0.558134
12	0x3e698479	0.2280444
13	0xbf196bda	-0.59930193
14	0xbeff46b2	-0.49858624
15	0xbf1f2d23	-0.6217825
16	0xbf00a941	-0.5025826
17	0x3e3a0af8	0.18168247
18	0xbec017c9	-0.37518147
19	0xbf075a0f	-0.52871794
20	0x3e93633b	0.28786644
21	0x3e66c27d	0.22535129
22	0xbf16e20e	-0.5893868
23	0xbf12ecba	-0.57392466
24	0x3ddf2c9e	0.10897182
25	0x3eada572	0.33915287
26	0x3ea02f6a	0.31286174
27	0xbebe07d3	-0.37115344
28	0x3e6f5960	0.23373938
29	0xbe88fd87	-0.26755926
30	0xbf144582	-0.5791856
31	0x3e6671bd	0.22504325
32	0x3e8e085c	0.27740753
33	0xbe9ec0a0	-0.31006336
34	0xbeecb43f	-0.46231267
35	0xbee28f49	-0.44249943
36	0xbf1231e5	-0.57107383
37	0xbf15a61e	-0.584566
38	0xbec0e892	-0.37677437
39	0xbf0669c0	-0.5250511
40	0x3e828130	0.25489187
41	0x3e914bf5	0.28378263
42	0xbed2fb71	-0.4120746
43	0x3e5ebbca	0.21751323
44	0x3e829fc7	0.25512525
45	0xbed004e7	-0.4062874
46	0x3e0af669	0.1357056
47	0xbef271d6	-0.47352475
48	0x3e7cc80c	0.24685687
49	0x3e89669f	0.26836106
50	0x3eac3b59	0.3363903
51	0x3ea77b63	0.32711324
52	0xbf14f9b2	-0.58193505
53	0xbebe65a5	-0.37186924
54	0x3e70d833	0.23519973
55	0x3e5c51be	0.21515557
56	0xbf3dfcf3	-0.74214095
57	0x3eaffcbb	0.34372506
58	0x3e2891ab	0.16461818
59	0x3e5cf368	0.21577227
60	0x3e6063e7	0.2191311
61	0xbeef3266	-0.46718138
62	0xbe6e0a5e	-0.23246142
63	0xbf173637	-0.590671
64	0x3da459f7	0.08024972
65	0x3e82b048	0.25525117
66	0xbed3f9c6	-0.414015
67	0xbf2d859d	-0.67782
68	0xbeca7321	-0.3954096
69	0xbe0b3c3b	-0.13597195
70	0x3e3fbe2c	0.18724889
71	0x3ec1f0c7	0.3787901
72	0x3ea847a6	0.32867163
73	0x3dd62e0a	0.10458
74	0x3e17ccda	0.14824238
75	0xbe8ea7a9	-0.2786229
76	0x3e5496ea	0.20760694
77	0x3e837ba2	0.25680262
78	0xbf0ba7c3	-0.5455286
79	0xbedd927f	-0.4327583
80	0xbf282156	-0.65675867
81	0xbeada32c	-0.33913553
82	0xbf324ed0	-0.6965151
83	0xbf13904b	-0.5764205
84	0x3e96ff99	0.2949188
85	0xbf08fe92	-0.53513443
86	0xbec77ff8	-0.3896482
87	0x3e8d50bc	0.27600658
88	0x3e96d794	0.29461348
89	0xbf36816b	-0.71291226
90	0xbf1f1b46	-0.6215099
91	0x3d76514d	0.06013613
92	0x3e338766	0.17532119
93	0xbe817e8e	-0.25291866
94	0xbea2e8c5	-0.31818214
95	0xbeacc2f0	-0.33742476
96	0x3e925bed	0.2858576
97	0xbf123f36	-0.571277
98	0xbedd7949	-0.43256596
99	0x3dde9fce	0.10870324
100	0xbee2adae	-0.44273132
101	0x3e2e93df	0.17048596
102	0x3e132336	0.143689
103	0xbeff6c30	-0.49887228
104	0x3e5d115f	0.21588658
105	0x3e59a889	0.21255697
106	0x3e1cb50c	0.15303439
107	0xbf14cc39	-0.5812412
108	0xbf2bd381	-0.67119604
109	0xbee38a3a	-0.44441396
110	0x3e54d2ec	0.20783585
111	0x3ea11525	0.31461444
112	0x3e53094e	0.20609018
113	0xbf191d51	-0.5981036
114	0x3e4b082c	0.19827336
115	0xbe975e9d	-0.29564372
116	0x3e28481b	0.16433756
117	0x3e41f4d1	0.18941046
118	0x3e09d1c8	0.13458931
119	0xbf1611db	-0.58620995
120	0xbea30607	-0.31840536
121	0x3df73e90	0.1207248
122	0x3e2a0f53	0.16607408
123	0xbf12ba8e	-0.5731591
124	0x3e8694fc	0.2628554
125	0x3dda3bf2	0.10655965
126	0x3ea455e6	0.32096785
127	0xbed4421c	-0.41456687
128	0x3dd944c1	0.10608817
129	0xbf12d09b	-0.57349557
130	0x3dde90ab	0.10867437
131	0xbeb22a9b	-0.3479813
132	0x3e878f37	0.26476452
133	0x3dfc2f95	0.12313763
134	0x3d8b2b90	0.06795418
135	0xbf1e7b83	-0.61907214
136	0xbf2a65ea	-0.6656176
137	0x3e6b5524	0.22981697
138	0xbef195e1	-0.4718466
139	0xbe079043	-0.13238625
140	0x3e2dec48	0.16984665
141	0xbe1ccec0	-0.15313244
142	0xbe420b67	-0.18949662
143	0xbe8c048a	-0.27347213
144	0xbf1e26ed	-0.61778146
145	0xbf2cfed8	-0.6757636
146	0xbdcfbab5	-0.101430334
147	0x3ebaa296	0.36452168
148	0xbf049913	-0.5179607
149	0x3db9f72a	0.09080346
150	0x3e1ede81	0.15514566
151	0x3db7d52d	0.08976207
152	0xbf300db0	-0.68770885
153	0xbe79adbd	-0.24382682
154	0xbf32b5ff	-0.69808954
155	0x3de2a08f	0.1106578
156	0xbee58c10	-0.44833422
157	0x3e694815	0.22781403
158	0x3d9029f2	0.070392504
159	0xbf307d0e	-0.6894082
160	0xbf05d4b5	-0.5227769
161	0x3d767c74	0.06017728
162	0xbf1a4eb6	-0.60276353
163	0x3e971673	0.29509315
164	0xbf4fc818	-0.81164694
165	0x3e5ea307	0.21741877
166	0xbec77d0a	-0.38962585
167	0xbea9d7de	-0.33172506
168	0xbe9a1aa9	-0.30098465
169	0xbf002481	-0.500557
170	0x3e83f006	0.2576906
171	0xbf04a435	-0.5181306
172	0xbed5968c	-0.4171642
173	0xbf344de0	-0.7043133
174	0x3e8f9707	0.28044912
175	0x3e807677	0.25090382
176	0x3e709888	0.23495686
177	0xbf1520bd	-0.5825308
178	0x3eaf341a	0.34219438
179	0x3df8381b	0.12120076
180	0x3e99a8b3	0.3001152
181	0xbe81f121	-0.2537928
182	0xbd08d19c	-0.033403024
183	0x3e418a7c	0.18900484
184	0xbef06ef9	-0.46959665
185	0x3e913c7f	0.28366467
186	0xbea6d137	-0.32581493
187	0x3e953973	0.29145393
188	0x3e5d5cad	0.21617384
189	0xbeb50d72	-0.3536182
190	0x3e3a628b	0.18201654
191	0x3e8a7fcf	0.27050635
192	0x3dfa7a44	0.122303516
193	0x3e4fe97b	0.2030391
194	0x3e8e4842	0.27789503
195	0xbebc48bc	-0.36774242
196	0xbf08512c	-0.5324886
197	0x3e662db8	0.22478378
198	0xbf242696	-0.6412138
199	0x3e1c603c	0.15271086
200	0xbeeed56c	-0.46647203
201	0x3e676322	0.2259641
202	0xbee72ace	-0.45149845
203	0x3ea48f9d	0.32140818
204	0xbeca61bd	-0.39527693
205	0xbed7db97	-0.4215972
206	0x3ea0f195	0.31434312
207	0xbe3acc8e	-0.18242094
208	0xbf1047dc	-0.5635965
209	0xbedcedc9	-0.43150166
210	0xbee176de	-0.44036
211	0x3e35ef72	0.17767122
212	0xbeeae31d	-0.458764
213	0xbeb91980	-0.36152267
214	0x3e08ad9e	0.1334748
215	0xbf234876	-0.6378244
216	0xbeb0bf5b	-0.34520993
217	0x3e830a9e	0.25594038
218	0xbe94455a	-0.2895916
219	0xbe972880	-0.29523087
220	0xbed5e4ac	-0.41776025
221	0x3dbc107b	0.09182831
222	0xbeab85e2	-0.33500582
223	0x3e520ea4	0.20513397
224	0x3dd28489	0.10279185
225	0x3e67e0bf	0.22644328
226	0x3d8b8d41	0.068140514
227	0xbdcadadb	-0.099050246
228	0xbec2c709	-0.38042477
229	0xbecf371b	-0.4047173
230	0xbef4a025	-0.4777843
231	0xbe098d63	-0.13432841
232	0x3e92f053	0.28698978
233	0x3e286c60	0.16447592
234	0x3e71e4f8	0.23622501
235	0xbe91a48d	-0.28445855
236	0xbe4a327a	-0.19745818
237	0xbee805f1	-0.45317033
238	0x3e82c534	0.2554108
239	0xbeae7400	-0.34072876
240	0x3e816460	0.25271893
241	0xbef0e626	-0.4705059
242	0xbf0d1088	-0.5510335
243	0x3e86521e	0.26234525
244	0xbeb29eae	-0.34886688
245	0x3e3b5112	0.18292645
246	0x3e6c0c99	0.2305168
247	0x3e72c431	0.23707654
248	0x3d8a09be	0.067401394
249	0x3e1d909c	0.15387195
250	0xbf4c517b	-0.7981183
251	0x3ea22856	0.316714
252	0xbefa5517	-0.48893043
253	0x3e3a21b4	0.18176919
254	0x3e135d35	0.14391024
255	0x3e96da5c	0.2946347
