bots/en/The_Lord_of_the_Rings.chatbot/The_Lord_of_the_Rings_model.tflite (tflite, 675240 bytes, 4 tensors)

in/MatMul_bias f4 [120]
000000 c7 78 52 3e 8f ff 66 3e e5 8d af 3d f1 5a 6f 3e
       0.20553885 0.22558425 0.08571986 0.23374535
000010 bd f6 48 3e a2 a9 37 3e b8 8a b0 3e 4d 03 91 3e
       0.19625373 0.17935804 0.34480834 0.2832283
000020 24 14 82 3e f9 ac 87 3e 81 0f 33 3e ad 84 13 3e
       0.2540599 0.26499155 0.17486383 0.1440608
000030 2b 89 95 3e 87 a3 75 3e e2 3b 62 3e 07 1c 2a 3e
       0.29206213 0.23988162 0.22093156 0.16612254
000040 28 07 a4 3e 67 e2 76 3e ee d0 9a 3e 69 95 a0 3e
       0.3203671 0.24109803 0.30237526 0.3136399
000050 b1 1a 73 3e 4a a1 91 3e 46 16 8f 3e 99 96 46 3e
       0.2374065 0.28443366 0.2794668 0.19393386
000060 b0 d2 fa 3d ca 79 ee 3d a1 0f 4d 3e 27 40 03 3e
       0.12247217 0.11644323 0.20025493 0.12817441
000070 a5 aa 5a 3e ce 64 0f 3e ee 2e 41 3e 1b 63 4d 3e
       0.21354158 0.14003298 0.18865559 0.20057337
000080 e5 e6 8b 3e 66 11 86 3e 18 57 a1 3e b0 9c 99 3e
       0.27324596 0.2618515 0.3151176 0.30002356
000090 a8 3b 90 3e fa b2 72 3e f5 07 86 3e 95 71 7c 3e
       0.28170514 0.23701087 0.26177946 0.24652703
0000a0 19 52 4f 3e 4a 57 85 3e 26 da dc 3d 8e 98 6b 3e
       0.20246162 0.2604316 0.10783796 0.23007414
0000b0 be f5 90 3e cf c1 78 3e b8 06 51 3e 20 ae 13 3e
       0.28312486 0.24292682 0.20412719 0.14421892
0000c0 0f ad 7c 3e 35 cc 57 3e bc 82 73 3e 6c 5d 49 3e
       0.24675392 0.21073993 0.2378034 0.19664544
0000d0 08 6d 07 3e 20 60 0a 3e a3 c3 b0 3e 4f 36 7b 3e
       0.13225186 0.13513231 0.3452426 0.24532436
0000e0 10 60 37 3e 0d 00 8b 3e a7 09 8e 3e a9 bb 54 3e
       0.17907739 0.27148476 0.2774174 0.20774712
0000f0 60 e8 4a 3e 8a e4 88 3e d9 e3 77 3e 64 23 37 3e
       0.19815207 0.2673686 0.2420801 0.17884594
000100 e8 24 3e 3e 4c 80 55 3e c9 9f a1 3e ed ac 18 3e
       0.18568766 0.20849723 0.3156722 0.14909716
000110 d3 d5 96 3e ac 2a 6a 3e 97 16 96 3e ac 75 87 3e
       0.2946001 0.2286784 0.2931411 0.26456964
000120 74 35 b3 3e 77 9b 6a 3e fd eb 90 3e 84 7b 20 3e
       0.3500172 0.22910868 0.28305045 0.15672117
000130 30 12 2f 3e 64 d3 8e 3e 2e 6c 42 3e e6 a4 7f 3e
       0.17096782 0.27895653 0.1898658 0.24965248
000140 50 44 55 3e 47 ca 0c 3e cf a0 a3 3e 19 7b 96 3e
       0.2082684 0.13749038 0.31958625 0.2939079
000150 c3 b1 9c 3e 2e 23 8f 3e 7b b7 2e 3e ca f3 63 3e
       0.3060437 0.27956527 0.1706218 0.22260967
000160 0e 88 2f 3e 7e bc bc 3d 05 d4 65 3e 40 48 43 3e
       0.17141744 0.092156395 0.2244416 0.1907053
000170 84 59 5a 3e cb 23 a2 3e 99 9a a1 3e e0 2b 8e 3e
       0.2132321 0.31667933 0.3156326 0.2776785
000180 22 04 51 3e 33 c6 aa 3e f9 c8 77 3e 88 9b 86 3e
       0.20411733 0.3335434 0.24197759 0.26290536
000190 58 42 24 3e 60 50 35 3e 3a 0c 8a 3e 4f 32 2f 3e
       0.16040933 0.17706442 0.26962453 0.17109035
0001a0 68 e2 43 3e f4 86 73 3e e5 0d 8d 3e f4 e7 81 3e
       0.19129336 0.2378195 0.27549663 0.2537228
0001b0 8b 05 96 3e ee 1d 6a 3e c5 cc 81 3e f9 14 49 3e
       0.29301104 0.2286298 0.2535154 0.19636907
0001c0 29 75 86 3e 28 1b 8e 3e 4f 2e 88 3e 2d 4e 4f 3e
       0.2626126 0.27755094 0.2659783 0.20244665
0001d0 7c c0 83 3e 17 0c 6f 3e 40 db 9d 3e 47 0b 86 3e
       0.2573279 0.23344456 0.30831337 0.2618048

in/kernel/transpose f4 [120, 1335]
000000 43 17 8e 3d fa b4 03 3e a7 e2 11 3e 63 de e7 3d
       0.069380306 0.12862006 0.14246617 0.11321714
000010 72 f8 a4 3e 31 90 22 3e 6d ec 52 bc 15 2f 24 3e
       0.322208 0.15875317 -0.012873751 0.16033585
000020 2a d7 39 3e f1 26 c0 bd 96 49 3f 3e fc 56 48 3e
       0.18148485 -0.093824275 0.18680415 0.19564432
000030 a5 67 78 3e 34 15 02 3d d5 11 68 bc c6 dc 45 3e
       0.24258287 0.031758502 -0.014164408 0.193225
000040 6a 5c a2 bd ea 22 92 be 47 00 36 bd 46 76 29 3e
       -0.07927783 -0.28542262 -0.04443386 0.16549024
000050 29 96 17 3e ec 70 32 be 81 bc 33 bc 57 68 ca bd
       0.14803375 -0.17425889 -0.010970236 -0.098831825
000060 36 62 73 3e d0 35 40 3d d6 83 63 bd 51 be 00 be
       0.23767933 0.04692632 -0.05554565 -0.125726
000070 70 e4 18 be 01 af e1 3d 37 db 81 3d d4 98 11 3e
       -0.14930892 0.110197075 0.0634064 0.14218456
000080 aa 12 2b be ea c8 d9 bd 2f 0d 23 bc a4 e5 9b 3d
       -0.16706339 -0.106340244 -0.009951874 0.0761216
000090 eb 3f a8 bd 76 d6 bd bd 8f 70 0c 3e 73 86 1e 3d
       -0.082153164 -0.09269421 0.13714813 0.03870244
0000a0 fd 4f 80 3e 8b fb 8a bd b7 f6 25 be 7e 4d 16 3e
       0.25061026 -0.06786259 -0.16207395 0.14677998
0000b0 c6 c9 45 3e 37 fc 87 3d 45 6b 2d 3e 2d 9f 2a 3e
       0.19315252 0.06639903 0.16935451 0.16662283
0000c0 56 a3 48 be 14 ba b5 bd af 98 1b 3e 00 5c 89 3e
       -0.19593558 -0.08873382 0.15194963 0.26828003
0000d0 5c 3c 11 3e 45 2c 1c 3e cc dd d9 bc 72 4a d2 3c
       0.14183182 0.15251262 -0.026595019 0.025670264
0000e0 43 6e 04 bd e3 bc 0d 3e 7f 90 c2 3d 83 f3 ee 3d
       -0.032331716 0.13841586 0.09500217 0.1166754
0000f0 81 db ce bd d3 b4 de 3d ae 77 76 bd df 76 82 3e
       -0.10100461 0.10874333 -0.06017273 0.25481316
000100 ca bb e3 bd e4 b9 38 3e a3 99 39 3e ce 64 5b 3e
       -0.11119802 0.18039662 0.18125014 0.21425173
000110 a9 4b 27 3d 6f d2 d1 3d f9 b1 7c be d3 10 9c be
       0.04084364 0.10245215 -0.24677266 -0.30481586
000120 bb 41 3d bd 2b aa f3 bc 22 fe bc 3d 00 30 36 3e
       -0.046205264 -0.029744228 0.092281595 0.17791748
000130 0e 06 39 bd 34 b7 2f bd da cd 32 3e 67 69 2f 3e
       -0.04517179 -0.042899325 0.17461339 0.17130052
000140 11 b0 3c be 0f 83 81 bc 8b e9 64 3e 4b 37 89 3e
       -0.18426539 -0.015809564 0.22354715 0.26799998
000150 7c 29 12 be b5 8c d6 3d d4 55 d7 3d 65 d7 02 3e
       -0.14273638 0.104760565 0.10514417 0.12777479
000160 d0 ce 92 3e a8 22 98 3e a8 8b 76 3d 7a bb 1b bd
       0.2867341 0.2971394 0.06019178 -0.03802059
000170 70 f3 25 3e d9 d9 15 3e 11 73 5d 3d e8 92 9b bd
       0.16206145 0.14633884 0.054064814 -0.075963795
000180 f3 09 0f be a6 e9 ef 3d 36 08 50 3d 1b e6 08 3e
       -0.13968639 0.11714487 0.05078908 0.13369028
000190 9c c0 dd 3d 94 8e fc 3d 6a a8 3e 3e 44 2d 06 bd
       0.10827753 0.12331882 0.18618932 -0.032758012
0001a0 55 d3 8f 3d 87 4d 06 be e1 19 e5 bd a9 b3 07 be
       0.0702273 -0.13115512 -0.11186577 -0.13252129
0001b0 e0 33 48 be aa 78 6f 3d fe 41 45 be f2 06 0a 3e
       -0.19551039 0.058464684 -0.19263455 0.13479212
0001c0 83 6b 0d 3e a0 0b a2 39 32 8b 51 bc f9 d1 f4 3c
       0.13810544 0.0003090771 -0.012789534 0.029885279
0001d0 e5 07 df bc 30 53 7b 3e a0 82 4d 3e 35 73 a8 bd
       -0.027225444 0.24543452 0.2006936 -0.08225099
0001e0 68 d4 0c be 24 7a 99 bd 31 0c fa bd 00 18 40 3d
       -0.13752902 -0.074939996 -0.122093566 0.04689789
0001f0 96 91 d9 3d 6f ca 3a 3e ab 2a c2 3d 29 c8 13 3e
       0.106234714 0.18241285 0.094807945 0.14431824
000200 a4 f2 e4 bd 3a 4e 6a be 27 9e a8 bd 06 a6 7d 3e
       -0.111790925 -0.22881404 -0.0823329 0.24770364
000210 c7 9f 02 be 07 a8 06 be 97 e7 1a 3e d3 8d 79 be
       -0.12756263 -0.13150035 0.15127407 -0.24370508
000220 ef 9d 72 3d 6d eb 38 3e 14 e6 97 bd 7f ab 0c 3e
       0.05923265 0.18058558 -0.07416931 0.13737296
000230 24 3c 47 3e 71 31 8b 3c ba 6a 4c be 69 c6 d6 bd
       0.19456536 0.016991349 -0.19962588 -0.104870625
000240 28 b9 d2 bd 13 9a 73 be 18 2b 28 3e 77 b7 01 be
       -0.10289222 -0.23789243 0.16422689 -0.12667643
000250 dc ca 0d be 28 61 05 3e 9b 37 6b be 09 e3 43 3d
       -0.13846916 0.13025343 -0.2297043 0.04782394
000260 f2 96 64 be f1 4e 24 3e d3 e4 0f be 24 d1 31 3e
       -0.22323206 0.16045739 -0.14052133 0.17364937
000270 ba 75 9e 3d 7f c7 b3 3d 2f 67 c4 3d e4 c4 40 3e
       0.07737298 0.08778285 0.09589993 0.18825108
000280 66 a9 2b bd 37 e9 20 3e 9b 21 02 3e f9 f8 86 bd
       -0.041909598 0.15713964 0.12708132 -0.065904565
000290 ae 76 82 3e d4 36 13 3d 9e b4 90 3c 19 d1 57 3e
       0.2548117 0.03594096 0.01766425 0.21075858
0002a0 27 e2 ec bd 36 ce f7 3d 3d e4 6f 3e 64 d8 21 3e
       -0.11566573 0.120998785 0.2342691 0.15805203
0002b0 31 7b a6 3d db 0e f4 3d f2 7b 8d bd 85 09 05 3e
       0.08128966 0.11916896 -0.06908406 0.12991913
0002c0 06 d3 58 3e ff 98 02 3e 8f 5f 7d 3d 54 f5 2a be
       0.21174249 0.12753676 0.06185871 -0.16695148
0002d0 1a 14 84 3d f8 99 1d 3d 1e 75 e3 bd 9e eb 9e bd
       0.064491466 0.038476914 -0.11106323 -0.07759784
0002e0 0e 09 c9 bd 3c 29 6e 3e 7f 70 69 3d bc a4 c0 3d
       -0.0981618 0.23257917 0.05699205 0.094064206
0002f0 5a 68 f2 bd c1 b6 71 3e 9b 1f 06 3e 9e 8d 86 3e
       -0.1183631 0.23604871 0.13097994 0.2627992
000300 f1 44 fa 3d e5 b9 26 3e a6 87 2a 3e c7 e0 d3 3d
       0.12220181 0.1628185 0.16653308 0.10345607
000310 aa 5f d6 3d 12 5e 35 3e af 77 7c be 05 c6 1e be
       0.10467465 0.17711666 -0.2465503 -0.15505226
000320 36 3d 1d 3e b9 73 98 3d 7c 32 c4 bc 8d d4 00 bd
       0.15355381 0.07443947 -0.023949854 -0.031452704
000330 02 56 e8 bd c1 cb 10 be 68 a7 6f 3e 1c dd af 3d
       -0.1134453 -0.14140226 0.23403704 0.08587095
000340 92 76 c1 bd 9b b4 23 be c2 d4 d8 3d e0 58 14 3e
       -0.094464436 -0.15986864 0.10587455 0.14487028
000350 6d 0d 60 be 28 65 13 3e b8 da 9b 3d 88 78 c8 3d
       -0.21880122 0.14394057 0.07610077 0.097886145
000360 67 31 a2 3e ac 1b a3 3d ea c9 5a 3e b6 44 74 3e
       0.31678316 0.07964262 0.21366087 0.23854336
000370 fc 04 e4 bd 4d b6 6a 3e a8 cc 73 3e 04 90 f2 3d
       -0.11133763 0.22921105 0.23808539 0.11843875
000380 58 69 82 3e 96 53 44 3e ae eb 84 3e 64 19 2c 3d
       0.25470996 0.1917251 0.2596106 0.042016402
000390 85 df db 3d 59 10 ec bd d7 32 9e bd b7 a6 2f be
       0.10735992 -0.115265556 -0.07724541 -0.1715344
0003a0 fe c1 09 be 06 44 d8 3d ab 65 52 be 7f c1 b3 3d
       -0.13452908 0.105598494 -0.20546596 0.08777141
0003b0 64 e5 18 3e 69 28 01 be ab 36 8b bd 75 95 6c be
       0.14931256 -0.12613072 -0.067975365 -0.23103888
0003c0 e9 b7 ce bc 8a 2b 47 3e c5 98 a8 3d fa 9f 27 be
       -0.02523418 0.19450203 0.082322635 -0.1636962
0003d0 49 3e 24 3e da ad e7 3d 58 a7 1b be 34 33 3c bd
       0.16039385 0.113124564 -0.15200555 -0.04594727
0003e0 ec 82 d6 3d e3 57 8c 3e 7e 9e a7 3d 84 4a 4f 3e
       0.1047419 0.27410802 0.08184527 0.20243269
0003f0 4e d4 40 bd 0b 75 2e 3e fa 2e 4e 3e f4 06 cb bd
       -0.04707747 0.17036836 0.20135108 -0.099134356

out/MatMul_bias f4 [68]
000000 6a 2d d1 bb fa f7 cb bc 1f 19 f1 bc 67 c8 a6 bd
       -0.0063835876 -0.024898518 -0.029430924 -0.081436925
000010 d0 63 83 3c 7b f2 ae bd 60 7c dd bc 68 fc 9f bd
       0.016038805 -0.08542343 -0.027036846 -0.078118145
000020 69 8a 4f bd 4c 82 4c 3b 75 27 e4 b8 29 32 c1 bc
       -0.050669108 0.0031205593 -0.00010879237 -0.023583489
000030 b0 44 39 3c 0c fd 8f bc 4b 62 97 3c fa 44 af 3b
       0.01130788 -0.017576717 0.018479487 0.005348799
000040 e3 7c ba 3c 22 6e 48 3c c4 cc a6 bb 1d 1a 85 bd
       0.022764629 0.012233289 -0.005090328 -0.06499121
000050 2f 6f 09 bc ce 52 b2 bd e4 9e b4 bc 5e 95 17 bb
       -0.008388325 -0.087072 -0.022048421 -0.0023129801
000060 b4 cd 8b bd 4d ef 91 3b 28 ea 76 3d f9 23 be bc
       -0.06826344 0.0044535757 0.060281903 -0.023210512
000070 a5 16 c6 3b 23 80 64 bd a3 17 e9 3d 72 6f 0c 3d
       0.00604518 -0.055786263 0.113814615 0.03428597
000080 2c 28 72 3d 42 d9 ef bd 81 c2 dd 3a 16 33 68 3c
       0.059120342 -0.117113605 0.0016918929 0.014172336
000090 53 18 ed bd fc 38 0e 3d ba 1b b6 bc 82 bb 05 bb
       -0.11576905 0.034722313 -0.022230018 -0.0020405953
0000a0 e2 a0 4b 3d 52 a1 08 3e 36 e4 e5 3d a8 8d a3 3d
       0.049713977 0.13342789 0.112251684 0.07986003
0000b0 f7 23 5a bd 8e bc 58 bb 8a 92 ca bd 92 75 8c 3d
       -0.053256955 -0.0033071372 -0.09891231 0.06858362
0000c0 b2 1c 07 bd ad 56 05 bd d5 46 44 be ad 2b 85 bc
       -0.03298635 -0.032553364 -0.19167645 -0.016256178
0000d0 a0 11 3e 3d 9e ff f6 3b 35 f9 3d 3c 3e 16 09 3e
       0.046403527 0.007537796 0.01159506 0.13387391
0000e0 41 8b 9c 3d 51 db a4 3c 58 f8 15 3d 3f 53 6a bd
       0.07643748 0.02012411 0.036613792 -0.057208296
0000f0 6e 69 b8 bd e9 f0 00 3d be 2c 01 bb d8 f9 95 3c
       -0.09004484 0.03147975 -0.0019710506 0.018307611
000100 20 b0 16 bd e7 6c b8 bd 02 a0 63 bd 8a 45 c8 bd
       -0.03678906 -0.090051465 -0.055572517 -0.097788885

out/kernel/transpose f4 [68, 120]
000000 e0 d1 17 bf ad 6f 05 3e 37 e1 09 3e 9e 19 70 bf
       -0.5930462 0.13030882 0.13464819 -0.9378909
000010 d8 22 8a bf 5a 60 a8 be 88 43 83 bf 3f c1 48 bf
       -1.0791883 -0.3288601 -1.0254984 -0.7841987
000020 7f 44 97 3e 94 9d d6 be 71 1f c0 bf 2c 6a 4e bd
       0.29544446 -0.41917098 -1.5009595 -0.050394222
000030 1c c1 a8 3e fe 9e 63 3e 40 a9 43 3e 5c 75 1c 3e
       0.3295983 0.2222862 0.19107533 0.15279144
000040 c5 13 c9 3e ea 42 43 3e 25 81 56 bd d8 e0 d5 be
       0.39272895 0.19068494 -0.052369256 -0.41773105
000050 ac 5e 95 3e af 81 3a be 50 3d 91 bf 91 64 a4 3e
       0.2917379 -0.18213533 -1.1346836 0.32107976
000060 c6 b0 8a 3e 73 ec a2 3e a9 fb d1 be bc b5 93 be
       0.27087992 0.3182102 -0.41012314 -0.2884959
000070 ee 95 33 3e e5 c4 ad bf 0b ea 01 be 17 24 59 3e
       0.17537662 -1.3575712 -0.12686937 0.21205173
000080 bb 19 24 bf 20 c3 62 bf da 6e a9 bf bf 8b 4c bb
       -0.6410176 -0.8857899 -1.3236954 -0.0031211225
000090 cf cb a5 be 23 b1 32 bf 01 f5 53 bf e2 f9 53 bf
       -0.32382056 -0.6980154 -0.8279572 -0.82803166
0000a0 cc 05 4a bf cd 6f 5f 3e a6 2d a5 3e 8e f3 72 3e
       -0.78915095 0.21819992 0.3226139 0.23725721
0000b0 da 8a e0 be 19 67 11 bf 74 a8 6f 3e 08 5e 8a 3e
       -0.43855935 -0.5679794 0.23404104 0.27024865
0000c0 32 e9 9f 3e 10 9f 3c 3e 91 ef 6e be ef dc 4f bf
       0.312326 0.18420053 -0.23333575 -0.8119649
0000d0 db 42 43 bf 4e 0b 90 3c 34 7c 93 3e 05 82 34 bf
       -0.7627389 0.017583515 0.28805697 -0.70510894
0000e0 97 29 89 3e 76 86 b1 be b1 ce d0 3e 21 57 b4 3d
       0.26789543 -0.34672898 0.40782693 0.08805681
0000f0 7e be 37 3e db 46 0f bf c2 11 59 3d 20 4a 69 3e
       0.17943761 -0.5596749 0.05299545 0.22782183
000100 f8 25 11 3d 23 03 a9 3e 43 7a b1 be 19 48 22 be
       0.0354366 0.33010206 -0.3466359 -0.15847816
000110 99 c5 82 3e e5 75 6e bf 2a bb 2f be a6 32 36 3e
       0.2554138 -0.9314864 -0.17161241 0.17792758
000120 f4 63 4c be f8 72 eb be 42 9e 9b bf ca 81 04 bf
       -0.19960004 -0.45986152 -1.2157671 -0.5176054
000130 99 d2 83 3e d7 15 4b 3e 8e 5e 42 3e 30 9d 50 3e
       0.2574661 0.1983255 0.18981382 0.20372462
000140 c2 3b 99 3e cb 14 26 bf ff 5f 84 3e 15 0a 47 3e
       0.29928404 -0.6487548 0.2585449 0.1943744
000150 08 db db be c3 cf 6c bf 61 d0 5a 3e c3 e3 b0 3e
       -0.42940545 -0.9250452 0.21368553 0.34548768
000160 19 83 74 bf 09 93 59 3e b9 12 17 bf ed eb 59 3b
       -0.9551254 0.21247496 -0.59012944 0.0033252195
000170 39 97 82 bf 1c 42 b8 bd 94 ff 9f 3e ea 5a 16 bf
       -1.02024 -0.08996984 0.31249678 -0.58732474
000180 a3 4c b1 3d ff 0a dc be 38 60 77 bf e1 4e 43 be
       0.086571954 -0.4297714 -0.96631193 -0.19073059
000190 ff 03 bf be a8 23 23 3e c5 2b 37 bf 54 07 86 3c
       -0.37307736 0.1593157 -0.7155116 0.016360916
0001a0 c7 09 44 3e 8b 36 b7 3d b1 62 d7 3e 92 eb e6 3d
       0.19144355 0.0894595 0.42067483 0.112754
0001b0 61 cd c7 3e 51 18 80 bf 67 a2 6c 3e 8a f3 45 be
       0.3902388 -1.0007421 0.23108827 -0.19331184
0001c0 2f 38 8f bf 90 ba 38 bd e8 76 e6 be 61 e2 17 bf
       -1.1189021 -0.045099795 -0.45012593 -0.593298
0001d0 4f 0c 9d 3e ae 1c 81 3e 07 61 d3 3d 50 8a 01 bf
       0.30673453 0.25217193 0.10321241 -0.50601673
0001e0 bf ab 81 bd 64 c7 3c bf 7c 18 98 bc f8 8d f2 be
       -0.06331586 -0.73741746 -0.018566363 -0.4737394
0001f0 a6 4b 7b 3e 08 a0 f9 be d3 29 15 bf fc e0 47 3e
       0.24540576 -0.48754907 -0.58266944 0.19519418
000200 ab e2 19 bf 15 1c 83 3e be 06 91 be ee 45 9d be
       -0.6011149 0.25607362 -0.28325456 -0.30717415
000210 79 fa 1a bf b7 64 99 3e 32 4d 42 bf ea 4b 60 3e
       -0.6053844 0.29959652 -0.7589904 0.21903959
000220 99 64 45 3e be 31 89 bf 55 92 ef be b4 ce 36 3e
       0.19276656 -1.0718305 -0.4679133 0.17852288
000230 c6 bd 7d be 6c 19 31 3e b6 0c 1a bf 1f c6 6b bf
       -0.24779424 0.17294854 -0.60175645 -0.92099184
000240 5a 76 53 3e ee de dc be 34 35 2a bf 30 49 39 bf
       0.20650616 -0.43138832 -0.6648743 -0.723773
000250 69 6e 97 3e ca 67 9b bd 24 45 59 3e 6a 12 26 3e
       0.29576424 -0.075881556 0.21217781 0.16217962
000260 8b f1 70 bf 18 06 63 3e 2c 73 6c be 02 08 a3 3e
       -0.94118565 0.22170293 -0.2309081 0.31842047
000270 aa 39 8f bf 27 ad ed be 6b eb 92 3e f6 3c 43 3e
       -1.1189473 -0.46421167 0.28695235 0.19066224
000280 3d 78 ba 3e 2f b4 31 bf a1 e5 94 3e 99 09 6a 3e
       0.3641986 -0.69415563 0.29081443 0.22855224
000290 14 63 0b bf 0d 22 91 3e 29 3a 25 bf 27 8c 48 bf
       -0.54448056 0.2834629 -0.6454187 -0.78338856
0002a0 51 e8 e1 be ba 70 c0 3e b1 65 50 bf 3d d6 3f bf
       -0.44122556 0.37586004 -0.8140517 -0.74936277
0002b0 36 50 23 bf ef b5 32 3e 43 b7 e5 3d 63 87 8a 3e
       -0.6379427 0.17452215 0.11216595 0.27056417
0002c0 90 98 a7 be 4a 19 06 3e 13 e5 74 3e 97 81 e7 be
       -0.32733583 0.13095585 0.2391551 -0.45216057
0002d0 2c 48 85 3d 90 54 98 3e ad 15 6b bf 70 d6 13 bf
       0.06507906 0.29752016 -0.9182995 -0.5774908
0002e0 39 cc 12 3e b2 e3 10 bf cc 82 17 3e e7 5f 72 3e
       0.14335717 -0.56597435 0.14795989 0.23669396
0002f0 a0 87 81 3e 88 b8 49 3e 5f 71 da be b1 ce a8 3e
       0.25298786 0.196993 -0.4266462 0.32970193
000300 dd fa 47 3e 48 e2 0f bf 0a a6 5f 3e 00 80 8f be
       0.1952929 -0.5620465 0.21840683 -0.28027344
000310 a7 89 9f bf e9 c7 be 3e 1a d6 6d 3e fe 86 2a 3e
       -1.2463883 0.37261894 0.23226205 0.16653058
000320 0d e1 22 be 7b 82 53 3e df 8c 79 3e 33 9f 13 bf
       -0.15906163 0.20655243 0.24370144 -0.57664794
000330 0b d0 03 bf a9 5c 1a bf f5 96 2f 3e a8 1b 58 3e
       -0.51489323 -0.6029764 0.1714743 0.211043
000340 8e a2 ed be cf 4c ca be 3d a1 ab 3e b6 75 30 bf
       -0.46413082 -0.39511725 0.33521453 -0.6892961
000350 98 32 0e bf a1 62 2a bf d9 a1 58 3e 4c ca 94 bf
       -0.5554595 -0.66556746 0.2115549 -1.1624236
000360 f4 79 71 3e 80 9e 68 bf 0d 6a 0b 3e 40 3c 3d bf
       0.23581678 -0.9086685 0.13614674 -0.7392006
000370 aa f9 24 bf fb c6 7c 3e 33 ea bd 3e ef 99 27 bf
       -0.6444346 0.2468528 0.37092742 -0.6546926
000380 c2 44 8a 3e 8d ed ff be f9 ab 38 bf 69 3c 52 3e
       0.27005583 -0.49985924 -0.7213741 0.20530857
000390 04 a9 80 bf 2c b9 ac be 69 b4 c7 bd 7d cd 9b 3e
       -1.005158 -0.33735025 -0.097512074 0.30430213
0003a0 1b fb 0f bf e9 a6 ae be db 84 cd be 8d ed 2e bf
       -0.5624253 -0.34111717 -0.40140423 -0.68331224
0003b0 14 fd c1 3e 80 76 38 3e 02 64 6c bf 9d 21 36 bf
       0.37888396 0.18013954 -0.923401 -0.7114504
0003c0 4a ea a3 3e a0 8a 89 bf e5 c0 1c 3e 30 37 81 bf
       0.32014686 -1.074543 0.15307958 -1.0094967
0003d0 4e 4c 60 3e cc a5 8e 3e 9e d4 62 bf 8f 51 73 3e
       0.21904108 0.27860868 -0.8860568 0.23761581
0003e0 50 5e c0 3e 46 02 4a 3d 98 66 98 3e f0 08 0f bf
       0.37571955 0.049318574 0.29765773 -0.5587301
0003f0 5d af 06 bf 2a ea 52 bf ac 61 02 3e 7b 62 84 3e
       -0.52611333 -0.82388556 0.12732571 0.25856385
