bots/en/Soviet films.chatbot/converted_model.tflite (tflite, 926848 bytes, 4 tensors)

in/MatMul_bias f4 [200]
0	0x3e743837	0.2384957
1	0x3dc706f7	0.09718125
2	0x3ded632b	0.115911804
3	0x3e5f58ea	0.21811262
4	0x3e2e8162	0.17041543
5	0x3e814324	0.25246537
6	0x3df0d1c3	0.11758759
7	0x3df59a54	0.119923264
8	0x3e44ea72	0.19230059
9	0x3e7e45bf	0.24831294
10	0x3e6c4cf5	0.23076232
11	0x3e3b5a0e	0.18296072
12	0x3e09fd23	0.1347547
13	0x3e4ac5d1	0.19802023
14	0x3e60e18d	0.21961041
15	0x3e714d06	0.23564538
16	0x3e4f7829	0.20260681
17	0x3dd07306	0.10178189
18	0x3e5ed661	0.21761467
19	0x3e2cb24c	0.1686489
20	0x3e261835	0.16220172
21	0x3e276564	0.16347271
22	0x3e380b1a	0.17972985
23	0x3e281e11	0.1641772
24	0x3e2e6d0f	0.1703379
25	0x3da5d157	0.08096569
26	0x3e921a26	0.28535575
27	0x3e13579d	0.1438889
28	0x3e8e24ff	0.277626
29	0x3da7acbf	0.081872456
30	0x3e520564	0.20509869
31	0x3e3beed4	0.18352824
32	0x3e8474d6	0.2587039
33	0x3e744a4d	0.23856468
34	0x3d2a7d7b	0.041623574
35	0x3e4de151	0.20105483
36	0x3e4740a6	0.19458255
37	0x3e1e3e06	0.15453348
38	0x3e42f432	0.19038466
39	0x3e64313f	0.22284411
40	0x3e31df4d	0.17370339
41	0x3e1b381a	0.1515812
42	0x3e37056e	0.17873165
43	0x3ea01db4	0.31272662
44	0x3e062967	0.13101731
45	0x3dd50712	0.10401739
46	0x3e2b3be1	0.1672206
47	0x3e4ac7cd	0.1980278
48	0x3e804621	0.25053504
49	0x3dc6acb5	0.0970091
50	0x3e41f063	0.18939357
51	0x3e245a29	0.16050018
52	0x3d95b3d7	0.07309692
53	0x3e62493e	0.22098252
54	0x3e65b7dd	0.2243342
55	0x3dff3c2f	0.12462651
56	0x3e5955be	0.21224114
57	0x3e781fa1	0.24230815
58	0x3dded0cc	0.108796686
59	0x3e829030	0.2550063
60	0x3e898b8d	0.2686428
61	0x3e3d2f10	0.18474984
62	0x3e9a81ea	0.30177242
63	0x3dfe8b40	0.124289036
64	0x3df3b77f	0.119002335
65	0x3e5f3604	0.21797949
66	0x3e828fb8	0.25500274
67	0x3e2a26e8	0.16616404
68	0x3e21c362	0.15797189
69	0x3e3afe2e	0.18261024
70	0x3e6df22a	0.2323691
71	0x3e5ae9a2	0.21378186
72	0x3e56f908	0.20993435
73	0x3e456a10	0.19278741
74	0x3e1ae3bf	0.1512594
75	0x3e0bddf9	0.13658895
76	0x3e36ac15	0.17839082
77	0x3e73cc9e	0.23808524
78	0x3e575361	0.210279
79	0x3e3908ff	0.18069838
80	0x3e49633f	0.19666766
81	0x3e211101	0.15729143
82	0x3e863e6b	0.26219496
83	0x3e39afda	0.18133488
84	0x3de6f7f2	0.112777606
85	0x3d674c03	0.056468975
86	0x3e36f872	0.17868212
87	0x3e8a1a8f	0.26973388
88	0x3e4b3f1a	0.1984829
89	0x3e0dfda8	0.13866293
90	0x3e682912	0.22671917
91	0x3e18b050	0.14911008
92	0x3e4c89f1	0.19974495
93	0x3e04c4eb	0.12965743
94	0x3e7aa1e5	0.2447582
95	0x3e88b65e	0.26701635
96	0x3e68c226	0.22730312
97	0x3e4ec8b0	0.20193744
98	0x3e458c18	0.19291723
99	0x3e3af1c9	0.18256296
100	0x3e80d304	0.25160992
101	0x3dae8572	0.085215464
102	0x3e9006a9	0.2813008
103	0x3dbaaa54	0.09114519
104	0x3e82a4c7	0.2551634
105	0x3e242c1d	0.16032453
106	0x3e9223e2	0.28543
107	0x3e907538	0.2821443
108	0x3e66ad50	0.22527051
109	0x3e6037d4	0.21896297
110	0x3e81ec68	0.25375676
111	0x3e70371c	0.23458523
112	0x3e7927a6	0.24331531
113	0x3e35d152	0.1775563
114	0x3e6fc368	0.23414385
115	0x3decf8bd	0.115708806
116	0x3e6125b1	0.21987034
117	0x3e922708	0.28545403
118	0x3e666ddd	0.22502847
119	0x3e30be7e	0.17260167
120	0x3e217386	0.15766725
121	0x3e7895b8	0.24275863
122	0x3e99c5c5	0.300337
123	0x3dbb1839	0.091354795
124	0x3e97adef	0.29624888
125	0x3e1dd0f5	0.15411742
126	0x3d72e88b	0.0593038
127	0x3e9b0c54	0.30282843
128	0x3e839dd1	0.25706342
129	0x3e15c821	0.14627124
130	0x3e4f7c58	0.20262277
131	0x3e831ea4	0.25609314
132	0x3e9c7845	0.30560508
133	0x3e5b2b7f	0.21403311
134	0x3e0982ca	0.13428798
135	0x3e8a8ac8	0.27059007
136	0x3e4319dd	0.19052835
137	0x3e595e68	0.2122742
138	0x3e5ca62c	0.21547765
139	0x3db6f532	0.08933486
140	0x3e92645f	0.28592202
141	0x3e275f61	0.16344978
142	0x3e853d3f	0.2602329
143	0x3d923ccd	0.07140503
144	0x3e6cea2e	0.23136207
145	0x3e7c2a91	0.24625613
146	0x3e396454	0.18104678
147	0x3e8ea8dc	0.27863204
148	0x3ddbf2c5	0.10739664
149	0x3e470caf	0.19438432
150	0x3e5cd958	0.21567285
151	0x3e327d50	0.17430615
152	0x3e8538f9	0.2602003
153	0x3e8026ef	0.25029704
154	0x3e1735ad	0.1476657
155	0x3e869cad	0.2629141
156	0x3e651855	0.22372563
157	0x3dc06d83	0.09395888
158	0x3e1d3e3d	0.15355773
159	0x3db23b28	0.087026894
160	0x3e32074d	0.17385598
161	0x3e1f1576	0.1553553
162	0x3e82261a	0.25419694
163	0x3e36a028	0.17834532
164	0x3e63f650	0.2226193
165	0x3e444f06	0.1917077
166	0x3de46ff2	0.111541644
167	0x3e6fd22c	0.23420018
168	0x3e0aeaf1	0.13566186
169	0x3e532333	0.20618896
170	0x3e5623e2	0.20912126
171	0x3e61ae7b	0.22039215
172	0x3e411cda	0.18858662
173	0x3e706b39	0.23478402
174	0x3e3d914a	0.18512455
175	0x3e470918	0.19437063
176	0x3e2f402d	0.17114325
177	0x3e1faf26	0.15594158
178	0x3ddf47ac	0.10902342
179	0x3e480e06	0.195366
180	0x3e871a2b	0.26387152
181	0x3e449e5c	0.19201034
182	0x3e506ae7	0.2035328
183	0x3dbfe361	0.09369541
184	0x3e8500c4	0.25977147
185	0x3e848992	0.25886208
186	0x3e088817	0.13333164
187	0x3e04f144	0.1298266
188	0x3e8df3d1	0.2772508
189	0x3e291543	0.16512017
190	0x3e590a96	0.21195444
191	0x3e9371d3	0.28797778
192	0x3e5dac5f	0.21647786
193	0x3e869d57	0.26291916
194	0x3e83e89b	0.257634
195	0x3e0a9b18	0.13535726
196	0x3e8ff28a	0.2811473
197	0x3eb062d8	0.34450412
198	0x3e2ebac0	0.17063427
199	0x3dbe14b1	0.0928129

in/kernel/transpose f4 [200, 1106]
0	0x3de3a038	0.11114544
1	0x3c2ff179	0.010738724
2	0xbc8ec4da	-0.01742785
3	0x3dbbed61	0.09176136
4	0xb967971b	-0.00022086168
5	0x3d83b4ae	0.06430946
6	0x3d8ed487	0.0697413
7	0x3df2f122	0.11862399
8	0x3dcbc85f	0.09950327
9	0x3dfb2c90	0.12264359
10	0x3c78a5de	0.015176265
11	0x3d0f78be	0.035027258
12	0xbc0de137	-0.008659652
13	0xbe207eaf	-0.15673326
14	0x3e000a10	0.12503839
15	0x3de42af5	0.11141006
16	0x3e06ac49	0.13151659
17	0x3dc4dc4c	0.09612331
18	0x3e621afd	0.22080608
19	0x3dd8fd2b	0.10595163
20	0x3de2cb16	0.11073892
21	0xbdcf8bfa	-0.1013412
22	0x3dc61bd0	0.096732736
23	0x3dfe816c	0.12427029
24	0x3dc30046	0.095215365
25	0xbda8ba46	-0.08238654
26	0x3de1c153	0.11023202
27	0x3de5a3f8	0.11212915
28	0xbe57f2e8	-0.21088755
29	0x3d8d2954	0.06892648
30	0xbc0133f5	-0.007885923
31	0x3e0f01ef	0.13965581
32	0x3e1d8f4b	0.15386693
33	0xbc48a256	-0.012245735
34	0x3d9d74bf	0.07688283
35	0x3e083313	0.13300733
36	0xbcbfb67c	-0.023402445
37	0xbbac2926	-0.0052539287
38	0x3df8fba5	0.121573724
39	0x3e04f7de	0.12985179
40	0xbe01b869	-0.12668003
41	0x3da0a180	0.07843304
42	0x3e0a037d	0.13477893
43	0xbe0e407f	-0.13891791
44	0xbd4e7ef4	-0.05041404
45	0xbc4a1572	-0.0123342145
46	0x3dac2d66	0.084070966
47	0xbd3ab221	-0.045580033
48	0x3dd39821	0.10331751
49	0x3e2fd9ec	0.17172974
50	0xbbabac0f	-0.005239017
51	0xbe33cb56	-0.17558035
52	0xbe4de733	-0.20107727
53	0xbdc8dc91	-0.09807695
54	0xbcf8b230	-0.030358404
55	0xbd419fdc	-0.047271594
56	0x399a0110	0.0002937396
57	0x3dc49a0e	0.09599696
58	0x3df5cfbe	0.12002514
59	0xbdbb66b1	-0.09150446
60	0xbdc0fa5a	-0.09422751
61	0x3de01b13	0.10942664
62	0x3d05055e	0.03247582
63	0x3df8c4f4	0.12146941
64	0x3e51e3f8	0.2049712
65	0xbd016f30	-0.031600177
66	0xbc0b0e84	-0.0084873475
67	0xbe5c35d2	-0.21504906
68	0x3d8aa724	0.06770161
69	0x3e1acbb6	0.15116772
70	0x3d8bfd6d	0.068354465
71	0x3dc88c85	0.09792427
72	0xbdd18b0f	-0.102316014
73	0xbe619c5c	-0.22032303
74	0xbd216885	-0.03940632
75	0xbd8b0936	-0.06788866
76	0x3c44f31b	0.0120208515
77	0xbd816133	-0.063173674
78	0x3e0605c5	0.13088138
79	0x3e067aed	0.1313283
80	0xbd1e40ad	-0.0386359
81	0x3e115be5	0.14195211
82	0x3d8200bb	0.063477956
83	0xbdfe59c9	-0.12419469
84	0x3da181d2	0.078860894
85	0xbd1c5707	-0.038168933
86	0xbd030d3a	-0.031995036
87	0xbd8d60e2	-0.069032446
88	0x3d54fd60	0.05199945
89	0xbe572fea	-0.21014372
90	0xbe142d3b	-0.14470379
91	0xbd2a2b75	-0.04154535
92	0xbe1eeab9	-0.15519227
93	0x3d615475	0.055012185
94	0xbd975fc1	-0.073913105
95	0x3bd211fb	0.006410835
96	0xbd7ddf1e	-0.06198036
97	0x3e0ce802	0.13760379
98	0x3d26578e	0.040610842
99	0x3c32649f	0.010888248
100	0x3e18460c	0.14870471
101	0x3db0b3a2	0.08628012
102	0x3e75a848	0.23989975
103	0x3e037720	0.12838411
104	0x3e0fe4b7	0.14052092
105	0xbe122caa	-0.1427485
106	0xbda6cd85	-0.081446685
107	0x3e38cf2a	0.18047777
108	0x3df38fc8	0.118926585
109	0x3dada439	0.084785886
110	0xbd7e8902	-0.06214238
111	0x3ccb9078	0.024849162
112	0x3df99464	0.121865064
113	0x3d9318ff	0.07182502
114	0x3dd44e63	0.103665136
115	0x3e267287	0.16254626
116	0x3d922a13	0.07136931
117	0x3d3a8584	0.045537487
118	0xbd5dfee7	-0.054198172
119	0x3dd04a1b	0.101703845
120	0x3e3ea407	0.18617259
121	0x3c7a0dae	0.015262051
122	0xbdc37cc3	-0.09545281
123	0x3dc52e14	0.09627929
124	0xbe10ad91	-0.1412871
125	0xbdf2867a	-0.118420556
126	0x3e36bc10	0.17845178
127	0xbd339228	-0.043840557
128	0x3d26e8e5	0.04074945
129	0x3de089a3	0.10963752
130	0x3d5eddc1	0.0544107
131	0xbd4dceb5	-0.05024596
132	0xbce4477f	-0.027866123
133	0xbdf44561	-0.119272955
134	0xbdcc8246	-0.09985785
135	0xbdc0962c	-0.09403643
136	0xbe46f0b4	-0.19427758
137	0x3b089ee3	0.0020846657
138	0x3dd98038	0.10620159
139	0x3e1f5a2d	0.15561743
140	0xbe0140f2	-0.12622431
141	0xbe2651d1	-0.16242148
142	0xbde7fd04	-0.11327556
143	0xbd152286	-0.036409877
144	0xbcd9c098	-0.026581094
145	0xbd926512	-0.07148184
146	0xbdc30f47	-0.09524398
147	0xbd86328b	-0.06552609
148	0xbd095a9e	-0.033533685
149	0xbca6cc11	-0.020360978
150	0xbcba3fd3	-0.022735512
151	0xbdb569ea	-0.08858092
152	0x3dcb0378	0.09912771
153	0x3e071a4a	0.13193622
154	0x3e3c71fa	0.18402854
155	0xbe06f38b	-0.13178842
156	0xbe03be5b	-0.12865584
157	0x3b87aab0	0.0041402206
158	0x3d4285d5	0.047490913
159	0xbd990371	-0.074713595
160	0xbdff84cb	-0.124765
161	0xbd722f23	-0.059126984
162	0x3e4f1081	0.2022114
163	0x3dab23d6	0.083564445
164	0xbe0764c5	-0.13222034
165	0xbcb9f839	-0.02270137
166	0x3e52f09e	0.205996
167	0xbdb95c7a	-0.09050842
168	0x3dada95f	0.084795706
169	0x3de48c56	0.111595795
170	0x3d148f2e	0.03626936
171	0xbc8c103f	-0.01709759
172	0xbdd6856b	-0.10474666
173	0x3dee3f10	0.11633122
174	0x3d792cab	0.060833614
175	0x3e70d697	0.2351936
176	0xbd04d6f5	-0.03243156
177	0x3d0ba588	0.03409341
178	0xbbdc830f	-0.0067294906
179	0xbe7aa28f	-0.24476074
180	0xbd4555a0	-0.04817736
181	0xbd29ef58	-0.04148802
182	0xbd88f607	-0.06687551
183	0xbdf32f4f	-0.11874258
184	0xbd86c7e7	-0.06581097
185	0x3c8f2b04	0.017476566
186	0x3de8fcf3	0.11376371
187	0x3e3879f8	0.18015277
188	0xbc30f1d2	-0.010799842
189	0x3d7050dd	0.058670867
190	0xbd42150c	-0.047383353
191	0x3e07dd22	0.13267949
192	0xbd0c6a6c	-0.03428118
193	0xbc142ace	-0.009043409
194	0xbd63ebb8	-0.05564472
195	0xbce65521	-0.028116765
196	0xbdcfd437	-0.10147899
197	0xbd0843b0	-0.033267677
198	0xbcbfe2a7	-0.023423506
199	0xbd9f16f7	-0.07768052
200	0x3d7860a5	0.060639042
201	0xbd126d05	-0.0357485
202	0x3e1299b2	0.14316443
203	0xbe279393	-0.16364889
204	0x3d3bc8cc	0.04584579
205	0xbd8ef17a	-0.06979652
206	0x3e829c6b	0.25509962
207	0x3e3fa3d0	0.18714833
208	0xbe216913	-0.15762739
209	0x3e16d3b3	0.14729194
210	0xbdd7d901	-0.10539437
211	0xbc73d668	-0.014882661
212	0x3ddc2c24	0.10750607
213	0xbe0e9347	-0.1392337
214	0xbe0c0e7a	-0.13677397
215	0xbe4d2f7e	-0.20037648
216	0xbd2097e0	-0.03920734
217	0x3d7436a2	0.059622414
218	0x3e081d54	0.13292438
219	0xbe2f0727	-0.17092572
220	0xbe0eb67b	-0.13936798
221	0xbd9f03f4	-0.07764426
222	0xbbe105b1	-0.0068671335
223	0x3dd802b9	0.10547394
224	0x3d0d1611	0.034444872
225	0xbe107e88	-0.14110768
226	0xbe2666ec	-0.16250199
227	0x3dee4d3c	0.11635825
228	0xbdcf27d1	-0.10115016
229	0xbd9edf12	-0.07757391
230	0xbdbdae90	-0.09261811
231	0x3e2f94ee	0.17146656
232	0xbe1d9dce	-0.15392229
233	0xbb646e05	-0.0034855616
234	0x3e04c576	0.1296595
235	0x3d8ab939	0.0677361
236	0x3cb967ac	0.022632442
237	0xbced50ac	-0.028969131
238	0x3dad91d2	0.08475079
239	0x3c97209c	0.018448167
240	0x3e135b1d	0.14390226
241	0x3d9fe236	0.07806818
242	0x3dafe123	0.08587863
243	0x3e089c36	0.1334084
244	0xbe2d976d	-0.16952296
245	0x3db15a36	0.086597845
246	0x3debcc27	0.11513548
247	0x3d8c868e	0.06861602
248	0x3dc02f3c	0.09384009
249	0x3e3d825f	0.18506764
250	0xbcf771fa	-0.030205715
251	0xbcb03694	-0.0215104
252	0x3e0d44db	0.13795798
253	0x3e272ae9	0.16324963
254	0x3e265d86	0.16246614
255	0x3dd601e8	0.10449582

out/MatMul_bias f4 [50]
0	0xba0356b5	-0.0005010174
1	0xbd45dfc9	-0.04830912
2	0xbd297fd2	-0.041381665
3	0xbc5e5938	-0.013571076
4	0x3cbb73a0	0.022882283
5	0x38d7c692	0.000102889855
6	0xbc7bc83a	-0.015367562
7	0xbd63cbd8	-0.055614322
8	0xbd5e1a5e	-0.054224364
9	0x3d71d69f	0.05904257
10	0xbd47d882	-0.048790462
11	0xbca065e1	-0.01957983
12	0x3d1c72c3	0.038195383
13	0xbd3d0d39	-0.04615519
14	0x3bc9c2ee	0.0061572706
15	0xbce4d24f	-0.027932314
16	0xbc8f31b3	-0.017479753
17	0xbc5fa776	-0.013650766
18	0xbb58a84e	-0.0033059302
19	0xbbd570d4	-0.0065136943
20	0xbc369baf	-0.011145516
21	0x3cefcfc1	0.02927387
22	0xbb54fa22	-0.0032497724
23	0x3b8a057a	0.0042120786
24	0xbc978532	-0.01849613
25	0xbc18748b	-0.00930513
26	0x3ba30f3f	0.0049761827
27	0x3bbc2ea0	0.005742863
28	0xbd2e99d7	-0.04262718
29	0xbd084998	-0.03327331
30	0xbd5cbfb8	-0.053893775
31	0xbd5f9c4c	-0.054592416
32	0x3d765a3f	0.06014466
33	0xbcb31616	-0.021861117
34	0xbd62b60b	-0.05534939
35	0xbc9087af	-0.017642824
36	0xbc6ae9b4	-0.014337946
37	0xbcf02727	-0.029315544
38	0xbd9d896f	-0.07692229
39	0xbd69732a	-0.056994595
40	0x3d2fd19a	0.0429245
41	0xbc022b62	-0.007944914
42	0x3c3250a0	0.01088348
43	0xbcc45575	-0.02396653
44	0x3c985828	0.018596724
45	0x3d6e5db9	0.05819485
46	0x3e00334d	0.1251957
47	0xbd06a8d7	-0.032875862
48	0x3c8993a4	0.016794033
49	0xbca9915f	-0.020699201

out/kernel/transpose f4 [50, 200]
0	0xbeef2623	-0.46708784
1	0x3de3d757	0.11125057
2	0xbdac477f	-0.08412074
3	0xbf46c521	-0.77644545
4	0x3dd46969	0.10371668
5	0xbebefa37	-0.37300274
6	0xbe0fb744	-0.14034754
7	0x3dfab3c6	0.1224132
8	0xbe4a31d2	-0.19745567
9	0x3e41d394	0.18928367
10	0xbf077bfc	-0.5292356
11	0xbd05b5a1	-0.032643918
12	0x3e8a6dff	0.27037045
13	0xbe509a51	-0.20371367
14	0xbd179a4f	-0.037012395
15	0x3e7c7b13	0.24656324
16	0xbeb0c61c	-0.34526145
17	0xbe0532e9	-0.13007702
18	0xbe49a9b2	-0.1969364
19	0x3dfd310b	0.1236287
20	0xbf30b756	-0.6902975
21	0xbf1e9090	-0.61939335
22	0xbe86dc87	-0.26340124
23	0xbeaff1c7	-0.3436415
24	0x3d661882	0.056175716
25	0x3e696705	0.22793205
26	0x3e1b2096	0.1514915
27	0x3ea87b4c	0.32906568
28	0x3da66aa8	0.08125812
29	0x3de53cdf	0.11193251
30	0x3ddf6dbc	0.10909602
31	0xbe9c7246	-0.30555934
32	0xbe442294	-0.19153816
33	0xbea5fbe2	-0.32418734
34	0xbe8ea330	-0.27858877
35	0xbd6e9770	-0.05824989
36	0xbddf7a2d	-0.10911975
37	0xbee01773	-0.4376789
38	0x3e805276	0.25062913
39	0xbbcfd6da	-0.006342751
40	0x3e5ae255	0.21375401
41	0xbe7f1b7d	-0.2491283
42	0xbe05d64d	-0.1307003
43	0xbedc40f0	-0.43018293
44	0x3ce7159a	0.028208543
45	0xbf5a689d	-0.8531588
46	0xbede3072	-0.43396336
47	0x3e463228	0.1935507
48	0x3e41e4a2	0.18934873
49	0xbd04ddf0	-0.03243822
50	0xbed3de1c	-0.41380394
51	0x3e20fa78	0.15720546
52	0x3e1e6f60	0.15472174
53	0xbda8abf6	-0.08235924
54	0xbed67bd4	-0.41891348
55	0x3def12d2	0.116735116
56	0x3dd17c1a	0.102287486
57	0x3e8ce83c	0.2752093
58	0xbe98fc7d	-0.29880133
59	0xbf4c900a	-0.79907286
60	0x3e29d075	0.16583426
61	0x3e367887	0.17819415
62	0x3e889208	0.26673913
63	0xbe74d8d1	-0.23910834
64	0xbedeaa05	-0.4348909
65	0xbef80355	-0.48440042
66	0xbe153bb3	-0.14573555
67	0xbf45c0b1	-0.7724715
68	0xbf5d6bf9	-0.8649288
69	0xbf0a5009	-0.54028374
70	0x3e3a6787	0.18203555
71	0xbec53a90	-0.38521242
72	0x3e586457	0.21132027
73	0xbe3dd695	-0.18538888
74	0x3e30c684	0.17263228
75	0xbe2ab50c	-0.16670626
76	0x3e1b23f2	0.15150431
77	0xbec28de8	-0.3799889
78	0x3e5afe93	0.21386175
79	0x3d723a42	0.05913759
80	0xbe05fbc4	-0.13084322
81	0x3e76647d	0.2406177
82	0xbee1737e	-0.44033426
83	0xbed0cf3d	-0.4078311
84	0xbe4a45d5	-0.19753201
85	0xbeaac71d	-0.33355036
86	0xbdfb9474	-0.122841746
87	0xbe63a4c2	-0.22230819
88	0xbe76161f	-0.24031876
89	0xbeba3c01	-0.36373904
90	0x3e884a52	0.26619202
91	0x3e301621	0.17195942
92	0x3e24b57a	0.16084853
93	0xbea9a0bb	-0.3313044
94	0x3e8ac2a7	0.27101633
95	0xbe32c27e	-0.17457005
96	0x3d0075b0	0.031362236
97	0xbed804ee	-0.4219126
98	0xbefdd45f	-0.4957609
99	0xbf2fd6d0	-0.6868715
100	0xbd26e29e	-0.040743463
101	0x3e495851	0.19662596
102	0x3de90dbb	0.11379572
103	0xbe69de5e	-0.22838733
104	0xbea9ab80	-0.33138657
105	0x3e66ce04	0.22539526
106	0xbd98f5a8	-0.0746873
107	0xbdb21281	-0.086949356
108	0xbf74cd08	-0.9562535
109	0xbe8015dc	-0.25016677
110	0x3ddbbe2a	0.1072963
111	0xbe9c0ed3	-0.3048006
112	0x3e4378ee	0.190891
113	0x3e77d9b6	0.24204144
114	0x3e69e628	0.22841704
115	0x3e0be471	0.13661362
116	0xbef0bc08	-0.47018456
117	0x3e76f3de	0.24116465
118	0x3e5f02ca	0.21778408
119	0x3e631bbe	0.22178552
120	0xbe445d4f	-0.1917622
121	0x3da5b3f9	0.08090968
122	0xbf193a16	-0.5985426
123	0xbea9bdff	-0.33152768
124	0xbf3b58ad	-0.73182184
125	0x3e05ce91	0.1306708
126	0xbf536afc	-0.8258512
127	0x3e34da8a	0.17661491
128	0x3e450146	0.19238767
129	0xbe8794a2	-0.26480585
130	0x3e3efdb0	0.18651462
131	0x3e290cbc	0.16508764
132	0xbeba5e0b	-0.36399874
133	0x3e828d9e	0.2549867
134	0x3e6527b8	0.22378433
135	0xbf4c3073	-0.7976143
136	0xbf11c082	-0.5693437
137	0xbe83bab9	-0.25728396
138	0x3e9a2f8d	0.30114403
139	0xbedb96b4	-0.42888415
140	0x3e8aa794	0.27080977
141	0x3d6edf31	0.05831832
142	0xbe47422a	-0.19458833
143	0x3e115dbf	0.14195918
144	0xbe3b8e01	-0.18315889
145	0x3e63cc86	0.22245988
146	0x3e7f951a	0.24959221
147	0xbe892e77	-0.26793262
148	0xbf0510e3	-0.5197889
149	0xbee98c02	-0.4561463
150	0x3e16b0db	0.14715903
151	0xbea7df7d	-0.32787696
152	0x3e63ac8c	0.2223379
153	0xbe7655e2	-0.24056199
154	0xbe95f262	-0.29286486
155	0xbebf9045	-0.37414756
156	0xbec2bf01	-0.3803635
157	0x3e87f45f	0.26553628
158	0xbf3d4756	-0.73936975
159	0x3dffae5d	0.12484429
160	0xbeea27f1	-0.45733598
161	0xbe6ace18	-0.22930181
162	0xbeb9b63d	-0.3627185
163	0xbe860efd	-0.2618331
164	0xbec29e63	-0.38011464
165	0x3dd5c0ab	0.10437139
166	0x3e3495a9	0.17635216
167	0x3e2f89d7	0.17142425
168	0x3db702db	0.089360915
169	0xbe818736	-0.2529847
170	0x3e189e6d	0.14904185
171	0x3e09808e	0.13427946
172	0x3e8ca655	0.2747065
173	0x3e816fff	0.2528076
174	0xbe8b2e95	-0.27183977
175	0x3e37e3eb	0.17958038
176	0xbf247508	-0.64241076
177	0xbe8a9de3	-0.27073583
178	0x3e1a87f7	0.15090929
179	0x3e0d402e	0.13794014
180	0xbf10dae2	-0.5658399
181	0x3e2edbba	0.17076007
182	0xbeece316	-0.46267003
183	0xbe861998	-0.261914
184	0xbde02d5c	-0.109461516
185	0x3ea0112b	0.31263098
186	0xbd81b879	-0.063340135
187	0xbf6205bb	-0.88289994
188	0xbf403450	-0.7507982
189	0x3e8dad92	0.27671486
190	0xbf2f2e70	-0.68430233
191	0x3e65b6ab	0.22432964
192	0xbe52b627	-0.20577298
193	0xbf0f733b	-0.560352
194	0xbf7056bf	-0.93882364
195	0xbf2756a5	-0.65366584
196	0xbe0564ef	-0.13026784
197	0xbe96f6b5	-0.29485098
198	0xbf1a370e	-0.60240257
199	0x3e5a0b80	0.2129345
200	0xbee69d90	-0.45042086
201	0xbeb2d732	-0.34929806
202	0x3e869fbd	0.26293746
203	0xbef3f920	-0.47651005
204	0xbe51cff6	-0.20489487
205	0xbf28b3cc	-0.6589935
206	0xbe228d5e	-0.1587424
207	0xbf590935	-0.84779674
208	0x3e52220f	0.20520805
209	0xbec30c6d	-0.38095418
210	0xbec070a6	-0.37585944
211	0xbef14c1d	-0.47128382
212	0x3dfba11a	0.12286587
213	0x3dfa282b	0.12214693
214	0xbe95fc8c	-0.2929424
215	0x3ce4eb60	0.027944267
216	0xbf1aa93c	-0.6041448
217	0x3e7fc930	0.2497909
218	0x3e4c6c90	0.19963288
219	0xbe8f81a9	-0.2802861
220	0x3e2e9efc	0.17052835
221	0xbe9a5466	-0.30142516
222	0xbed0e1d8	-0.40797305
223	0x3db32c26	0.08748655
224	0xbe77491d	-0.24148984
225	0x3e8e7900	0.2782669
226	0x3e4347df	0.19070385
227	0x3dba3b57	0.090933494
228	0x3e6a02dc	0.22852653
229	0x3e8c8172	0.2744251
230	0x3e56d4ea	0.20979658
231	0xbe9a5846	-0.30145472
232	0x3e881821	0.2658091
233	0xbeef86b0	-0.46782446
234	0xbe8c595c	-0.27411926
235	0x3e8cd400	0.27505493
236	0x3e6aac19	0.22917213
237	0x3d44dd99	0.048062894
238	0x3e87f7b8	0.26556182
239	0x3e3898d7	0.18027054
240	0x3e35d00a	0.17755142
241	0x3e1f83ee	0.15577671
242	0xbe38cfd4	-0.1804803
243	0xbefea7a6	-0.4973728
244	0xbed3d039	-0.413698
245	0x3e4b032f	0.19825433
246	0xbe81f4d4	-0.25382102
247	0x3e5cdd53	0.21568803
248	0x3e1b3d33	0.15160064
249	0xbeb615d0	-0.35563517
250	0xbed6fdc6	-0.4199049
251	0x3dc118c7	0.09428554
252	0xbcedbc70	-0.029020518
253	0x3e377c6b	0.17918555
254	0xbe9a747b	-0.30166993
255	0x3dad617f	0.084658615
