bots/en/Confucius.chatbot/converted_model.tflite (tflite, 838036 bytes, 4 tensors)

in/MatMul_bias f4 [200]
0.1889622 0.19577342 0.1677708 0.1583866 0.15913753 0.14879657 0.15236516 0.21691564
0.1817594 0.19069542 0.13967395 0.21418522 0.18553802 0.16647038 0.18457487 0.13875246
0.20144597 0.15092659 0.21491164 0.1798138 0.18538396 0.1573176 0.18489479 0.14295635
0.17189051 0.17453893 0.19871736 0.21137388 0.19001229 0.17879902 0.18703146 0.16111106
0.18882447 0.17792808 0.16752945 0.2211661 0.14764804 0.1741791 0.16897552 0.18634139
0.1715357 0.15725666 0.1520488 0.22562589 0.1604943 0.17671303 0.14628379 0.18825693
0.119366415 0.13193566 0.15990792 0.1269228 0.20314015 0.12494302 0.1585203 0.20490377
0.15709496 0.13949817 0.21975788 0.17319496 0.16631003 0.16859284 0.21991184 0.13405572
0.15027216 0.15053111 0.20246123 0.15839645 0.22094002 0.15830989 0.1660192 0.16369355
0.15785608 0.21155222 0.18453951 0.19007379 0.1871279 0.1525754 0.1839324 0.20183054
0.20477699 0.17675966 0.23849243 0.14096592 0.1733181 0.18247949 0.22833201 0.17904341
0.167993 0.18406965 0.17240109 0.19654347 0.23203972 0.16404605 0.1822783 0.16628106
0.14844197 0.15434693 0.2323515 0.27438524 0.16106988 0.14226824 0.18436007 0.18480407
0.19344379 0.1746076 0.15038648 0.18037769 0.17628835 0.19117229 0.1783527 0.16346982
0.14919297 0.15792072 0.17870626 0.2155276 0.19771577 0.17139101 0.19447066 0.17588833
0.18364863 0.18152651 0.15678738 0.14677727 0.23660491 0.16886714 0.1848862 0.18906505
0.1950916 0.10448804 0.1439535 0.14120957 0.15746598 0.16177258 0.15777647 0.18642691
0.15363365 0.23219079 0.18027344 0.18713135 0.11264365 0.15259966 0.15713526 0.12447108
0.16397347 0.21347488 0.16899368 0.18889748 0.20344521 0.12424935 0.17936487 0.14875424
0.13879345 0.23291577 0.12644883 0.12535122 0.18826634 0.14058316 0.2329356 0.1816883
0.14972605 0.15752947 0.14667244 0.25307754 0.17589414 0.18977726 0.12995294 0.1356578
0.18071623 0.21622461 0.13979965 0.1825331 0.18211062 0.1938617 0.15576905 0.17072393
0.20883273 0.20178762 0.23238249 0.17335713 0.19774456 0.18254846 0.15910797 0.17621931
0.14065698 0.18258682 0.22097388 0.19954997 0.18883374 0.16818011 0.15992069 0.1814063
0.19213413 0.17475107 0.18450886 0.22466616 0.2177091 0.15192866 0.190885 0.14502533
00000000: 4f7f 413e d478 483e 1ccc 2b3e 1930 223e
00000010: f3f4 223e 215e 183e 9d05 1c3e 221f 5e3e
00000020: 231f 3a3e a945 433e b006 0f3e 5f53 5b3e
00000030: aefd 3d3e 3677 2a3e 3201 3d3e 2015 0e3e
00000040: da47 4e3e 808c 1a3e cc11 5c3e 1c21 383e
00000050: 4bd5 3d3e dd17 213e 0f55 3d3e 2663 123e
00000060: 1104 303e 55ba 323e 907c 4b3e 6572 583e
00000070: 9592 423e 1717 373e 2d85 3f3e 4cfa 243e
00000080: 345b 413e c732 363e d78c 2b3e 5e79 623e
00000090: 0c31 173e 025c 323e eb07 2d3e 47d0 3e3e
000000a0: 0ea7 2f3e e407 213e aeb2 1b3e 790a 673e
000000b0: 9e58 243e 43f4 343e 6bcb 153e 6dc6 403e
000000c0: 6176 f43d 241a 073e e7be 233e 0df8 013e
000000d0: f903 503e 20e2 ff3d 2553 223e 4bd2 513e
000000e0: 80dd 203e 9cd8 0e3e 3608 613e 055a 313e
000000f0: 2d4d 2a3e 9aa3 2c3e 9230 613e e745 093e
00000100: f2e0 193e d424 1a3e ff51 4f3e ae32 223e
00000110: 1a3e 623e fd1b 223e f000 2a3e 489f 273e
00000120: 06a5 213e 25a1 583e edf7 3c3e b4a2 423e
00000130: 759e 3f3e ba3c 1c3e c658 3c3e aaac 4e3e
00000140: 0fb1 513e 7c00 353e 5c37 743e 5f59 103e
00000150: 4d7a 313e e7db 3a3e decf 693e 2857 373e
00000160: 5b06 2c3e c17c 3c3e e989 303e b142 493e
00000170: d29b 6d3e b0fb 273e 2aa7 3a3e 9545 2a3e
00000180: 2c01 183e 1f0d 1e3e 8ded 6d3e 397c 8c3e
00000190: 81ef 243e c4ae 113e e3c8 3c3e 473d 3d3e
000001a0: 2116 463e 56cc 323e eafe 193e eeb4 383e
000001b0: ef84 343e abc2 433e 17a2 363e a264 273e
000001c0: 0bc6 183e f8b5 213e c6fe 363e 44b3 5c3e
000001d0: 0176 4a3e 2081 2f3e 5123 473e 121c 343e
000001e0: 630e 3c3e 16e2 393e df8c 203e c84c 163e
000001f0: 8f48 723e 82eb 2c3e cf52 3d3e 459a 413e
00000200: 18c6 473e d3fd d53d 8c68 133e 3e99 103e
00000210: c33e 213e b6a7 253e 2890 213e b2e6 3e3e
00000220: 2452 1d3e 6cc3 6d3e 9a99 383e 5c9f 3f3e
00000230: b7b1 e63d 1643 1c3e 11e8 203e b2ea fe3d
00000240: a9e8 273e 2999 5a3e ae0c 2d3e 576e 413e
00000250: f153 503e 7176 fe3d 6dab 373e 0853 183e
00000260: df1f 0e3e 7981 6e3e cd7b 013e 125c 003e
00000270: e4c8 403e 08f5 0f3e ac86 6e3e 7f0c 3a3e
00000280: c951 193e 684f 213e 4d31 163e 6193 813e
00000290: 981d 343e f854 423e 6212 053e e1e9 0a3e
000002a0: ad0d 393e fc69 5d3e a427 0f3e f5e9 3a3e
000002b0: 357b 3a3e ae83 463e ec81 1f3e 41d2 2e3e
000002c0: 3fd8 553e 6aa1 4e3e adf5 6d3e 8884 313e
000002d0: 8d7d 4a3e fced 3a3e 33ed 223e d672 343e
000002e0: 6208 103e 0af8 3a3e fa46 623e d456 4c3e
000002f0: a25d 413e 6837 2c3e 40c2 233e 93c2 393e
00000300: cfbe 443e f2f1 323e e4ef 3c3e e30e 663e
00000310: 22ef 5e3e 3093 1b3e 5c77 433e 8581 143e

in/kernel/transpose f4 [200, 998]
-0.03266778 0.06955261 -0.029838078 0.11662898 0.041785374 0.1558365 0.14803945 0.03881632
0.049574085 -0.10275686 -0.118206814 -0.05510714 0.08170715 -0.09196744 -0.013449079 0.16519931
0.095899425 0.05812896 -0.066476166 0.07834308 0.022688659 0.20902464 0.06414432 0.09443852
0.08184138 0.017539255 -0.110863484 -0.04567868 0.09628405 0.06538259 0.13660751 -0.026162788
-0.044564046 0.18926133 -0.059987713 -0.07847835 0.055157684 0.10162986 0.047775727 -0.1109923
0.10405157 0.14101541 -0.15435745 0.053145654 0.15201269 0.015771562 0.030791437 0.09988346
0.0101278955 0.065732196 0.08234846 0.07620953 -0.13454814 -0.08233101 -0.117458686 0.03962505
0.025253823 0.1490039 0.09196276 -0.053626616 -0.14772049 -0.062421717 0.10817055 -0.013907386
0.027998816 -0.2484071 0.19178317 -0.18121564 -0.14797002 -0.12694904 -0.13557449 -0.025071733
-0.0948206 0.16942587 -0.10965203 -0.08934079 0.0048590885 -0.12084667 -0.16384752 -0.054227974
0.08673542 0.05162974 -0.043067306 0.18092923 -0.13577488 -0.049437564 0.14846762 0.041063175
-0.170838 -0.047243666 0.12229901 -0.0015603163 0.03953089 -0.11771956 0.16168067 -0.063681774
0.017738026 0.08264335 0.08517981 0.02455273 0.11926918 0.13978472 0.24487762 -0.016566455
0.15505445 0.019789027 0.17642415 -0.106097095 -0.17904098 0.094018884 -0.01620891 0.110035084
-0.050858304 -0.032593504 -0.08430836 0.0495917 0.0056573525 -0.01663191 0.019402096 -0.07493375
0.09557619 0.011129558 0.04118682 0.0834535 -0.05762129 -0.06656041 0.08118865 -0.032075237
-0.027320398 0.08015139 0.056561135 -0.07098517 -0.1585629 0.035163283 -0.097556844 0.11782804
0.1189503 0.010762917 0.12366842 -0.07887017 -0.1378325 0.0047974945 0.13325363 -0.12804113
-0.03504038 0.07690001 -0.04992308 0.14622374 -0.12827 0.1161012 -0.010824243 -0.017632006
0.033999607 -0.08973412 0.05621122 0.052917015 0.12511364 0.058037877 -0.047256913 0.0598242
-0.12243325 -0.15535669 -0.09505312 0.049562704 0.06555497 -0.14401057 0.016572306 -0.115255445
0.028119234 -0.06894638 -0.113105156 0.14773321 0.06826498 0.09087439 0.058935396 0.1093777
0.015816445 -0.079948016 0.027753243 0.08459293 0.056025382 -0.13147472 0.14289272 -0.15036649
0.071209356 0.18562905 -0.05405165 0.07429108 -0.10040192 -0.14186719 0.14150608 0.08070042
0.17631006 -0.06628419 0.009266952 0.1358822 0.08811768 0.10734084 -0.08741905 0.17216888
0.19201484 -0.010951904 0.0220436 -0.015773414 0.15636697 -0.13963166 -0.10155106 -0.16133559
-0.06681207 0.043965794 -0.0044534095 0.11990876 0.06108266 0.0005824238 0.097278394 0.08250529
-0.11131821 -0.14152242 -0.109617025 -0.15679473 -0.24069695 -0.004617704 0.095639065 -0.028139094
0.07213065 -0.08484084 0.09642605 0.006685684 -0.043570694 0.1452707 0.1127773 -0.023799958
-0.04548758 0.012297478 -0.08972814 -0.07474947 -0.013058281 -0.08050789 -0.011554171 -0.011112095
0.05725155 -0.09231032 -0.07023701 -0.12913574 0.0071035842 0.11355303 0.081280515 0.15997317
0.14822415 -0.013312234 0.16162345 0.2788552 0.16933045 0.111918785 0.07542884 0.24556942
00000000: a6ce 05bd 9971 8e3d fc6e f4bc 2ddb ee3d
00000010: 2427 2b3d 9a93 1f3e a797 173e ddfd 1e3d
00000020: 320e 4b3d 3072 d2bd 6a16 f2bd 06b8 61bd
00000030: 1456 a73d 6d59 bcbd 8759 5cbc 022a 293e
00000040: eb66 c43d a218 6e3d a824 88bd 5672 a03d
00000050: 91dd b93c 8e0a 563e 195e 833d fc68 c13d
00000060: 749c a73d 7cae 8f3c 650c e3bd 9119 3bbd
00000070: 9230 c53d 4fe7 853d d7e2 0b3e 5853 d6bc
00000080: ca88 36bd b9cd 413e adb5 75bd 42b9 a0bd
00000090: 06ed 613d 5123 d03d 7bb0 433d ee4f e3bd
000000a0: fd18 d53d 5866 103e e10f 1ebe 42af 593d
000000b0: 37a9 1b3e 5d33 813c 533e fc3c b38f cc3d
000000c0: 79ef 253c 9a9e 863d 4fa6 a83d be13 9c3d
000000d0: fdc6 09be 299d a8bd 2e8e f0bd e04d 223d
000000e0: 1be1 ce3c 7a94 183e f956 bc3d 95a7 5bbd
000000f0: 0a44 17be eaad 7fbd 8588 dd3d cedb 63bc
00000100: c65d e53c 6e5e 7ebe cf62 443e 9890 39be
00000110: 7485 17be eefe 01be 0ad4 0abe 3c63 cdbc
00000120: 4d31 c2bd fa7d 2d3e 3e91 e0bd 4ef8 b6bd
00000130: fd38 9f3b 757e f7bd a5c7 27be 271e 5ebd
00000140: 57a2 b13d b579 533d 5867 30bd 8345 393e
00000150: 9208 0bbe 0b7f 4abd e507 183e dc31 283d
00000160: 28f0 2ebe 9382 41bd e777 fa3d 8783 ccba
00000170: 24eb 213d f416 f1bd 9e8f 253e 976b 82bd
00000180: 564f 913c eb40 a93d c172 ae3d cf22 c93c
00000190: 6643 f43d ba23 0f3e 33c1 7a3e 60b6 87bc
000001a0: 98c6 1e3e 991c a23c 88a8 343e 6f49 d9bd
000001b0: 8556 37be f98c c03d 8cc8 84bc 135a e13d
000001c0: cc50 50bd c480 05bd dda9 acbd ab20 4b3d
000001d0: 5061 b93b a53f 88bc 25f1 9e3c de76 99bd
000001e0: 73bd c33d c058 363c 83b3 283d abe9 aa3d
000001f0: 4d04 6cbd d350 88bd 3c46 a63d 5361 03bd
00000200: 07cf dfbc 6926 a43d a6ac 673d ac60 91bd
00000210: 505e 22be 6007 103d e2cb c7bd d44f f13d
00000220: 379c f33d f256 303c de45 fd3d af86 a1bd
00000230: f623 0dbe 4d34 9d3b a473 083e 371d 03be
00000240: 8086 0fbd c17d 9d3d 257c 4cbd adbb 153e
00000250: 3659 03be 77c6 ed3d 2a58 31bc ff70 90bc
00000260: 2c43 0b3d 86c6 b7bd bc3d 663d 83bf 583d
00000270: ca1d 003e 20b9 6d3d 7790 41bd 380a 753d
00000280: 49be fabd d315 1fbe 36ab c2bd 4302 4b3d
00000290: af41 863d 8277 13be a5c2 873c 0c0b ecbd
000002a0: 4f5a e63c c233 8dbd ada3 e7bd 6047 173e
000002b0: 83ce 8b3d 5a1c ba3d 3e66 713d 6a01 e03d
000002c0: 7d91 813c c9bb a3bd c55a e33c 0f3f ad3d
000002d0: df7a 653d 4fa1 06be 7852 123e acf9 19be
000002e0: 36d6 913d 8b15 3e3e 4365 5dbd ec25 983d
000002f0: 869f cdbd a245 11be f8e6 103e 4346 a53d
00000300: a08a 343e 01c0 87bd 6ad4 173c b424 0b3e
00000310: 0b77 b43d 84d5 db3d c208 b3bd 0a4d 303e
00000320: 8a9f 443e 9d6f 33bc c894 b43c 3f37 81bc
00000330: aa1e 203e 9afb 0ebe 01fa cfbd 2835 25be
00000340: c4d4 88bd 7a15 343d e8ed 91bb b992 f53d
00000350: d031 7a3d cdad 183a e539 c73d 89f8 a83d
00000360: cdfa e3bd 41eb 10be e47e e0bd cc8e 20be
00000370: 4379 76be 1c50 97bb 6ade c33d f583 e6bc
00000380: 3cb9 933d 09c1 adbd 057b c53d 9513 db3b
00000390: 2f77 32bd d8c1 143e c9f7 e63d 21f8 c2bc
000003a0: 2f51 3abd 5c7b 493c 63c3 b7bd 4016 99bd
000003b0: 66f2 55bc 52e1 a4bd b54d 3dbc 810f 36bc
000003c0: 9a80 6a3d 310d bdbd 6cd8 8fbd 293c 04be
000003d0: 2fc5 e83b 7e8e e83d 6676 a63d 02d0 233e
000003e0: 12c8 173e 8e1b 5abc 9e80 253e 1cc6 8e3e
000003f0: f664 2d3e ad35 e53d 707a 9a3d 8d76 7b3e

out/MatMul_bias f4 [47]
-0.02584394 -0.015360297 0.042926397 -0.046074916 0.044107553 -0.012216318 -0.022742033 -0.009460639
-0.0052223406 0.008953572 -0.011365768 -0.09643762 0.011602745 -0.041064806 -0.0025337702 -0.006327522
0.05369201 0.008128891 0.029954107 0.008059721 0.009471115 -0.00066591386 -0.030309696 0.022327842
0.0073716273 -0.02677048 -0.06498475 -0.006660629 -0.053922668 -0.021957645 -0.04980337 0.040713754
0.013940181 -0.028696306 0.010911172 0.060839 0.041165516 -0.039207846 0.049623396 -0.027959557
-0.022542005 0.029118104 -0.03520326 0.0068027666 -0.033269946 -0.021077618 -0.025510905
00000000: acb6 d3bc c1a9 7bbc 97d3 2f3d 0db9 3cbd
00000010: 1faa 343d f426 48bc 804d babc cc00 1bbc
00000020: 2b20 abbb 01b2 123c 7c37 3abc 1681 c5bd
00000030: 7119 3e3c 9233 28bd 9c0d 26bb 1a57 cfbb
00000040: 27ec 5b3d 0a2f 053c 5162 f53c ec0c 043c
00000050: bc2c 1b3c b990 2eba 0a4c f8bc e1e8 b63c
00000060: b18d f13b c44d dbbc b916 85bd 6841 dabb
00000070: 04de 5cbd 85e0 b3bc 9efe 4bbd 77c3 263d
00000080: 5b65 643c 8414 ebbc c6c4 323c 5132 793d
00000090: 2c9d 283d 6898 20bd e741 4b3d 710b e5bc
000000a0: 03aa b8bc 1789 ee3c 4b31 10bd bee9 de3b
000000b0: 1146 08bd f8aa acbc 3ffc d0bc

out/kernel/transpose f4 [47, 200]
-0.30979285 0.16125074 -0.6450051 0.15649846 -0.46305734 -0.40563866 0.095336534 -0.40869716
0.09727047 0.14362554 -0.12699863 0.22557148 -0.55562115 -0.18518046 -0.33193895 -0.36294863
-0.39520925 -0.3336249 -0.5627786 0.053403072 0.14426403 -0.44767815 0.27929777 0.14975975
0.2676686 0.2308177 0.014933508 -0.15901585 0.15926743 0.048651036 -0.36496538 0.0064677875
0.22991638 -0.6380421 0.012589526 -0.2618353 -0.1801912 -0.25288954 -0.43444803 -0.62854826
-0.3707336 0.14007358 -0.017908206 -0.09033265 -0.17213888 -0.94049203 -0.6302139 0.1788558
-0.19881882 -0.3245623 0.10711568 -0.3193937 -0.021559976 0.20431659 0.10728023 -0.10319742
0.19618814 0.29138097 0.013418533 0.1122186 0.06579471 -0.37068897 -0.09420175 -0.26523504
0.1219797 0.1883037 -0.43964088 0.2673553 0.1626492 0.12441521 -0.30152124 -0.25734946
-0.17501542 0.25254273 0.16813165 -0.57027423 -0.49458557 0.033882007 0.12547527 -0.32745585
-0.7276192 -0.15974216 -0.35885125 0.1824686 -0.31045088 0.115604974 -0.10535556 -0.6347649
-0.30284274 0.05414897 0.105276145 -0.18029663 0.08382263 -0.17704941 0.24802978 -0.69749564
0.20263787 0.19804053 0.28184086 0.20754142 -0.15064703 -0.33239108 -0.57623 -0.12220408
0.1222286 -0.45890987 0.1332898 -0.095029615 0.15007313 0.21689959 -0.4190631 -0.5309878
0.2442521 -0.75625634 -0.57839215 -0.37633607 0.038293134 -0.27887538 0.15911405 0.14088112
-0.5466213 0.14556739 0.060080808 0.15170513 -0.5417585 0.15803005 -0.4217774 -0.33507118
-0.03673059 -0.56545484 -0.23523128 0.2709991 -0.31599006 0.24621932 -0.2988198 -0.37899345
-0.38323122 0.28630427 -0.01924151 -0.26848897 0.09346759 0.065129176 -0.38602686 -0.6365068
0.09617824 -0.18927382 -0.101893604 -0.17906134 -0.19036148 -0.2397943 -0.71345675 -0.33732733
-0.3062718 0.21976747 -0.27817693 0.04728284 -0.42925668 0.25060382 -0.258638 0.22498392
-0.37878215 0.07988508 -0.3478269 -0.4826052 0.1621665 -0.34882468 -0.3224457 0.16422784
0.21339843 0.16815208 -0.35547647 -0.37944785 0.18735637 0.17781532 -0.28551996 0.18848595
0.14759983 -0.662507 -0.7063326 0.05914347 0.24476013 -0.72946835 0.19690874 -0.60950077
-0.32568973 -0.27039626 -0.17454779 -0.5072773 -0.35707 -0.1757531 -0.06558051 -0.25762427
0.23826727 0.22519895 0.13880335 -0.57071656 -0.19398107 0.23213719 -0.5039092 0.18054129
-0.05174898 -0.5013611 0.19505805 -0.36427823 0.013318943 -0.38370663 0.18077016 0.18930964
0.23640202 0.11824094 0.08463397 0.23316668 0.11465041 -0.3820138 0.2145098 -0.48902032
0.16271938 -0.37165597 0.22179565 0.21523018 0.10420864 0.26330844 -0.3956311 -0.3542247
0.11249066 0.1288902 0.26747268 0.21296924 -0.6687493 0.2393412 0.102707155 -0.37301585
0.15749651 -0.3747567 0.254227 -0.03662041 -0.265323 0.14013097 -0.44027722 0.069192536
0.07174918 -0.42246312 0.2341477 -0.50417346 0.3142231 0.17504841 -0.5749333 0.18919761
0.059654914 0.10484892 0.18585266 -0.51351917 0.07855294 0.14797437 0.1506591 0.18026675
00000000: 2b9d 9ebe ea1e 253e 0e1f 25bf 2241 203e
00000010: da15 edbe dfaf cfbe cd3f c33d c140 d1be
00000020: bd35 c73d 9312 133e ee0b 02be 36fc 663e
00000030: 303d 0ebf f29f 3dbe e7f3 a9be 67d4 b9be
00000040: de58 cabe e2d0 aabe 4212 10bf 2ebd 5a3d
00000050: f3b9 133e 1236 e5be 1e00 8f3e 9f5a 193e
00000060: dc0b 893e 7a5b 6c3e acab 743c 0dd5 22be
00000070: 0017 233e 4f46 473d bedc babe bcef d33b
00000080: 336f 6b3e ba56 23bf 4d44 4e3c 470f 86be
00000090: 0b84 38be bd7a 81be f96f debe 8ae8 20bf
000000a0: cbd0 bdbe 736f 0f3e 3bb4 92bc 5300 b9bd
000000b0: 2d45 30be 16c4 70bf b355 21bf fa25 373e
000000c0: 2997 4bbe 082d a6be 775f db3d 9287 a3be
000000d0: 8c9e b0bc 5e38 513e bdb5 db3d 2b59 d3bd
000000e0: 8be5 483e e32f 953e 68d9 5b3c ded2 e53d
000000f0: 60bf 863d f2ca bdbe d9ec c0bd e3cc 87be
00000100: 7ed0 f93d afd2 403e 9c18 e1be cbe2 883e
00000110: 838d 263e 67cd fe3d fe60 9abe 4fc3 83be
00000120: 3e37 33be 484d 813e b42a 2c3e 7efd 11bf
00000130: 523a fdbe dcc7 0a3d 977c 003e 4ba8 a7be
00000140: 4045 3abf 7393 23be 5abb b7be 0cd9 3a3e
00000150: 6bf3 9ebe 4dc2 ec3d a8c4 d7bd f47f 22bf
00000160: 340e 9bbe 4fcb 5d3d 059b d73d ae9f 38be
00000170: 33ab ab3d 714c 35be 85fb 7d3e 138f 32bf
00000180: 4d80 4f3e 23cb 4a3e 724d 903e bd85 543e
00000190: 3743 1abe 2a2f aabe cf83 13bf 2246 fabd
000001a0: fd52 fa3d 3cf6 eabe 1f7d 083e e39e c2bd
000001b0: c5ac 193e ed1a 5e3e 708f d6be d1ee 07bf
000001c0: 391d 7a3e 049a 41bf 8211 14bf 1faf c0be
000001d0: 43d9 1c3d c1c8 8ebe cbee 223e 2443 103e
000001e0: 60ef 0bbf 9e0f 153e 4b17 763d 9758 1b3e
000001f0: afb0 0abf a1d2 213e 35f3 d7be 738e abbe
00000200: d172 16bd a6c1 10bf 78e0 70be 65c0 8a3e
00000210: 73c9 a1be eb20 7c3e e9fe 98be 6e0b c2be
00000220: e236 c4be 7996 923e 5fa0 9dbc 6377 89be
00000230: f06b bf3d 7262 853d 50a5 c5be 1cf2 22bf
00000240: 19f9 c43d ffd0 41be 98ad d0bd db5b 37be
00000250: 1fee 42be a38c 75be 1aa5 36bf 2bb6 acbe
00000260: a8cf 9cbe b90a 613e 356d 8ebe a7ab 413d
00000270: 88c7 dbbe 254f 803e 336c 84be 2f62 663e
00000280: bcef c1be ca9a a33d 5e16 b2be 0718 f7be
00000290: fa0e 263e 2699 b2be 9a17 a5be 582b 283e
000002a0: 1e85 5a3e 0f30 2c3e 0301 b6be fd46 c2be
000002b0: 59da 3f3e 3815 363e ac2f 92be 7602 413e
000002c0: 6924 173e 0f9a 29bf 37d2 34bf 6c40 723d
000002d0: 66a2 7a3e 70be 3abf 72a2 493e 3e08 1cbf
000002e0: cec0 a6be 6171 8abe a8bc 32be eddc 01bf
000002f0: e1d1 b6be 9ff8 33be 134f 86bd 54e7 83be
00000300: 56fc 733e 8e9a 663e 7722 0e3e 7b1a 12bf
00000310: f9a2 46be 5fb5 6d3e 3100 01bf d1df 383e
00000320: bdf6 53bd 3359 00bf 4cbd 473e ad82 babe
00000330: b237 5a3c 3275 c4be d01b 393e 63da 413e
00000340: 5f13 723e 4e28 f23d 9354 ad3d 3fc3 6e3e
00000350: d6cd ea3d 5097 c3be 75a8 5b3e df60 fabe
00000360: e99f 263e b149 bebe 661e 633e 4d65 5c3e
00000370: 576b d53d 5dd0 863e 2990 cabe f15c b5be
00000380: 8161 e63d cbfb 033e 2ef2 883e 9c14 5a3e
00000390: 2733 2bbf dc15 753e 2158 d23d effb bebe
000003a0: c446 213e 1ce0 bfbe 0b2a 823e 48ff 15bd
000003b0: 6bd8 87be 7e7e 0f3e 046c e1be d1b4 8d3d
000003c0: 3cf1 923d 164d d8be 6ac4 6f3e 8311 01bf
000003d0: dae1 a03e e43f 333e d42e 13bf 05bd 413e
000003e0: b658 743d 08bb d63d 2950 3e3e fe75 03bf
000003f0: 5de0 a03d 9886 173e 6146 1a3e d997 383e
