bots/en/Shrek.chatbot/converted_model.tflite (tflite, 407204 bytes, 4 tensors)

in/MatMul_bias f4 [128]
0.26564974 0.35987166 0.22567098 0.16921033 0.14562212 0.14983848 0.14466321 0.1794383
0.13000314 0.28270376 0.2720988 0.18997476 0.20878881 0.20963171 0.2276488 0.18553136
0.1795805 0.188822 0.1761608 0.10642163 0.11214496 0.2625324 0.1916399 0.2586593
0.16545276 0.16309853 0.20593922 0.20315701 0.23871914 0.33079475 0.19557068 0.21158266
0.12524456 0.22607812 0.14914349 0.21854624 0.253174 0.22381952 0.1968765 0.22076379
0.23404637 0.19699618 0.278956 0.1502584 0.13846812 0.2914811 0.2140809 0.15307641
0.15803345 0.22657827 0.2645624 0.23110934 0.093810566 0.17070645 0.18125293 0.20718849
0.15337889 0.20354393 0.24793732 0.24136144 0.26687318 0.23660438 0.3021486 0.16674829
0.13409221 0.13312873 0.21893871 0.12085137 0.13189657 0.22984612 0.2669441 0.21336636
0.1838103 0.11889982 0.18129958 0.19580323 0.19511084 0.23805106 0.19041434 0.23905145
0.18784203 0.33625254 0.18340996 0.2905023 0.22522666 0.20942396 0.26077822 0.2848821
0.19431426 0.1530722 0.19273452 0.15007196 0.19460104 0.24753581 0.23379993 0.24272646
0.13669199 0.25363216 0.15995292 0.22233538 0.16492708 0.12632254 0.16765821 0.2794842
0.21231122 0.19346921 0.15467942 0.12621695 0.10366357 0.13525449 0.19071801 0.11286685
0.2393303 0.21630241 0.2783284 0.2284386 0.25227487 0.27813005 0.26113093 0.1729842
0.2556047 0.11300096 0.21509498 0.27513114 0.34602803 0.18473189 0.23403478 0.21650963
00000000: 3e03 883e 1941 b83e 4b16 673e 7945 2d3e
00000010: f71d 153e 426f 193e 9822 143e acbe 373e
00000020: 8b1f 053e 8cbe 903e 8950 8b3e be88 423e
00000030: bccc 553e b2a9 563e c41c 693e effb 3d3e
00000040: f3e3 373e 8e5a 413e 7f63 343e 95f3 d93d
00000050: 42ac e53d a66a 863e 403d 443e fe6e 843e
00000060: 736c 293e 4d03 273e bbe1 523e 6408 503e
00000070: ca72 743e ee5d a93e ae43 483e 20a9 583e
00000080: 1c40 003e 0681 673e 12b9 183e 96ca 5f3e
00000090: 06a0 813e f230 653e fe99 493e e70f 623e
000000a0: daa9 6f3e 5eb9 493e 52d3 8e3e 57dd 193e
000000b0: 96ca 0d3e 033d 953e 0638 5b3e 10c0 1c3e
000000c0: 85d3 213e 2204 683e b974 873e eda7 6c3e
000000d0: c11f c03d accd 2e3e 5e9a 393e 3829 543e
000000e0: 5b0f 1d3e d26d 503e 48e3 7d3e 7427 773e
000000f0: 9aa3 883e 6b48 723e 39b3 9a3e 10c0 2a3e
00000100: 784f 093e e652 083e 7831 603e ec80 f73d
00000110: e50f 073e c85c 6b3e e6ac 883e b67c 5a3e
00000120: c438 3c3e c081 f33d 99a6 393e a480 483e
00000130: 23cb 473e a8c3 733e fafb 423e e7c9 743e
00000140: a959 403e 4b29 ac3e d2cf 3b3e b8bc 943e
00000150: d1a1 663e 3c73 563e b984 853e 11dc 913e
00000160: 51fa 463e f5be 1c3e 335c 453e 77ac 193e
00000170: 7f45 473e 077a 7d3e 4069 6f3e 498d 783e
00000180: fcf8 0b3e 13dc 813e b3ca 233e e3ab 633e
00000190: a5e2 283e b25a 013e 98ae 2b3e 8e18 8f3e
000001a0: 1d68 593e cb1c 463e 4864 1e3e 043f 013e
000001b0: 914d d43d 2780 0a3e 954b 433e bc26 e73d
000001c0: 0113 753e 617e 5d3e 0f81 8e3e cfeb 693e
000001d0: 2c2a 813e 1067 8e3e f4b2 853e c522 313e
000001e0: 9fde 823e 0c6d e73d dc41 5c3e fddd 8c3e
000001f0: 962a b13e 5b2a 3d3e d0a6 6f3e b3b4 5d3e

in/kernel/transpose f4 [128, 757]
0.104115516 -0.065116614 -0.087637015 -0.04747595 -0.08539166 0.087931775 0.11163474 0.13303593
0.1015925 0.13595645 0.17225033 -0.097560816 -0.16652092 -0.099740155 0.11329842 0.2136418
0.18339433 0.16729899 0.14006932 0.20805411 -0.002861837 0.007289949 -0.07215898 0.059731226
0.14304157 0.16976188 0.17729208 0.15611896 -0.07034634 0.1588528 0.09609814 -0.20260315
-0.063221075 -0.120714374 0.064886004 0.0038120707 0.051609587 0.085557766 0.17965466 0.053001426
-0.085393324 0.029856106 0.1556607 -0.16163465 -0.07068159 -0.12419519 -0.0679131 0.018038755
0.06202989 0.14571823 0.21263883 0.08411134 0.084552534 -0.032274913 0.1893244 0.14454179
0.09572326 0.14157677 -0.114579596 -0.007902623 -0.11629654 -0.088017926 -0.15538506 -0.024552567
-0.1654727 0.069526464 -0.10389962 -0.11135859 0.041349623 -0.01566406 -0.122743316 0.17981318
-0.0870948 0.085398585 0.18264405 -0.024485331 -0.08348616 0.07962741 0.16927412 -0.0026942487
0.11094624 0.20178095 0.041865222 0.093736775 0.12722105 -0.04935139 0.15995052 0.024800763
-0.012821773 -0.08039294 0.18720016 -0.10655787 0.22165757 0.016046368 0.10401896 0.10133785
-0.087734416 0.093404 -0.012457816 -0.043475837 0.011160354 0.13243458 0.14183867 0.07853971
0.07343729 -0.12017818 -0.07792091 -0.07429073 -0.09432329 0.086683795 -0.087352216 -0.04723368
-0.06091132 -0.09133801 -0.039910432 -0.16458191 -0.118712135 0.08545262 0.22116774 -0.003848679
0.039875958 0.07121484 -0.18983692 -0.08774899 0.1600919 0.0508311 -0.036813032 0.06048071
0.034428675 -0.020011963 -0.08164768 -0.0929658 -0.09448326 0.05447727 -0.10336329 -0.18124792
-0.14939468 -0.1409561 -0.004212991 -0.18523519 0.054944888 0.05258608 -0.11845624 0.056288503
0.20974402 0.076332785 0.104595535 0.11551306 0.04145194 0.07509374 0.06525544 -0.10488564
-0.10311659 0.028125113 -0.07344763 -0.0773754 -0.12632287 0.058044333 0.17787673 -0.068183996
0.13801351 0.06855382 0.023478005 -0.10113251 -0.013006762 0.08935133 -0.1593593 0.21755014
-0.06754055 0.15227124 0.14465466 0.10132371 -2.2268026e-05 -0.08248259 0.19623163 0.08605465
0.10885376 0.21512517 0.10274663 0.10450208 -0.07885837 0.058903467 -0.07526538 -0.14286019
0.19689955 0.23444833 0.08944734 -0.15237334 -0.12619296 -0.07146751 -0.18284105 0.10225111
-0.03603627 -0.08039345 -0.11963117 -0.093188345 0.19226289 0.23653945 0.25864065 0.02910973
-0.013421066 -0.16615453 0.0046423003 -0.05279396 0.018214826 -0.12832645 0.10388515 0.07865632
0.122535124 0.04466973 0.03973189 0.14119986 0.050461642 0.16295351 0.096552126 0.06422559
-0.07061295 0.07479227 -0.0977838 0.08451323 0.007731893 -0.024488777 -0.025502218 -0.110064946
0.2318881 -0.09465794 -0.024498211 -0.1744675 0.1641832 0.18171784 -0.059874643 0.15410723
0.14036943 0.19277142 -0.043124225 -0.11064197 0.13012992 -0.12387764 -0.13767122 -0.12528814
0.02982789 0.03849203 -0.06436817 0.10172676 -0.11577952 -0.049900115 0.15291788 0.030220542
0.024671583 0.17210796 0.16902664 -0.073082134 0.12164717 0.03495294 0.08345486 0.050009243
00000000: 843a d53d dc5b 85bd 097b b3bd 2476 42bd
00000010: d3e1 aebd 9315 b43d c1a0 e43d 923a 083e
00000020: bb0f d03d 2b38 0b3e 6462 303e f7cd c7bd
00000030: 7684 2abe 9144 ccbd 0109 e83d ebc4 5a3e
00000040: b9cb 3b3e 6d50 2b3e 556e 0f3e 230c 553e
00000050: a88d 3bbb 86e0 ee3b 16c8 93bd bba8 743d
00000060: 7d79 123e 0fd6 2d3e 0e8c 353e a6dd 1f3e
00000070: be11 90bd 4faa 223e 1acf c43d 3377 4fbe
00000080: 0d7a 81bd 1939 f7bd f4e2 843d efd3 793b
00000090: 9364 533d e938 af3d 64f7 373e 0618 593d
000000a0: b2e2 aebd cb94 f43c 8565 1f3e 8e83 25be
000000b0: 82c1 90bd 0c5a febd 0616 8bbd 03c6 933c
000000c0: 0e13 7e3d 2937 153e febd 593e 9142 ac3d
000000d0: e129 ad3d b332 04bd 41de 413e c302 143e
000000e0: 8e0a c43d 80f9 103e b5a8 eabd 017a 01bc
000000f0: e12c eebd be42 b4bd 431d 1fbe 7722 c9bc
00000100: ad71 29be e463 8e3d 53c9 d4bd f90f e4bd
00000110: 395e 293d ea51 80bc d960 fbbd f220 383e
00000120: c25e b2bd 74e5 ae3d 0b07 3b3e 7695 c8bc
00000130: cbfa aabd b213 a33d 3256 2d3e fe91 30bb
00000140: c837 e33d aa9f 4e3e de7a 2b3d 11f9 bf3d
00000150: 3c46 023e af24 4abd 12ca 233e f82a cb3c
00000160: 6a12 52bc 0ea5 a4bd 66b1 3f3e 033b dabd
00000170: 34fa 623e ac73 833c e407 d53d 388a cf3d
00000180: 1aae b3bd 994a bf3d de1b 4cbc b813 32bd
00000190: ebd9 363c ee9c 073e 283e 113e 6dd9 a03d
000001a0: 4a66 963d fa1f f6bd 0095 9fbd bd25 98bd
000001b0: 922c c1bd 4687 b13d b8e5 b2bd 1a78 41bd
000001c0: 267e 79bd 6c0f bbbd 1f79 23bd 2988 28be
000001d0: 591f f3bd c901 af3d cc79 623e 1e3a 7cbb
000001e0: f954 233d 16d9 913d 9c64 42be beb5 b3bd
000001f0: 22ef 233e 4634 503d 43c9 16bd 9fba 773d
00000200: 1505 0d3d 21f0 a3bc e636 a7bd da64 bebd
00000210: 7080 c1bd 8f23 5f3d 22b0 d3bd 0e99 39be
00000220: ebfa 18be cc56 10be 210d 8abb 4bae 3dbe
00000230: e40d 613d 8064 573d 2f99 f2bd c68e 663d
00000240: 23c7 563e 5d54 9c3d 2f36 d63d 1c92 ec3d
00000250: 82c9 293d bfca 993d a5a4 853d 48ce d6bd
00000260: ca2e d3bd a366 e63c b66b 96bd fe76 9ebd
00000270: c85a 01be e5bf 6d3d 5125 363e 0da4 8bbd
00000280: 6a53 0d3e f265 8c3d f254 c03c 901e cfbd
00000290: 501a 55bc d5fd b63d 162f 23be 77c5 5e3e
000002a0: b352 8abd feec 1b3e 5a20 143e ce82 cf3d
000002b0: 39cc bab7 a2ec a8bd f2f0 483e 6c3d b03d
000002c0: b8ee de3d c649 5c3e d36c d23d 3005 d63d
000002d0: 7f80 a1bd c344 713d bc24 9abd f149 12be
000002e0: 09a0 493e 3913 703e 2b30 b73d c207 1cbe
000002f0: ba38 01be 8f5d 92bd af3a 3bbe 0869 d13d
00000300: c59a 13bd 52a5 a4bd 3001 f5bd 88d9 bebd
00000310: 90e0 443e 6637 723e 8c6c 843e 8777 ee3c
00000320: 08e4 5bbc 6a24 2abe 701e 983b 7b3e 58bd
00000330: 4237 953c 0268 03be bdc1 d43d 9116 a13d
00000340: b2f3 fa3d 9bf7 363d e8bd 223d b296 103e
00000350: deb0 4e3d 49dd 263e 1fbd c53d b588 833d
00000360: 869d 90bd b12c 993d df42 c8bd 4615 ad3d
00000370: d25b fd3b b09c c8bc 07ea d0bc bb69 e1bd
00000380: 1374 6d3e 06dc c1bd 79b0 c8bc 9ca7 32be
00000390: a41f 283e 3e14 3a3e 1d3f 75bd 49ce 1d3e
000003a0: 01bd 0f3e df65 453e 07a3 30bd 4298 e2bd
000003b0: c740 053e 8fb3 fdbd aff9 0cbe 894b 00be
000003c0: 9f59 f43c d2a9 1d3d 76d3 83bd 1f56 d03d
000003d0: d01d edbd 1064 4cbd 8196 1c3e 1291 f73c
000003e0: 0f1c ca3c 123d 303e 5215 2d3e 16ac 95bd
000003f0: 2722 f93d d02a 0f3d 62ea aa3d 7ed6 4c3d

out/MatMul_bias f4 [35]
-0.013307529 0.010981544 0.01737034 -0.06793926 0.06883936 0.03389604 0.0060578687 -0.037611652
-0.1488348 0.07735491 0.12755293 -0.09157972 0.051438373 -0.010580013 -0.03914385 -0.029176408
-0.059902206 -0.047401745 0.0460435 0.027634744 -0.14322811 -0.07897553 0.103627086 -0.014044656
-0.009595748 -0.019542232 0.010261221 0.045362372 -0.059502624 0.00743851 0.012248078 -0.09467276
-0.076107204 -0.0097489385 -0.019727165
00000000: d207 5abc efeb 333c 3e4c 8e3c bd23 8bbd
00000010: a6fb 8c3d 93d6 0a3d 1681 c63b ad0e 1abd
00000020: 2668 18be 406c 9e3d 3c9d 023e 268e bbbd
00000030: 0bb1 523d ca57 2dbc 4d55 20bd 5d03 efbc
00000040: 045c 75bd 5528 42bd 1c98 3c3d 4262 e23c
00000050: 64aa 12be ecbd a1bd 703a d43d 8f1b 66bc
00000060: 7c37 1dbc 0817 a0bc ae1e 283c e5cd 393d
00000070: 06b9 73bd bfbe f33b 2aac 483c cbe3 c1bd
00000080: 18de 9bbd 03ba 1fbc dd9a a1bc

out/kernel/transpose f4 [35, 128]
-0.71332526 -0.4912773 0.06470057 0.30787534 0.13363951 -0.40946275 0.2035718 0.25524816
0.35055295 -0.32545212 0.21398689 -0.6533708 0.3766854 -0.4552235 0.2600144 -0.56322557
-0.6969962 0.31199303 0.18516684 0.13304459 -0.4220012 -0.8500941 -0.3250067 0.26688778
-0.44911268 -0.40835238 -0.24359208 -0.716841 0.29784366 -0.8912308 -0.4968354 0.31627828
0.14123726 0.23363473 0.25258237 -0.55681175 -0.65124726 -0.16422084 -0.2932077 -0.27001122
-0.02700317 -0.39604488 0.11708793 0.26263934 0.3139203 -1.0305908 0.067757204 -0.21829937
-0.25196007 -0.36414722 -0.28774303 -0.38497335 0.22357912 0.32884708 0.28788888 -0.524076
-0.4223623 -0.31903374 0.2244946 0.1466352 0.17236054 -0.42534316 -0.46048063 -0.5026694
-0.1636726 -0.14092486 0.2175914 0.19267683 -0.3612571 -0.78507537 -0.6118741 -0.3187652
0.17460115 0.28383395 0.19710182 -0.7577078 0.33107087 -0.1710808 -0.27164155 -0.087062515
-0.15263881 0.17679651 -0.25774524 0.096695565 -0.7839413 -0.32957572 0.049382713 -0.36454162
0.18644625 -0.6489222 0.25941786 0.2166315 -0.7010715 0.24262509 0.1646658 0.30184782
0.21250013 -0.84601444 0.29265013 -0.64490753 -0.4882721 0.14062439 -0.65940934 0.27149445
0.25871915 0.1528868 -0.17300479 -0.44126582 0.18417601 0.16015646 -0.4498453 0.24234508
0.2675735 0.24253953 -0.42096472 0.2160732 -0.4667434 -0.93259335 -0.55983585 -0.3736887
-0.37884083 -0.46172166 0.12174191 -0.37796977 -0.4485242 0.017908929 0.18301275 0.18388939
-0.33171993 -0.8307711 -0.35446677 -0.28917223 -0.4514396 -0.38330057 -0.52584565 -0.029322077
0.25013828 0.21354058 0.20052327 -0.65297204 -0.21741296 -0.5714629 0.290625 -0.49860284
0.24178363 -0.17199194 0.24141628 0.2482425 -0.07385043 0.33222485 0.12502915 -0.33230123
-0.1722547 0.20023802 -0.3442387 -0.57431436 0.2129547 -0.775633 -0.35962793 0.21697803
-0.7480925 0.33287433 -0.12649108 -0.36905038 -0.7248133 0.07825284 -0.46263096 0.22378828
0.20412956 0.19058509 -0.66500694 -0.17304437 0.046583943 -0.8269391 0.15099302 -0.2855086
0.26498052 0.09118206 -0.291449 -0.5756186 0.08565756 -0.63537014 0.2520275 -0.02755305
-0.49569342 -0.4335205 -0.47702917 -0.29031208 -0.5084348 -0.5238703 -0.63046664 -0.46182805
-0.34643957 -0.97783446 0.19533198 0.19096605 -0.37548882 -0.43226853 0.35737038 0.2641036
0.28492105 0.20333274 0.13189006 -0.1152187 0.15718238 -0.28668824 0.19682631 -0.6333464
-0.48431963 0.10215602 -0.24999046 0.15248655 -0.71152323 -1.0629854 0.2608751 0.19576396
0.2398183 0.25673494 0.27410647 -0.5103325 0.12946454 -0.46809068 -0.56118006 0.17557397
0.3375892 -0.52463245 0.30320823 0.24114041 0.3136676 -0.36119044 0.18932179 -0.52023906
0.23131076 0.21877782 -0.3252365 0.11266938 -0.5549635 -0.17989573 0.1898047 0.15806176
0.25023314 -0.3641838 0.19842075 -0.46677017 -0.654052 0.27862808 0.25221503 0.34665555
-0.31447566 0.13397239 -0.6112326 0.1379743 0.31700274 -0.30142435 0.3355272 -0.29191232
00000000: 7c9c 36bf b388 fbbe bc81 843d d6a1 9d3e
00000010: ccd8 083e 1aa5 d1be 2075 503e e3af 823e
00000020: ad7b b33e a9a1 a6be 611f 5b3e 4f43 27bf
00000030: e9dc c03e 0e13 e9be 9c20 853e 8d2f 10bf
00000040: 586e 32bf 8dbd 9f3e 609c 3d3e d73c 083e
00000050: 8b10 d8be c49f 59bf 4767 a6be 84a5 883e
00000060: 19f2 e5be 9013 d1be 3470 79be e482 37bf
00000070: f77e 983e b427 64bf 3661 febe 3aef a13e
00000080: 80a0 103e f13d 6f3e 7a52 813e 378b 0ebf
00000090: 24b8 26bf 8229 28be 521f 96be e93e 8abe
000000a0: c135 ddbc 65c6 cabe cccb ef3d aa78 863e
000000b0: 29ba a03e 66ea 83bf 4ac4 8a3d df89 5fbe
000000c0: e900 81be 8171 babe 0e53 93be 3a1b c5be
000000d0: edf1 643e a55e a83e 2c66 933e d829 06bf
000000e0: df3f d8be 6458 a3be eae1 653e 8a27 163e
000000f0: 487f 303e 94c6 d9be 1ec4 ebbe f1ae 00bf
00000100: ca99 27be 9b4e 10be 48d0 5e3e 134d 453e
00000110: b1f6 b8be b3fa 48bf c8a3 1cbf 3135 a3be
00000120: a5ca 323e af52 913e 0fd5 493e 23f9 41bf
00000130: 1f82 a93e ce2f 2fbe 9a14 8bbe d54d b2bd
00000140: 594d 1cbe 250a 353e 2ff7 83be 5308 c63d
00000150: 61b0 48bf 26be a8be 8745 4a3d 33a5 babe
00000160: c4eb 3e3e c41f 26bf 6bd2 843e a6d4 5d3e
00000170: 6c79 33bf b672 783e 279e 283e cc8b 9a3e
00000180: a299 593e 6794 58bf 3dd6 953e a918 25bf
00000190: cdfe f9be d7ff 0f3e 0dcf 28bf 5201 8b3e
000001a0: d676 843e 5b8e 1c3e 2b28 31be 98ed e1be
000001b0: a398 3c3e 0e00 243e 2052 e6be 4f29 783e
000001c0: 65ff 883e 485c 783e b088 d7be 4b42 5d3e
000001d0: fef8 eebe 70be 6ebf 6751 0fbf 2054 bfbe
000001e0: 6df7 c1be c866 ecbe d353 f93d 4185 c1be
000001f0: f7a4 e5be bfb5 923c b267 3b3e 804d 3c3e
00000200: 32d7 a9be 6aad 54bf ab7c b5be 620e 94be
00000210: 1723 e7be f93f c4be d29d 06bf da34 f0bc
00000220: 2012 803e 62aa 5a3e f955 4d3e 2d29 27bf
00000230: 81a1 5ebe 654b 12bf cdcc 943e df48 ffbe
00000240: 2196 773e a81e 30be d435 773e 4833 7e3e
00000250: e53e 97bd 6019 aa3e a407 003e 6323 aabe
00000260: 8963 30be 320b 4d3e 0e40 b0be 4406 13bf
00000270: cc10 5a3e e28f 46bf 2721 b8be 7d2f 5e3e
00000280: fd82 3fbf 816e aa3e e186 01be 2cf4 bcbe
00000290: 5d8d 39bf 0643 a03d f7dd ecbe c128 653e
000002a0: 5707 513e bd28 433e e53d 2abf 8b32 31be
000002b0: cece 3e3d 48b2 53bf ea9d 1a3e 2f2e 92be
000002c0: 87ab 873e a9bd ba3d ce38 95be be5b 13bf
000002d0: 3b6d af3d 9ea7 22bf c009 813e efb6 e1bc
000002e0: 87cb fdbe 66f6 ddbe 2b3d f4be c9a3 94be
000002f0: c828 02bf 5d1c 06bf 4366 21bf ba74 ecbe
00000300: 8760 b1be 5c53 7abf 1b05 483e 9b8c 433e
00000310: 1240 c0be 4d52 ddbe 40f9 b63e 9638 873e
00000320: 2ce1 913e 7536 503e 300e 073e c8f7 ebbd
00000330: 6bf4 203e cdc8 92be d68c 493e fd22 22bf
00000340: bef8 f7be 2d37 d13d 80fd 7fbe 6f25 1c3e
00000350: 6326 36bf e80f 88bf 6c91 853e 5976 483e
00000360: ee92 753e c372 833e af57 8c3e 27a5 02bf
00000370: 5a92 043e 95a9 efbe 7fa9 0fbf aac9 333e
00000380: 7ed8 ac3e 504e 06bf 1c3e 9b3e 83ed 763e
00000390: 0a99 a03e f4ed b8be 92dd 413e 632e 05bf
000003a0: badc 6c3e 4b07 603e 6685 a6be 34bf e63d
000003b0: 1712 0ebf 9636 38be 2a5c 423e f1da 213e
000003c0: 8f1e 803e 4d76 babe cf2e 4b3e 80fc eebe
000003d0: f46f 27bf 57a8 8e3e 5422 813e d67c b13e
000003e0: f402 a1be 0f30 093e bd79 1cbf 2349 0d3e
000003f0: 2f4e a23e 4b54 9abe 39ca ab3e 8875 95be
