bots/Sponge Bob.chatbot/converted_model.tflite (tflite, 476848 bytes, 4 tensors)

in/MatMul_bias f4 [128]
000000 aa a4 26 3e 2d c6 26 3e 5f 26 53 3e 52 7a 20 3e
       0.16273752 0.16286536 0.20620106 0.15671661
000010 ab c8 95 3e ce fd 4e 3e 59 cb 42 3e 51 06 1e 3e
       0.2925466 0.20214006 0.19022883 0.15432097
000020 ba 11 86 3e 46 7e 88 3e 9e df 5c 3e ac 9d 64 3e
       0.261854 0.2665884 0.21569678 0.22325772
000030 bf 24 3a 3e dc cd 59 3e 51 26 68 3e 90 0e 04 3e
       0.1817808 0.21269935 0.22670867 0.1289618
000040 ee 19 88 3e 11 3e 04 3e 82 cf 56 3e 59 1a 47 3e
       0.26582283 0.12914301 0.20977595 0.19443645
000050 6e 19 0d 3e d4 e5 07 3e c3 22 b5 3e 99 a6 02 3e
       0.13779232 0.13271266 0.35378084 0.12758864
000060 07 59 97 3e bb 8c 84 3e b2 78 90 3e 77 40 88 3e
       0.2956011 0.2588862 0.28217083 0.26611683
000070 cd 7c 47 3e c1 52 43 3e bc a0 32 3e f6 22 c6 3d
       0.19481201 0.19074537 0.17444128 0.09674637
000080 b2 cf 71 3e f5 91 83 3e a0 3c 0e 3e 35 8a 4e 3e
       0.23614386 0.25697294 0.13890314 0.2016991
000090 6c b5 16 3e 58 6f 40 3e d3 d4 55 3e 0c 4b 9d 3e
       0.14717644 0.18792474 0.20881967 0.3072132
0000a0 72 44 64 3e 24 ee 7d 3e b6 f7 87 3e 13 22 04 3e
       0.22291735 0.24797875 0.26556176 0.12903623
0000b0 ee e5 7d 3e cd f6 0b 3e 0a e5 20 3e c4 9f 08 3e
       0.24794742 0.13668366 0.15712371 0.13342196
0000c0 0d 3e 5f 3e ef 2b a3 3e 0f b1 9e 3e f3 68 25 3e
       0.21801014 0.31869456 0.3099446 0.16153316
0000d0 75 67 2c 3e 3b 84 90 3e ee 1a 21 3e 47 c4 9d 3e
       0.1683634 0.28225884 0.15732929 0.3081381
0000e0 29 7c bb 3d 18 bc 06 3e ee c0 98 3e cb 9f 1b 3e
       0.09154541 0.1315769 0.29834694 0.15197675
0000f0 45 6c 80 3e 7c 4d 9b 3e 95 52 63 3e 75 88 9a 3e
       0.25082603 0.30332553 0.22199471 0.30182233
000100 a1 cd 13 3e 63 81 11 3e ce 20 3a 3e f4 2f 92 3e
       0.1443391 0.14209513 0.18176576 0.2855221
000110 ba 4b 79 3e ab 78 82 3e e3 d3 52 3e 8b b2 13 3e
       0.24345294 0.25482687 0.20588641 0.14423577
000120 eb 1d 56 3e 83 ef 8e 3e 50 07 74 3e 48 37 6d 3e
       0.2090985 0.27917108 0.23830914 0.2316562
000130 df 56 80 3e 14 50 73 3e 78 cb 92 3e f6 7d 4d 3e
       0.25066277 0.23761016 0.2867086 0.20067582
000140 d8 17 63 3e 4f 77 76 3e d8 4b 95 3e 2c 40 72 3e
       0.22177064 0.2406895 0.29159427 0.23657292
000150 ba 69 2b 3e 5a 36 27 3e e6 6c 57 3e aa 1c 45 3e
       0.1673955 0.16329327 0.21037635 0.19249216
000160 8d da a2 3e bf 92 42 3e ec c0 b7 3d f9 62 53 3e
       0.31807366 0.19001292 0.08972344 0.20643224
000170 4e ab 4c 3e 8d a6 89 3e 0f f6 97 3e c2 cf 37 3e
       0.19987223 0.2688488 0.29679915 0.17950347
000180 7c 54 93 3e 13 16 98 3e 94 6b 62 3e 08 2f 0e 3e
       0.28775394 0.2970434 0.2211135 0.13885128
000190 6f 0a 46 3e 9f 89 95 3e 04 f1 90 3e 75 f3 96 3e
       0.19339918 0.2920656 0.2830888 0.29482618
0001a0 dc 1e 9d 3e ed 8d 56 3e 15 e0 92 3e 11 13 3e 3e
       0.30687606 0.20952578 0.28686586 0.18561961
0001b0 6c d6 3f 3e 8f b4 0e 3e b2 96 0c 3e b4 4b 83 3e
       0.18734139 0.13936065 0.1372936 0.25643694
0001c0 03 38 45 3e 10 c0 82 3e 4a 36 2a 3e e9 ce 42 3e
       0.19259648 0.25537157 0.16622272 0.19024242
0001d0 31 42 6f 3e af b3 08 3e cd d9 1b 3e 88 88 6d 3e
       0.23365094 0.13349794 0.15219803 0.23196614
0001e0 04 aa 34 3e 37 03 6a 3e 99 ad 10 3e 4f 2e a6 3e
       0.17642981 0.22852789 0.14128722 0.32457206
0001f0 15 a8 59 3e df f4 82 3e 32 af 0a 3e 59 48 3c 3e
       0.21255524 0.25577447 0.13543394 0.18386973

in/kernel/transpose f4 [128, 890]
000000 2a e5 9c bd 1b 2f 26 be 94 19 fc bc 32 47 00 bd
       -0.07660897 -0.16228907 -0.030773915 -0.031317897
000010 1d 73 07 bd b7 1c 2b be 3d 58 18 be 43 a5 2a be
       -0.033068765 -0.16710173 -0.1487741 -0.16664605
000020 85 24 0e be c6 f6 21 be 55 1e 04 3e ca 5d bf 3d
       -0.13881119 -0.15816793 0.12902196 0.09344061
000030 77 1e 26 3c 10 e4 22 bd 5c 96 14 3e 54 15 2a be
       0.010139099 -0.03976828 0.14510483 -0.16609699
000040 ff 6b 2a be 8b aa 2c be 16 dc f3 3d a0 da e9 bd
       -0.1664276 -0.16861932 0.119072124 -0.114186525
000050 f6 42 91 3c 15 00 d5 bd 07 14 50 3e 06 e7 53 3e
       0.017732125 -0.10400406 0.2032014 0.20693597
000060 7e b2 0d be 0a 8b 7f be be 8c 1d be 58 94 2b be
       -0.1383762 -0.24955383 -0.1538572 -0.16755807
000070 d6 d5 1c bd 3b c8 ed bc 5d 4f 1f 3e cd b5 03 3e
       -0.038289867 -0.029026141 0.15557618 0.1286232
000080 48 2e 6a 3e 0b e1 eb 3d 2d 14 65 3d 66 d8 f8 bd
       0.22869217 0.11517533 0.055927444 -0.1215065
000090 5c 06 a8 bd a3 62 0f 3e e4 29 4d 3e 56 99 f0 3c
       -0.08204338 0.1400247 0.20035511 0.029369991
0000a0 d3 f3 ad bd 69 f8 d3 bd a4 f5 b4 bc 9d 8b da bd
       -0.084937714 -0.10350115 -0.022089787 -0.1067116
0000b0 10 e8 df 3d 83 c8 07 be 48 71 20 be d0 5a 09 3e
       0.10932934 -0.13260083 -0.15668213 0.13413548
0000c0 a8 ef 27 bd d1 04 67 bc 43 e9 4e 3e b6 b8 2b bd
       -0.04100004 -0.014100269 0.2020617 -0.0419242
0000d0 13 65 5b bc 82 7c 02 3d 38 c3 e4 3d 39 fc 35 3e
       -0.013390797 0.03185702 0.111700475 0.17771997
0000e0 b9 80 a7 bd 86 2e fe bd 95 12 83 3d 4f 5a 67 bd
       -0.08178849 -0.124112174 0.064000286 -0.05648261
0000f0 68 d6 19 be f6 aa d1 3d b6 4c b6 3b b8 9f ad 3c
       -0.15023196 0.10237686 0.005563344 0.021194324
000100 13 d7 70 3d c6 12 44 3d f0 4c ee bd 84 7a 86 3e
       0.05879886 0.047869466 -0.116357684 0.26265347
000110 33 51 e3 3d 0d 29 ea bd 9e ad 39 bd c4 c7 70 3e
       0.11099472 -0.11433611 -0.04533159 0.23513705
000120 d4 1c f5 bd eb 37 02 bd 73 91 0a be 18 46 10 bd
       -0.11968389 -0.03179161 -0.13532047 -0.035223097
000130 13 6b 6b bd 21 a2 db bd e5 be 8c 3d 16 24 6e bd
       -0.05747516 -0.10724283 0.06872348 -0.058139883
000140 18 22 1a 3e 4b 5c 95 bd 3f 07 a5 3d 38 d0 08 3e
       0.15052068 -0.07292994 0.08058023 0.13360679
000150 d6 b1 0d 3e be 4f 18 be de 45 67 3c fe 95 07 be
       0.1383737 -0.14874169 0.014115779 -0.13240811
000160 9b a6 29 bc 53 f1 fc bc f0 38 b1 3c ba 60 44 bd
       -0.010354663 -0.030876791 0.021633595 -0.04794381
000170 ab a9 03 bd 42 3a 85 bd 4a 41 ba bd d1 20 80 3d
       -0.03214423 -0.065052524 -0.09094484 0.06256259
000180 ed 1d 18 3e 07 02 a6 3c 96 44 23 bb cf 5c 8c bd
       0.14855166 0.020264639 -0.0024912707 -0.06853639
000190 c0 43 d1 bd 07 d4 14 3e 27 fd ba bd bd 0d cd bd
       -0.102180004 0.14534007 -0.09130316 -0.10012386
0001a0 4d 01 19 bd 1f 4e 55 3e 1c e3 20 bd 0b 4b 22 3e
       -0.037354756 0.20830582 -0.03927909 0.15848939
0001b0 e0 90 5c 3e de c4 1a bd 3f 81 48 be cc 6f 26 bd
       0.2153964 -0.037785403 -0.19580553 -0.04063396
0001c0 bb 9d 3c bd 8e 3d e9 3d 61 45 e6 3d a7 54 70 3c
       -0.04604886 0.11388694 0.11243702 0.01466862
0001d0 59 62 15 be 0b 0a 71 be c5 f8 31 3e 1d 53 3b 3c
       -0.14588298 -0.23538987 0.17380054 0.01143339
0001e0 0c 6a e2 3d 40 04 db bd 5a ad c6 3d 93 7d 35 3e
       0.11055383 -0.1069417 0.09701033 0.17723684
0001f0 82 2c 40 3e 95 4d 97 bc 70 f7 90 bc 41 4b 73 3e
       0.18766978 -0.018469611 -0.017696112 0.23759176
000200 64 b9 54 3e b8 68 45 3e 85 c6 e6 bd d9 22 6e be
       0.20773846 0.19278228 -0.11268333 -0.23255481
000210 9b 2c 87 3c 07 b4 3f bd 80 cf a8 bc f3 3b 74 3e
       0.016500762 -0.046802547 -0.020606756 0.23850994
000220 c2 ca 0b 3e 24 36 9f 3d e8 c3 76 bd f4 2d cb bd
       0.13651565 0.077739984 -0.060245425 -0.09920874
000230 65 b8 80 3e 97 bc 86 be 75 9e e2 bd a9 f6 d3 3d
       0.25140682 -0.26315758 -0.110653795 0.10349781
000240 29 79 7d be d3 93 17 bd 80 f7 14 ba 06 c1 d2 bd
       -0.2475325 -0.03700621 -0.00056826323 -0.102907225
000250 fa 3a b7 3d 71 9c 5e bd 28 8c 60 be 36 a8 7b bd
       0.08946796 -0.054348413 -0.21928465 -0.061439715
000260 58 e0 75 bd 91 dd 37 3d b2 fb 24 be dc c2 97 3b
       -0.060028404 0.044889037 -0.16111639 0.0046313833
000270 be c5 b4 bd 35 5a 00 be 19 4f 24 3e 90 13 83 bd
       -0.08826779 -0.12534411 0.16045798 -0.064002156
000280 c8 38 d3 bd 98 00 37 3e d1 d7 10 be a7 f7 01 3e
       -0.103135645 0.1787132 -0.14144827 0.12692128
000290 33 78 b9 bd e5 10 2b be 4c 4e a4 bd de a4 2b be
       -0.09056129 -0.16705664 -0.080227464 -0.1676211
0002a0 35 55 e7 3d da b1 c4 3d b6 9a ed 3d 05 ac 0a 3e
       0.11295549 0.09604235 0.116017744 0.13542183
0002b0 7b 6a 1f bd 70 a3 8b 3d 7a 74 09 3e 1c b5 ba bd
       -0.038919907 0.068182826 0.13423339 -0.09116575
0002c0 02 75 31 be 3b d8 7d be 12 1b f3 bd ed 2d 07 be
       -0.17329791 -0.24789517 -0.118703976 -0.13201113
0002d0 c9 ae 25 3e 10 36 a9 bb 19 80 2f 3e 68 4d 61 be
       0.16179956 -0.0051639155 0.17138709 -0.22002184
0002e0 91 cd d2 bd 8c 67 0a be db 3e 85 3e 8d cb 2d be
       -0.10293115 -0.13516062 0.26024517 -0.1697218
0002f0 ae dc 42 be 75 c3 4a bd d5 33 3c 3e 1d af 48 bd
       -0.19029495 -0.04950281 0.18379147 -0.048995126
000300 60 e5 72 bd 65 46 ae bd 07 36 bd bd bc 54 28 be
       -0.05930078 -0.085095204 -0.092388205 -0.16438574
000310 bb 17 36 be 00 05 03 be 36 bb 18 be 92 92 6f bc
       -0.1778249 -0.12794876 -0.14915165 -0.014622347
000320 d2 78 8c 3e 3f 6b 4e be 4e af e9 bd 64 bf 1d 3e
       0.2743593 -0.20158099 -0.1141039 0.15405041
000330 f6 1c e0 3d 54 2e 60 3c bc 34 48 bd 98 ff fc bd
       0.10943024 0.0136829205 -0.048878416 -0.12353438
000340 1f 7f e2 3c 04 9f 21 be d4 f3 0a 3e 26 c5 27 be
       0.027648507 -0.15783316 0.13569576 -0.163838
000350 4b cf 5c 3e 63 94 60 bd ad ee 2b be c8 11 22 3d
       0.21563451 -0.054829013 -0.16790266 0.03956774
000360 8d 8d 31 bd 80 3e 18 3e 79 0a 4f bd fc 5c 24 be
       -0.043347884 0.14867592 -0.050547097 -0.16051096
000370 f6 1e a2 bd 9f 59 d1 3d ba 6d b0 bd 0f 31 9a bd
       -0.079160616 0.10222172 -0.08614679 -0.075288884
000380 29 91 69 3e f0 4a 5e 3e 1a ed 17 3e 8a 53 cc bd
       0.2280928 0.21708274 0.14836541 -0.09976871
000390 0d 2f 90 bd b5 c2 be 3c a4 b5 04 3e 77 f8 5b bd
       -0.07040224 0.023286203 0.12959915 -0.05370375
0003a0 7b e7 a7 3d dd 79 58 bd 19 d3 5d bc a1 a0 09 be
       0.08198448 -0.052850593 -0.013539099 -0.13440181
0003b0 2f 69 e3 bd 45 18 97 bd c1 e8 d5 3d 57 5d 0e 3e
       -0.111040466 -0.07377676 0.10444785 0.13902794
0003c0 5b a5 26 be 50 fc 15 bd ed 84 2e 3e c8 ba 2d 3e
       -0.16274016 -0.036617577 0.17042895 0.16965783
0003d0 92 b1 6c 3e 11 a7 00 3e cc 66 15 3e 45 6f f3 bd
       0.23114613 0.12563731 0.14589995 -0.11886457
0003e0 22 f8 28 be 9f 46 ec 3d 38 5b ea 3d 8b 56 e8 3d
       -0.16500905 0.115369074 0.1144318 0.11344632
0003f0 f2 39 ff bd 21 97 04 3e 83 92 14 bc 9c e1 ce bd
       -0.12462224 0.12948276 -0.009068134 -0.10101625

out/MatMul_bias f4 [38]
000000 8a f1 85 bd 4b 92 d8 bc d5 83 11 bd 16 5c ad bc
       -0.065402105 -0.026436945 -0.035526115 -0.021162074
000010 89 7b 60 3d 7c 55 de 3c 83 2a 71 bd 1c 3a 31 3c
       0.054805312 0.027140372 -0.058878433 0.010817077
000020 f6 c5 c9 bd ec 19 b4 bc 81 a4 03 bc 37 91 21 bd
       -0.09852211 -0.021985017 -0.008034826 -0.03944513
000030 2b b5 84 3c a0 62 2d 3d 4d c0 02 3e 4e ac 91 bb
       0.016199669 0.042330384 0.1276867 -0.004445589
000040 82 2a cd bd 85 48 06 bc 58 53 c7 bc ba d5 0e 3d
       -0.10017873 -0.008196001 -0.024331734 0.034871794
000050 52 bd 99 3d ed 6e 48 be a0 62 b5 bd b4 3e 8e 3d
       0.07506813 -0.19573565 -0.08856702 0.069455534
000060 36 7f 1c 3d 74 5f 54 3c 54 a1 85 bb c9 0d 9a bc
       0.038207255 0.012962211 -0.0040780697 -0.018805401
000070 bd 3e 1e 3d b9 39 57 bb c4 bc ac bd 93 be 6f 3d
       0.03863405 -0.0032840802 -0.08434442 0.058531355
000080 3c 79 73 3c 48 5a 00 bd 44 57 c8 bd 4a 59 76 bd
       0.0148604475 -0.0313361 -0.097822696 -0.060143746
000090 17 d1 dc bb b2 fa 22 bd
       -0.0067387926 -0.039789863

out/kernel/transpose f4 [38, 128]
000000 06 ff 42 3e 81 c9 11 bf 88 78 d1 be b0 d2 00 bf
       0.19042596 -0.56948096 -0.4091227 -0.50321484
000010 7a a0 8d be 74 54 98 3d a4 3f 81 3e c8 64 30 3e
       -0.27661496 0.07437983 0.25243866 0.17225945
000020 c1 43 39 3e 51 c3 26 3e 9d 8f ec bd 74 fc 44 3e
       0.18092252 0.16285445 -0.115508296 0.19236928
000030 c8 bf 56 3e d7 db 25 bf a8 e6 45 3e c1 d1 6f be
       0.20971596 -0.64788574 0.1932627 -0.23419859
000040 af c0 06 3e b2 02 27 bf 8a 19 d7 be 2b 55 3c 3e
       0.1315944 -0.6523849 -0.42011672 0.18391864
000050 6a 0a 8e 3d 8a 7d 9f 3e 81 f4 68 3e 29 85 34 bf
       0.0693558 0.31150466 0.22749521 -0.70515686
000060 96 46 e0 be be 93 4f bf b8 73 5b 3e f2 f7 87 3e
       -0.43803853 -0.8108481 0.21430862 0.26556355
000070 d0 5d fc 3c 5e 59 03 bf 56 16 b0 3d ed a0 93 3d
       0.030806452 -0.5130824 0.0859801 0.072084285
000080 30 d8 4e 3e c2 58 22 bf cc b5 7f be 7b c5 87 3e
       0.20199656 -0.63416684 -0.24971694 0.26517853
000090 48 10 97 3e ee 14 00 bf a8 87 89 3e 38 9d 58 bf
       0.2950461 -0.50031936 0.2686131 -0.84614897
0000a0 ea 50 dc be 33 cb f5 be ec f0 0a bf 1e 80 6f 3e
       -0.43030483 -0.4800659 -0.5427387 0.23388717
0000b0 6a 81 44 bf 76 00 2c be a0 96 28 bf af ab ea be
       -0.7675997 -0.16797051 -0.65854836 -0.4583411
0000c0 41 96 07 bf a8 f4 9d be d2 c3 b0 be 90 4c 36 bf
       -0.52963644 -0.3085072 -0.345244 -0.71210575
0000d0 58 d5 5d 3e ff 69 5f bf 02 88 6e 3e a4 9a ae 3e
       0.21663415 -0.8727111 0.2329407 0.34102356
0000e0 ce 59 89 bd 78 42 20 bf 53 a8 d9 be de 1e 13 3e
       -0.06706582 -0.62601423 -0.42511234 0.14367244
0000f0 24 e6 11 3e 79 5a 82 3e 2b 58 4b 3e 79 6d 68 3e
       0.14247948 0.2545965 0.19857852 0.2269801
000100 0f 6d 4b bf 07 15 1d 3e d7 f0 2b bf cb 0a 24 bf
       -0.79463285 0.15340053 -0.6716437 -0.6407897
000110 96 4c 15 bf c2 b5 95 3e 95 92 a4 3e 51 53 ae bd
       -0.58319986 0.29240233 0.32143083 -0.08511985
000120 39 ad 9c be 1a 75 33 bf f6 f4 1f bf 4f ff 5d 3e
       -0.30600908 -0.7010056 -0.62483156 0.21679424
000130 31 85 5f 3e b0 be c3 3c 97 0d 11 bf 68 71 98 3e
       0.21828152 0.023894638 -0.5666136 0.29774022
000140 05 be 0d 3e a9 d4 25 bf 5a 3d 88 3e cb 30 11 bd
       0.13842018 -0.6477762 0.26609308 -0.035446923
000150 61 9e 5e 3e f0 4c e8 be ba 2c 42 bf 83 b7 a0 be
       0.21740104 -0.453712 -0.758495 -0.31390008
000160 cb f7 70 3e 2b f9 7d 3c 8b eb 55 bf 76 bc 25 3e
       0.23532026 0.015501301 -0.83562535 0.16185173
000170 7a 5b 05 bf e6 25 05 bf 90 3b 87 3e d5 6e 00 bf
       -0.5209271 -0.52010953 0.2641263 -0.50169116
000180 72 f9 9c 3e dc b9 63 3e fb e1 8e 3e 4c 86 46 3e
       0.30659062 0.22238868 0.27906784 0.19387168
000190 7a 47 b1 bd 46 dd 56 bf a2 ce 71 bf 50 68 89 3e
       -0.08656211 -0.83931386 -0.9445592 0.26837397
0001a0 34 87 88 3e 18 f6 57 bf dd 5b d9 be ea a9 b2 be
       0.26665652 -0.84359884 -0.424529 -0.3489526
0001b0 58 64 8e 3e 66 4e 56 3e d9 2d cf be a0 76 32 bf
       0.2781093 0.20928344 -0.40464666 -0.6971226
0001c0 91 a0 5a 3e 48 d9 c1 be 1f 08 e6 3d 97 ed d5 be
       0.21350314 -0.37861085 0.11232018 -0.4178283
0001d0 12 06 30 3e b4 e9 f2 3d 1b c4 21 bf 69 f0 b9 be
       0.17189816 0.118609816 -0.6318986 -0.3631623
0001e0 01 10 bf 3d bc 28 08 3e 0e f7 14 bf b6 de 5c bf
       0.093292244 0.13296789 -0.58189476 -0.8627733
0001f0 da 01 25 3e 5e a6 03 3e d4 d9 50 3e 73 c0 0b bf
       0.16113988 0.12856433 0.20395595 -0.5459053
000200 a7 96 01 bf d8 c9 84 be a9 52 0a 3e 02 04 9b be
       -0.506205 -0.25935245 0.13508095 -0.30276495
000210 8c 73 33 3e c8 60 8a bf 70 0f 87 3e 3c 5c 3e bf
       0.17524546 -1.0810785 0.26378965 -0.7435949
000220 ff 40 f5 3d b8 94 16 3e 80 86 c6 be 37 30 5e 3e
       0.11975288 0.14705169 -0.3877449 0.2169808
000230 79 f6 96 be a1 66 10 bf 80 16 aa 3e 4b 5e 68 3e
       -0.2948492 -0.564066 0.3322029 0.2269222
000240 c8 a6 0c bf ff b2 43 be 27 02 86 3e 4a eb cd be
       -0.5494199 -0.1911125 0.26173517 -0.40218574
000250 42 7c 97 3e a6 95 d7 be 70 48 9b be c1 0d 24 3a
       0.2958699 -0.4210636 -0.30328703 0.0006258153
000260 f5 9c 0e bf 6a a1 5b 3e 91 41 e9 be 19 63 e2 be
       -0.5570825 0.21448293 -0.45557836 -0.4421623
000270 51 2f 4c 3e 66 3d c7 be 5c 32 94 bf fd b9 66 bf
       0.19939925 -0.3891403 -1.1577868 -0.90127546
000280 a2 76 8a 3e 55 e3 0f be 9b 4e 6b bd 80 dc cd bd
       0.27043635 -0.14051564 -0.05744801 -0.10051823
000290 93 0d d9 be ea a6 d9 be d7 de d3 be a8 23 3b 3e
       -0.4239317 -0.42510158 -0.4138095 0.1827532
0002a0 0a 16 99 3e 6b 2d b2 3e f2 9a a7 be f3 e6 9e 3e
       0.29899627 0.34800276 -0.327354 0.31035575
0002b0 1a 53 d3 be d7 b5 4c 3e 57 3a 60 3e d7 88 a3 3e
       -0.4127434 0.19991241 0.21897255 0.31940338
0002c0 e5 37 92 3e 80 98 35 bf 53 c7 f0 3d 03 f6 3a bf
       0.2855827 -0.7093582 0.11756768 -0.73031634
0002d0 0f 4f bd be f3 4e 9a 3e 03 79 01 bf bd 07 0e bf
       -0.3697438 0.30138358 -0.50575274 -0.5548056
0002e0 c7 12 b3 bd 88 73 8c be 03 1a 89 3e a7 68 c4 3e
       -0.08743816 -0.27431893 0.26777658 0.38361093
0002f0 3c 6c 59 bf ae ee 1e 3e ab 9f a6 3e 3c a6 45 bf
       -0.8493078 0.15520737 0.32543692 -0.7720678
000300 df 2e 06 bf 94 ef 17 bf 63 15 03 bf ba 50 09 3e
       -0.5241527 -0.5934994 -0.5120451 0.13409701
000310 78 4f 9e be 43 61 3c bf 40 1c 23 3e 20 eb 8a 3e
       -0.30920005 -0.7358591 0.15928745 0.2713251
000320 62 4f 2b bf cd 3f 19 bf eb e9 97 be 96 2e 19 bf
       -0.66918004 -0.5986298 -0.29670653 -0.5983671
000330 b2 90 f4 be fc e9 08 3e c0 de 14 bf b9 44 3b 3e
       -0.47766644 0.13370508 -0.5815239 0.18287934
000340 62 65 23 3d fc 0e 96 3e 1e bb 57 3e 23 92 8b be
       0.039891608 0.29308307 0.21067473 -0.2725993
000350 c8 98 ca be e9 5f 11 bf 0a bf ec be 89 bc 40 3e
       -0.39569688 -0.5678697 -0.462395 0.1882192
000360 b6 62 0a 3e 9f 3a a6 3e 3b 49 59 3e 26 b4 da 3d
       0.13514218 0.324666 0.21219341 0.10678892
000370 ff 8f 37 bf 4a 2d ab be a8 ae 65 3e 08 96 01 bf
       -0.71704096 -0.3343299 0.22429907 -0.50619555
000380 12 50 3e be 42 fc f5 be ba 6d d6 be 39 41 82 3e
       -0.18585232 -0.4804402 -0.4188059 0.25440386
000390 74 55 85 be ba 65 00 bf 11 5f 80 bf bb 95 5b be
       -0.26041758 -0.5015522 -1.0029012 -0.21443836
0003a0 0d c7 9e 3e f5 fb aa 3e 44 77 35 bf 46 27 14 bf
       0.3101124 0.33395353 -0.7088511 -0.57872427
0003b0 64 06 4f 3e 19 62 44 3e b0 60 1b 3e c7 47 59 3e
       0.20217282 0.19178046 0.15173602 0.21218787
0003c0 6e 30 b7 bd 82 cf 01 bf 0e 6c 17 bf 73 eb 0e bf
       -0.08944784 -0.50707257 -0.59149253 -0.55828017
0003d0 7c 87 80 3e 8d d2 19 be 20 dc 5b 3e 00 fc 11 bf
       0.25103366 -0.15021725 0.2147069 -0.57025146
0003e0 fc d6 37 3e ab 9e 7b be 8f eb 85 bf fe 95 9c 3e
       0.17953104 -0.24572246 -1.0462512 0.30583185
0003f0 e4 0b 29 bf 4b d5 a2 3e 04 1f 8a 3e 73 8b 15 bf
       -0.6603377 0.31803355 0.26976788 -0.5841591
