bots/en/Panda.chatbot/converted_model.tflite (tflite, 110436 bytes, 4 tensors)

in/MatMul_bias f4 [64]
000000 da 2d 21 3e 4c d5 47 3e a3 8a ac 3e 05 34 62 3e
       0.15740147 0.1951496 0.3369952 0.22090156
000010 dd 51 52 3e 99 4a 96 3e 83 0f 3c 3e 88 a3 08 3e
       0.20539041 0.29353788 0.18365292 0.13343632
000020 5d 74 45 3e 15 7e 96 3e 61 f1 80 3e c9 7a 91 3e
       0.1928267 0.29393068 0.25184157 0.2841399
000030 4e 7b 75 3e 61 a5 12 3e 84 ea 6e 3e 9b 80 6a 3e
       0.23972818 0.143209 0.23331648 0.22900622
000040 6a 30 d9 3d 1d 6f 68 3e 8c 59 81 3e 1a 04 9d 3e
       0.106049374 0.22698636 0.2526363 0.30667192
000050 23 00 82 3e 1e 0f 1b 3e 1f fa 6e 3e e7 ce 8c 3e
       0.2539073 0.15142485 0.23337601 0.27501604
000060 03 a2 87 3e 81 13 3e 3e 4e b2 7a 3e 7c a4 25 3e
       0.26490793 0.18562128 0.2448208 0.16176027
000070 2f 7c 61 3e fc c9 be 3e 9d 7a 8c 3e c8 35 3f 3e
       0.22020029 0.37263477 0.27437297 0.1867286
000080 4f 4f 2a 3e e5 54 82 3e 0e a4 27 3e 85 58 28 3e
       0.16631816 0.25455394 0.16371176 0.16440018
000090 46 c4 42 3e fd 00 24 3e c3 c8 3d 3e 25 6d 81 3e
       0.19020185 0.16016002 0.18533616 0.25278583
0000a0 4f 43 8a 3e 24 c6 e8 3d 18 2a a8 3d 01 ef 27 3e
       0.27004477 0.11365917 0.08211154 0.16399767
0000b0 19 f4 4d 3e e0 35 ba 3e 76 c6 87 3e 49 2f 53 3e
       0.20112647 0.36369228 0.265186 0.20623507
0000c0 b5 4c 59 3e 84 fa 86 3e 5f 58 76 3e 10 1a 17 3e
       0.21220668 0.26363003 0.24057148 0.14756036
0000d0 41 5d 29 3e c2 ad 52 3e 78 02 12 3e 15 34 08 3e
       0.1653948 0.20574096 0.14258754 0.13301118
0000e0 cb 97 4b 3e 73 9a 8a 3e 6a 64 9f 3e 7a 95 48 3e
       0.19882123 0.2707096 0.31131297 0.19588271
0000f0 85 94 4b 3e 19 0e 00 3e 80 55 35 3e 5a 92 89 3e
       0.19880874 0.12505378 0.17708397 0.2686947

in/kernel/transpose f4 [64, 407]
000000 f2 27 a5 3d 11 24 df 3d 39 81 5e bc 37 f0 0e be
       0.080642596 0.10895551 -0.013580614 -0.13958822
000010 ff f9 f3 3d 58 c3 0e 3e 07 b3 50 3e 6f 11 95 bd
       0.11912917 0.13941705 0.20380794 -0.07278716
000020 e5 32 f1 bd 5a 5f fd 3d 51 ed 24 3d 4e f7 8a bd
       -0.117772855 0.123717025 0.040265385 -0.06785451
000030 00 7d 28 be b6 e9 64 be 76 32 12 bd 40 70 14 bd
       -0.16453934 -0.22354779 -0.035692655 -0.036239862
000040 c4 f1 62 be 9a 90 b0 3e 07 51 ef bd 75 42 2f 3d
       -0.22162539 0.34485322 -0.116853766 0.042787988
000050 68 24 82 3b 06 51 ae bd 9d 65 a0 bd db 99 fa bd
       0.003971625 -0.08511548 -0.07831881 -0.12236377
000060 88 6f 55 3d cf 43 86 3d b8 1c 30 be fc fe ef bc
       0.052108318 0.06555902 -0.17198455 -0.02929639
000070 0d 04 c5 bb c0 8b 6c 3e ba 31 7c bd 2a 3b 17 bd
       -0.006012446 0.23100185 -0.06157086 -0.036921658
000080 4a 14 fc 3d 34 fa de bc 68 a1 48 bd 69 64 55 3e
       0.12308557 -0.027218916 -0.048982054 0.20839085
000090 2f 46 21 3d 92 ad bc bd c3 1d 8d 3e 00 2f d1 bd
       0.039373573 -0.092127934 0.2756177 -0.10214043
0000a0 78 92 05 be bb 10 9e be 1e c5 bf 3c 91 96 25 3e
       -0.13044155 -0.3087214 0.023409422 0.16170718
0000b0 b3 f8 89 3d 30 1f b0 3d ea 1b cc bd f9 d5 10 3d
       0.06736889 0.085996985 -0.09966262 0.03536031
0000c0 d9 7d 19 3e ed b3 4b 3e e9 1c 6d be 60 6d 44 be
       0.14989413 0.19892855 -0.2315556 -0.19182348
0000d0 a1 2e 46 be d6 de a7 bd 5a 95 17 3e 93 75 f4 3d
       -0.19353725 -0.081967995 0.14803067 0.11936488
0000e0 82 e3 0c be 2d 61 a2 bd 5b 48 5c 3e 09 b7 a0 bd
       -0.13758662 -0.07928691 0.21511976 -0.07847411
0000f0 d7 7a 92 bd fe 08 dd bd 9b 03 14 3e 42 ff cc bd
       -0.07152336 -0.10792731 0.144545 -0.10009624
000100 49 1c 06 3c ce ef ab bd 87 26 dc bd 2c 93 90 3e
       0.008185455 -0.083953485 -0.10749536 0.28237283
000110 e6 f2 24 be f5 0f 93 bd 72 2a 1d 3e a5 89 31 3e
       -0.16108283 -0.07180778 0.15348223 0.17337663
000120 e0 46 0a be b4 37 03 bd 81 09 9e bc ed 47 04 3d
       -0.13503599 -0.032035545 -0.019291641 0.032295156
000130 6d 45 46 3c 5f 42 40 bc e1 bf cf bd d7 f3 b7 bd
       0.012101513 -0.011734574 -0.1014402 -0.08982056
000140 51 0e 76 bd 77 89 10 be 93 1d 59 3e 9f 8a be bd
       -0.060072247 -0.14114939 0.21202688 -0.093037836
000150 21 86 c8 bd 8a 93 1f be 91 38 1b 3e 18 f2 46 be
       -0.09791208 -0.15583625 0.15158297 -0.19428289
000160 f9 0a bb 3d fb b5 a6 3d d2 99 d4 bc 5f 80 69 bd
       0.09132952 0.08140179 -0.025952253 -0.05700719
000170 9c bd 6c 3b 96 7f 8d 3e dd d4 05 3e cd d9 30 3e
       0.0036123758 0.27636403 0.13069482 0.17270584
000180 a8 5f 13 3e e7 8a d1 3d 14 e5 6d 3d 90 9a e2 bc
       0.14391959 0.10231572 0.058079794 -0.027661592
000190 ff 34 18 be 4e 77 3e 3e 4b 06 d8 bd b1 ea 5d 3e
       -0.14863966 0.18600199 -0.10548075 0.21671559
0001a0 a8 bd 6f bd 30 3a 47 3e 65 58 34 3e 11 30 e5 bd
       -0.05853048 0.1945579 0.17611845 -0.111908086
0001b0 e0 75 1d b6 7a 04 96 3e d8 0a 2d bd 62 7f 99 3d
       -2.3463435e-06 0.2930029 -0.04224667 0.074949995
0001c0 50 f4 c3 bd fe c9 7d 3d 2f 4a 55 3e 57 68 18 be
       -0.09568083 0.061960213 0.2082908 -0.14883552
0001d0 5e 24 33 bd 73 46 39 3e 3a c1 15 be 87 b1 02 be
       -0.043735854 0.1809328 -0.14624491 -0.12763034
0001e0 3a e3 76 3e e6 96 30 be f7 95 53 be 33 df 2c 3d
       0.24110118 -0.17245063 -0.20662676 0.042205047
0001f0 b2 f1 3f 3e f0 f9 86 bd 0c be ff 3d 9e 87 8d 3e
       0.18744543 -0.065906405 0.124874204 0.2764253
000200 ad 83 ca bd db 8c 06 3e d9 93 cf 3d 80 d4 01 3e
       -0.098883964 0.1313967 0.101356216 0.12678719
000210 9c b1 a3 bc 15 4a 31 be 0a 93 a6 bd 80 f0 95 bd
       -0.019982152 -0.17313416 -0.08133514 -0.07321262
000220 db 27 0b 3d 95 87 1e be 17 70 02 3e 64 b1 a1 bd
       0.033973556 -0.15481408 0.12738071 -0.07895163
000230 30 b0 d1 bd c9 0f d7 bc 3a 7e b7 bd ae 84 bd 3d
       -0.10238683 -0.026252644 -0.08959623 0.09253822
000240 cf b4 90 3d b1 d3 2b 3e 6e 78 b9 3d 11 81 90 3e
       0.070657365 0.16779973 0.09056173 0.2822347
000250 11 9d c2 bd ce fe d8 3d 10 cd 8b 3e c7 4f 2f 3e
       -0.09502614 0.10595475 0.27304888 0.17120276
000260 ce 60 b1 bd 9d fc 34 3e 63 d7 93 bc ff b1 b7 bd
       -0.08661042 0.1767449 -0.01804704 -0.08969497
000270 4a c6 ea 3d 11 e8 47 3e cd 5d 83 3e 4c 48 b0 bd
       0.11463602 0.1952212 0.25657502 -0.086075395
000280 93 7f 5e 3e 00 84 2d 3e 74 d4 35 3d 27 4e ab 3b
       0.21728353 0.16944885 0.044392064 0.0052278223
000290 6d 3a 6d 3e 8d 7d 08 be 02 11 71 be 71 ca 85 bd
       0.23166819 -0.13329144 -0.23541644 -0.06532753
0002a0 fd e5 be bd 47 2a 1a bc 87 3a a7 3d 7a c8 83 bc
       -0.093212105 -0.009409494 0.0816546 -0.016086806
0002b0 4a a4 08 be d5 e3 fb bd 3b 0e 88 bd 99 e3 e3 bc
       -0.13343921 -0.12299315 -0.06643339 -0.027818488
0002c0 20 54 66 3e e1 68 1f 3e 7a d6 bc 3d 58 73 48 3c
       0.22493029 0.15567352 0.09220596 0.012234531
0002d0 13 2c 1a 3e ec 5b 56 3e f0 b6 32 3e 0c 0c 9d 3b
       0.15055875 0.20933503 0.17452598 0.004792696
0002e0 94 55 7c 3e ed cd e6 bd 3d dd df bd 4b 8f 3d be
       0.2464202 -0.11269746 -0.1093087 -0.18511693
0002f0 b0 42 43 3e 31 9d 3a be 3f ef 15 3e a0 a7 a8 bd
       0.19068408 -0.18224026 0.14642046 -0.08235097
000300 c8 85 14 3e 76 ee 2f 3d 21 a0 23 3e 0e e4 9c 3b
       0.14504158 0.042952023 0.15979053 0.0047879284
000310 49 88 64 3d 18 51 40 bc 00 de b6 3d e0 69 7b be
       0.055794034 -0.011738084 0.08929062 -0.24552107
000320 1c c6 73 be 05 e9 22 be 88 ad 5a 3e 14 ba e4 bc
       -0.23806041 -0.15909202 0.2135526 -0.02792076
000330 4d ae 31 bd c2 b4 cb 3c 22 72 87 3d 9e 04 4a 3d
       -0.043379117 0.024866465 0.06613566 0.04932081
000340 85 32 2c bd 76 6c 7f bd 03 9d 70 bd c0 02 28 be
       -0.042040367 -0.062359296 -0.058743488 -0.16407299
000350 35 39 26 be d2 a2 30 ba e4 e4 2c be 24 f7 0b be
       -0.1623276 -0.00067381293 -0.1688419 -0.13668495
000360 77 e2 55 3e 17 d8 9a 3d 4a 26 11 be 62 4c 82 3e
       0.2088717 0.07560747 -0.14174762 0.254489
000370 43 03 57 be ad 63 45 3d b4 ce 36 3e 69 41 56 be
       -0.20997338 0.04819076 0.17852288 -0.2092339
000380 4c c3 97 be 52 f1 fe 3d 74 63 64 3e 8b 0b fe bd
       -0.29641187 0.12448372 0.22303563 -0.124045454
000390 e8 b8 46 be 9d 69 26 be 59 cc 55 bd 82 85 88 3e
       -0.19406474 -0.16251226 -0.052196834 0.26664358
0003a0 09 37 b0 bd ff 78 f9 bb 9d b3 3b bd cb 09 51 3e
       -0.08604247 -0.007613301 -0.04582559 0.20413892
0003b0 e5 d0 a6 3c 0e e6 84 bd 4c f0 f2 bd 19 2b 40 3e
       0.02036328 -0.06489192 -0.11862239 0.1876644
0003c0 bf c2 4a 3e e4 58 27 be e6 61 28 bd 20 21 46 3e
       0.19800852 -0.16342503 -0.04110899 0.19348574
0003d0 e6 78 3b be a4 25 25 bb c1 46 54 3e 6e 01 37 bc
       -0.18307838 -0.0025199438 0.20730115 -0.011169774
0003e0 d1 b2 3f 3c 1e 9a 57 bd b8 c6 4e 3e 93 5d 92 bd
       0.011700348 -0.052637212 0.20192993 -0.07146754
0003f0 cb d6 08 3e 77 81 fa 3d 57 c6 0a be eb da ff bd
       0.13363187 0.12231725 -0.13552223 -0.12492927

out/MatMul_bias f4 [19]
000000 63 7b c3 bd 10 fd 76 bd 3e 00 d0 3c b0 6c bd 3c
       -0.095450185 -0.060299933 0.02539074 0.023123115
000010 2a e8 e4 3d bb 3e f2 3d b3 13 8a 3d 70 99 1b bd
       0.11177094 0.11828371 0.067420386 -0.037988126
000020 8d c1 97 3c b6 4b 9f bd 14 eb 02 bd 35 db a4 3d
       0.01852491 -0.077781126 -0.03196247 0.08049623
000030 26 08 9e bc e3 ae dc bd fb 96 ab bd 1a 52 98 bd
       -0.019290995 -0.107755445 -0.083784066 -0.07437535
000040 bf 34 0b 3e 99 cd de 3b b0 f4 a3 bd
       0.1359434 0.0067994115 -0.08005655

out/kernel/transpose f4 [19, 64]
000000 e0 e6 a2 3e 3a f5 0c bf 89 12 72 3e 61 3f 3a 3d
       0.3181677 -0.55061686 0.23639883 0.0454706
000010 cd 5e fe bd c6 93 e1 be 4d fd 9c 3d 67 a6 81 3e
       -0.124204256 -0.44058055 0.07665501 0.25322267
000020 94 4d 23 bf fd 2a 3f be cd 79 4f bf 2d ed 58 bf
       -0.6379025 -0.18668742 -0.8104523 -0.847369
000030 91 e5 57 3e 9c d1 95 3e c5 30 34 bf c3 f9 8a 3e
       0.21083666 0.29261482 -0.70386916 0.27143678
000040 dd 70 10 be d8 38 1c be 65 9e 8c 3d ec 0b 0e be
       -0.14105554 -0.15256059 0.06866149 -0.13871735
000050 3e 54 9d 3e 78 ad 93 3e 4f e2 d0 be ec f1 f0 be
       0.30728334 0.28843284 -0.4079766 -0.47059572
000060 59 32 ac 3e 27 fc 30 3e e7 66 0b bf 1b eb 27 be
       0.33632162 0.17283688 -0.5445389 -0.1639828
000070 b7 c1 59 bf b0 7d 4a bd af 4d 30 bf 13 24 99 3e
       -0.8506121 -0.04943627 -0.68868536 0.29910335
000080 3b ba 01 bf 2b ab 63 3e fe 8f 29 bf 7f c4 bd 3d
       -0.5067479 0.22233264 -0.6623534 0.09265994
000090 9c c8 17 bf 1f 98 98 3e 93 36 66 bf 3f 24 1b 3e
       -0.5929048 0.2980356 -0.89927024 0.15150546
0000a0 85 06 fb 3d e1 dd 88 3e f7 b5 d7 bd 4c 8b db be
       0.12257103 0.2673178 -0.10532754 -0.42879713
0000b0 8b 1e fb 3d 24 f2 87 be 6d b1 13 bf 4c fb aa 3e
       0.12261685 -0.26551926 -0.57692605 0.3339485
0000c0 f8 d9 ca bd 2f bd be 3e 72 87 4c bf 6c ad 09 bf
       -0.099048555 0.3725371 -0.79894173 -0.53780246
0000d0 80 86 4b bf 3c 6a d0 bd 4b 11 89 3e 30 3a 10 3e
       -0.79502106 -0.101765126 0.26771006 0.14084697
0000e0 fc 98 71 3e a6 0f 0d bf 24 87 c6 be 27 d0 2c 3e
       0.23593515 -0.55102 -0.3877498 0.16876279
0000f0 1f 0e a3 3d bf 43 6e 3e a6 a9 a5 3e 4c d6 f8 be
       0.07961678 0.2326803 0.32355994 -0.48600996
000100 89 01 35 bf a0 b5 61 3d 73 69 76 bf fd 4d 45 bf
       -0.7070547 0.05510485 -0.9625465 -0.77072126
000110 68 e6 ea be db f4 3d 3e e3 20 8e 3e ca 3e 39 bf
       -0.4587891 0.18550436 0.27759466 -0.72361434
000120 34 10 47 3e f0 d0 34 3e 1e c8 84 3e c9 d5 45 bf
       0.19439775 0.17657828 0.25933927 -0.77279335
000130 3e 01 8a 3e 2c b7 2b 3e 38 3e a1 3e 8e 6a ec 3d
       0.26954073 0.16769093 0.31492782 0.11543761
000140 3f f4 29 be bf a4 e7 be 26 f3 b8 3d ce 60 5b 3e
       -0.16597079 -0.4524288 0.09030752 0.21423647
000150 d2 f6 38 bf 57 c0 9e 3c 49 5e ab 3e b9 5d 43 3e
       -0.7225162 0.019378824 0.3347037 0.19078721
000160 00 dc a4 be 9d 52 9a be b8 7c 0f bf 8b de 57 3e
       -0.32199097 -0.30141154 -0.5604968 0.21080987
000170 a2 ce 95 3e 6c 09 89 be 94 16 5e bf 09 e6 74 3e
       0.2925921 -0.26765 -0.867532 0.23915876
000180 9d 8c 55 3e ff 4a 00 bf 26 0d ad 3e 57 a5 7d 3d
       0.20854421 -0.50114435 0.33799094 0.06192526
000190 4f 72 2c bf 32 6a 83 be 52 b9 e0 3e 64 a6 6e 3e
       -0.6736192 -0.25666958 0.43891388 0.2330566
0001a0 fa e9 57 bf 00 14 a7 3e 44 48 4b be f9 36 c0 3e
       -0.84341395 0.32632446 -0.19851786 0.3754194
0001b0 6a 33 9b 3e b8 16 bf 3e 21 87 94 3e ce 47 64 bf
       0.30312663 0.3732202 0.29009345 -0.89172065
0001c0 a5 a1 ad 3e 68 7c 16 bf d6 bc 89 3e 6a 54 5b bf
       0.33912387 -0.5878358 0.26901883 -0.8567568
0001d0 e0 c7 4b bf 24 f5 3f bf a1 0e 2e bf f8 88 4a 3e
       -0.7960186 -0.7498343 -0.6799107 0.19778812
0001e0 77 9b 27 3e c7 f3 7a 3e b5 38 b7 be d1 2b a8 bd
       0.16367899 0.24507056 -0.35785452 -0.08211482
0001f0 70 8d 42 bf c0 4a a1 3e 02 fe 9a be ef dd 2e bf
       -0.75997066 0.31502342 -0.30271918 -0.68307394
000200 19 77 8f be 98 0a d0 3e 34 ab 32 bf fd a7 95 3e
       -0.28020552 0.40633082 -0.69792485 0.29229727
000210 36 0e a8 3e 65 75 5e 3e e2 74 8c be d6 d4 1c bf
       0.32823342 0.2172447 -0.27432925 -0.6126226
000220 aa 69 40 bf 7c 01 01 bf 8a 08 a6 be 24 84 70 3e
       -0.7516123 -0.5039289 -0.3242839 0.23487908
000230 83 6b 3b be 66 86 32 bf 98 ad 82 3e 90 20 51 bf
       -0.18302731 -0.69736326 0.25523067 -0.8169031
000240 5d ab cc be 73 ab 28 bf bc ca 83 3e f7 2f 8f 3e
       -0.3997449 -0.6588661 0.25740612 0.27966282
000250 7c 20 5a bf 2e b5 c1 be a7 a9 74 3e 1e 46 c3 be
       -0.8520582 -0.37833542 0.23892842 -0.38139433
000260 56 b5 a4 3e 11 67 a4 3e 96 8d 85 3e 97 35 32 bf
       0.32169598 0.32109883 0.26084584 -0.6961302
000270 8e 08 8e 3e dc 6d 9f be 31 90 c5 3e 0d b1 29 bf
       0.27740902 -0.31138504 0.38586572 -0.66285783
000280 22 1e bc 3e dd 74 62 bf 0b 07 9b be fe d7 0b bf
       0.3674174 -0.8845957 -0.3027881 -0.5462645
000290 09 ef 94 3e 68 5a 07 3f a7 0d ac 3e 5f ac 4a bf
       0.2908862 0.52872324 0.33604166 -0.7916927
0002a0 b3 1d 2e bf ff 92 18 bf d4 68 05 bf 2a fe 91 3e
       -0.6801407 -0.595993 -0.5211308 0.28514224
0002b0 07 e9 0e be 1a 6c 6d bf 5c e0 1d bf 5d ba 1b 3e
       -0.1395608 -0.92743075 -0.6167047 0.1520781
0002c0 03 f8 a2 3e db 4d 3f bf 50 55 32 bf 49 27 8b 3e
       0.31829843 -0.74728173 -0.69661427 0.2717841
0002d0 cd f9 3f 3e 5c 28 9b 3e c1 ee d2 3e c3 dd 45 bf
       0.18747635 0.3030423 0.4119778 -0.77291507
0002e0 cb 18 e0 be 21 3a 63 bf b3 b0 a6 be 2c 32 40 3c
       -0.43768916 -0.8876057 -0.32556686 0.011730712
0002f0 1c 6a 29 bf 9d 1c f3 3e 4a 6e b4 bd 81 f2 03 be
       -0.66177535 0.47482768 -0.088100985 -0.12885477
000300 6a 64 df be 44 32 27 bf 58 a7 80 3e 1a bb 4b bf
       -0.43631297 -0.65311074 0.25127673 -0.7958237
000310 73 e8 59 3e b5 2c 53 bf b8 40 d1 be 88 2a d3 bd
       0.21280079 -0.8249009 -0.4086969 -0.103108466
000320 f8 5e e3 be 60 b2 25 bf c8 e9 c4 3e a1 be a2 3e
       -0.44408393 -0.64725304 0.3845961 0.31786063
000330 be cd 3e bf 29 d3 e5 3e 75 b2 b4 be 20 0e 16 bf
       -0.7453269 0.44887665 -0.35292402 -0.58615303
000340 7b 78 67 be 01 aa 9b 3e 58 d4 3a bf 44 91 d5 3e
       -0.22604553 0.3040314 -0.7298026 0.4171239
000350 b7 8c eb 3e 36 66 8a 3e cf 64 99 3e 14 d0 1f bf
       0.46005794 0.27031106 0.29959723 -0.6242688
000360 12 1c b9 be 8a d6 69 3e 67 de 2b bf bd 7d 96 3e
       -0.36154228 0.22835746 -0.67136234 0.29392806
000370 ee 4c 45 bf 24 2b 0a bf 9a 2d 35 bf 9f 0e 98 3e
       -0.7707051 -0.5397208 -0.7077271 0.29698655
000380 40 33 dd be fb f4 b3 be 2e 85 b7 be 3e 1d 56 bd
       -0.43203163 -0.35147843 -0.35843796 -0.05227398
000390 1d af ca 3e 04 82 a4 be aa 02 28 bf e0 13 c1 3e
       0.39586726 -0.32130444 -0.65629065 0.37710476
0003a0 fa 66 ef 3e 83 6d 3d bf 75 1b 1e bf 27 f0 c3 be
       0.46758252 -0.73995227 -0.61760646 -0.3826916
0003b0 d5 b8 85 be 2b 34 69 bf 34 3c 0f bf 59 a2 07 bf
       -0.26117578 -0.91095227 -0.5595124 -0.529821
0003c0 18 87 7d be 24 57 fc be 6f 51 02 3f 62 42 33 bf
       -0.24758565 -0.49285233 0.5090551 -0.7002317
0003d0 f9 bc f8 3e 05 3c f9 3e 7e d3 87 3e 9a f6 7f 3c
       0.48581675 0.48678604 0.26528543 0.015622759
0003e0 3b ea 08 bf c1 18 75 3e 40 b3 d2 be f2 d3 13 bf
       -0.5348241 0.23935224 -0.41152382 -0.5774528
0003f0 2c cd 0e bf c7 25 27 bf 61 4e 0d bf 6e 5a 1e bf
       -0.5578182 -0.6529202 -0.5519772 -0.61856735
