bots/Memes.chatbot/converted_model.tflite (tflite, 168604 bytes, 4 tensors)

in/MatMul_bias f4 [64]
000000 37 2f 5b 3e 76 48 a1 3e 71 e2 70 3e fe a9 57 3e
       0.2140473 0.31500596 0.2352388 0.2106094
000010 9f 1d 9a 3e 77 14 45 3e 31 2a 18 3e 8f 76 8d 3e
       0.30100724 0.19246088 0.14859845 0.27629516
000020 5f 39 50 3e fc a7 34 3e f7 3a 8d 3e 3b 86 54 3e
       0.20334385 0.17642206 0.2758405 0.2075433
000030 b0 97 76 3e c1 39 88 3e d8 43 91 3e 6c 98 68 3e
       0.24081302 0.26606563 0.28372073 0.22714394
000040 3f a7 4a 3e 07 58 80 3e bc 84 48 3e 88 16 84 3e
       0.19790362 0.2506716 0.19581884 0.2579844
000050 c5 22 5c 3e ec f4 97 3e 80 58 97 3e 99 a2 91 3e
       0.21497639 0.29679048 0.29559708 0.28444365
000060 d9 a2 83 3e 5e a6 56 3e d9 a5 83 3e 4c a9 6a 3e
       0.2571018 0.20961902 0.2571247 0.22916144
000070 87 01 5c 3e e2 3f 6e 3e ca 51 8f 3e 47 7d 84 3e
       0.21484958 0.23266557 0.27992088 0.2587683
000080 d2 76 45 3e eb 0a 7f 3e 42 70 92 3e f1 37 51 3e
       0.19283608 0.24906509 0.2860127 0.20431496
000090 52 58 8c 3e e8 44 51 3e 8c d5 b1 3e 3b 69 63 3e
       0.27411133 0.20436442 0.34733236 0.22208111
0000a0 b7 50 54 3e e5 ae 8d 3e f4 f7 72 3e b1 d3 41 3e
       0.20733915 0.27672496 0.23727399 0.1892841
0000b0 0d e0 78 3e b4 36 30 3e 47 3a b3 3e 63 03 5d 3e
       0.24304219 0.17208368 0.350054 0.21583323
0000c0 1a 86 30 3e d0 10 8c 3e b6 50 46 3e 23 ed 62 3e
       0.17238656 0.27356577 0.19366726 0.22160773
0000d0 fe 82 6d 3e ef 35 5b 3e f5 33 60 3e d2 f3 99 3e
       0.23194501 0.21407293 0.2189482 0.30068833
0000e0 0a 70 50 3e 42 83 44 3e 7a a8 44 3e c5 d1 89 3e
       0.2035524 0.19190696 0.19204894 0.26917854
0000f0 7b 9c 81 3e c7 10 66 3e fa 96 70 3e ef 9a 8f 3e
       0.25314698 0.22467338 0.23495093 0.28047892

in/kernel/transpose f4 [64, 620]
000000 1a 3b 3e bd 6c 41 88 3d b6 40 0b be 9c 70 b8 bd
       -0.046443082 0.06653103 -0.13598904 -0.090058535
000010 1c f7 76 bc 77 e9 b0 bd 84 97 d3 bd 62 3b 9a bd
       -0.015073564 -0.0863828 -0.10331634 -0.075308576
000020 b6 c6 54 bd 1a ed 19 be 75 bc 2a 3e 3e 65 d9 bd
       -0.051947318 -0.15031853 0.16673453 -0.106150135
000030 d6 d2 8b 3e 3c 48 ac bd 73 04 09 3e 12 65 90 3d
       0.27309293 -0.08412215 0.13380603 0.07050528
000040 c9 52 09 be e0 4d 3d 3d 11 99 b1 bd 28 10 0a 3d
       -0.13410486 0.046216846 -0.08671773 0.033706814
000050 8a 83 89 be cd 92 5c 3e 88 62 0f 3e 7e 3a 5c bd
       -0.2685817 0.21540375 0.1400243 -0.05376672
000060 87 3b 25 3e c9 1d 05 3e 4a 64 05 be 03 bb 07 3e
       0.16135989 0.12999643 -0.13026538 0.13254933
000070 70 9a fb bd 59 11 a2 3e 51 b4 02 3e 04 35 9f bd
       -0.12285316 0.3165386 0.12764098 -0.07773784
000080 fb 50 4f bd 8f 98 b8 bc b2 a6 05 3e 1a 55 b1 3e
       -0.05061434 -0.022533683 0.1305187 0.3463524
000090 67 3d 38 ba a4 7a 1c be 36 85 31 be a2 8f 66 3b
       -0.00070281926 -0.15281159 -0.17335972 0.0035180827
0000a0 bf f1 24 3c df 36 05 3d e6 3e 42 bd a3 fd cb bd
       0.010067402 0.032523032 -0.047423266 -0.09960487
0000b0 d1 48 ba 3e 3e 7e be 3d ca e3 f9 3d 37 16 3c 3d
       0.3638368 0.093014225 0.122016504 0.045919623
0000c0 09 88 a9 bd c0 9d 09 be 63 ae 07 3e a3 2d 8e 3d
       -0.082779 -0.13439083 0.13250117 0.06942298
0000d0 37 19 a0 3d 62 0c f4 3c 02 18 39 3e 40 32 0c bc
       0.07817309 0.02979106 0.18075565 -0.008556902
0000e0 2b 06 fe 3d 38 56 69 3e e4 23 ae bc 24 3b 29 3e
       0.1240352 0.22786796 -0.021257348 0.16526467
0000f0 f3 ac 7f 3e 18 1e fe 3b 04 4f 42 3e a9 86 e9 bd
       0.24968319 0.0077550523 0.18975455 -0.114026375
000100 56 86 a1 3e 38 21 81 3c 33 47 25 bc 08 26 1b be
       0.31547803 0.01576291 -0.010087776 -0.15151227
000110 1f 26 f8 bb e7 9b 28 3e 44 b2 ae bd 1f 40 b3 bd
       -0.0075729038 0.16465722 -0.08530095 -0.087524645
000120 cf 1e d9 bd 05 81 1f be ff e4 24 3e 23 0e 86 3d
       -0.106015794 -0.15576561 0.1610298 0.06545665
000130 e3 ae 49 3e 1a 15 1f be 32 82 b5 bd f7 b9 46 3e
       0.1969562 -0.15535393 -0.088627234 0.19406877
000140 1e 2c 89 bd 59 1a 22 be 41 3e 32 be de ac 8e bc
       -0.06697868 -0.15830363 -0.1740656 -0.017416414
000150 85 52 da bb 66 f1 04 3e c0 d8 3e bd e4 37 3c 3d
       -0.006662669 0.12982711 -0.046593428 0.04595174
000160 a3 7b b7 bd 05 7f 6c bc 28 b9 87 3e 73 67 07 3e
       -0.08959129 -0.014434581 0.2650845 0.13223056
000170 7b 2c 59 be ae d3 62 3e 78 6c 3a 3e 69 a4 10 3a
       -0.21208374 0.22151062 0.1820544 0.0005517663
000180 60 65 cb 3d d6 41 0c be d6 07 61 bd 15 13 6d bd
       0.09931445 -0.1369699 -0.054939114 -0.057879526
000190 46 03 18 3e 84 b5 19 bd d4 4c 35 3e 5f 26 86 bc
       0.14844999 -0.037526622 0.17705089 -0.016375719
0001a0 24 e2 2a 3e c4 6d 66 3e 63 62 4e 3e aa 9c 3a 3e
       0.16687828 0.2250281 0.20154719 0.18223825
0001b0 71 66 35 3e 3b 14 45 3e dc 2b c8 bd 49 2f 9a bd
       0.1771486 0.19245999 -0.097739905 -0.0752855
0001c0 e8 ac 23 be ce 70 23 bd 4b 6f f1 bd ca 9a 0c be
       -0.15983927 -0.0399025 -0.117888056 -0.13730922
0001d0 a6 76 85 bd 13 c4 1b be 6d 1d 92 bd b9 b9 e6 bd
       -0.06516771 -0.15211515 -0.07134519 -0.112658925
0001e0 9c 5a 18 be 76 9f f1 3d 5b e8 e3 bd 7e d5 d3 3d
       -0.14878315 0.11797993 -0.11128303 0.10343455
0001f0 df 4f 01 be e0 43 3c 3e 1a 69 54 3b cd c4 4a 3e
       -0.12628125 0.18385267 0.0032411278 0.19801636
000200 a1 08 6e 3e ee 4d 0a 3e f8 ba c1 3d 0f e2 23 3d
       0.23245479 0.1350629 0.094594896 0.04001051
000210 dc 0f 87 bd 3e b2 91 3d ad 15 eb bd 21 60 4f 3e
       -0.06594822 0.07114075 -0.11478744 0.20251514
000220 21 03 9c 3d 57 7e 6c be 04 46 b9 bb 4d 3d cc bd
       0.07617784 -0.2309507 -0.0056540985 -0.0997263
000230 4f 73 8b 3e ed 69 06 3d 2d e0 a4 bd 90 41 d2 bd
       0.2723641 0.032815862 -0.08050571 -0.10266411
000240 dc 0b f6 3b 16 a8 1a be 8c 3a 91 3e e0 52 b7 3d
       0.007508738 -0.15103182 0.2836498 0.08951354
000250 5f af 2c 3e 1c 44 60 3e ae 00 63 bd e8 eb ed 3d
       0.16863774 0.21900982 -0.05542057 0.11617261
000260 f3 ae c7 bd 02 8d 99 3d 5b 1f 8d 3e ea ae f2 3d
       -0.09750166 0.07497598 0.27562985 0.118497685
000270 3f c8 3c 3d 5d a0 16 3e 8c 44 ad 3e bc da 74 3e
       0.046089407 0.14709611 0.3384136 0.23911566
000280 e8 7d 3e 3e 89 4b 12 be 70 e1 90 3e 00 cc 4d 3e
       0.18602717 -0.14286627 0.28296995 0.20097351
000290 b6 93 91 3d 9c 75 19 be 14 92 24 bd d4 43 3d 3e
       0.07108252 -0.1498627 -0.040178373 0.18482906
0002a0 e9 4a 34 3d b8 cb 55 bd 95 9f ac 3d f4 93 dd 3e
       0.044016752 -0.052196234 0.08428875 0.43276942
0002b0 57 c1 bf bd 12 9b 38 3b ec c6 4b 3e e5 e1 60 3e
       -0.093630485 0.00281686 0.19900101 0.21961172
0002c0 58 03 f9 3d 70 41 9a 3e 7c a7 23 3e 14 91 86 bd
       0.12158841 0.3012805 0.15981859 -0.0657064
0002d0 f7 dc c0 bc 81 ec b3 bd a1 af c6 bd 56 1e 98 3e
       -0.023542864 -0.08785344 -0.09701467 0.29710644
0002e0 6b 3a 26 3e f2 3a a1 bd f4 2e 29 be 50 ec 19 be
       0.16233222 -0.07872571 -0.16521817 -0.15031552
0002f0 2a 34 28 3e ba 42 b0 bd 66 85 db 3d 70 f0 a0 3b
       0.16426149 -0.08606477 0.10718803 0.004911475
000300 a5 e0 62 be 1b 97 66 be 87 c9 ab 3d 7a 05 a0 3d
       -0.22156008 -0.2251858 0.08388048 0.078135446
000310 7e 35 51 3e 74 d8 23 be 5b 9b 5f be 07 2f 93 3e
       0.20430562 -0.16000539 -0.21836607 0.28746817
000320 5c 86 80 3e 68 62 6b 3d 1c cb 5f 3e e6 a4 3f be
       0.25102508 0.057466894 0.21854824 -0.18715248
000330 ad db 45 3e bb 59 25 3e 01 17 3e 3d 1c 3c 1c 3e
       0.19322081 0.1614751 0.046408657 0.15257305
000340 d7 7c 4e 3e fd c2 07 3e fe 56 81 3d 1a 11 dc 3d
       0.2016481 0.13257976 0.063154206 0.10745449
000350 52 cc 56 3d 1f 2b dd 3d fc ec 69 bd fc 32 3f 3d
       0.05244095 0.1079924 -0.05711077 0.046679482
000360 30 5c 99 bd 6e dd 35 3e cc ce a0 bd 42 86 56 bd
       -0.074882865 0.1776025 -0.078519434 -0.052374132
000370 4b c8 34 3e 49 02 5a 3e b7 af c0 3d 4f ba 8c be
       0.1765453 0.21289934 0.09408515 -0.27485892
000380 73 c2 70 3d f4 49 4e be 08 0c 41 3e 78 27 a7 bd
       0.05877919 -0.20145398 0.18852246 -0.08161825
000390 6d 8f 16 bd 3d 31 11 be a0 8d 96 3e 03 2e 53 be
       -0.036757875 -0.14178939 0.29404926 -0.20623021
0003a0 fb 79 7f bd 4a 5d 08 3e 0f f6 7b 3e ba b7 56 bd
       -0.06237219 0.13316837 0.24605583 -0.05242131
0003b0 c0 17 da 3c 02 53 93 3e 32 bc e6 bd 20 ff eb bc
       0.026622653 0.28774267 -0.11266364 -0.028808177
0003c0 65 77 d2 bd 57 5f 37 3e cf dc 89 bd eb f3 3b 3e
       -0.10276679 0.17907463 -0.06731569 0.18354766
0003d0 6b 2e f8 bd e3 ec 3f be 59 fa 29 bb 90 92 e4 bd
       -0.121182285 -0.18742709 -0.0025936572 -0.11160767
0003e0 af c0 93 3d ad a9 4b bd 0d c0 31 3e ef db ba bd
       0.07214486 -0.049722362 0.17358418 -0.0912398
0003f0 ef 6f 4a 3d 8d 80 2c 3e 19 39 fe 3d 96 12 1e be
       0.049423154 0.16845913 0.12413234 -0.15436777

out/MatMul_bias f4 [33]
000000 95 3f 2f 3d f9 a4 e9 3d 48 03 f5 bd 5d d2 40 3c
       0.042785246 0.11408419 -0.119635165 0.0117689045
000010 b7 aa ea bd 62 31 b0 bd fd bf fc 3c e1 6d d2 bc
       -0.114583425 -0.08603169 0.030853266 -0.02568716
000020 69 d0 d5 bd dd a6 23 3c 96 82 c3 3b cf 5a 78 3c
       -0.10440142 0.009988514 0.005966495 0.015158369
000030 0d 84 10 be bd c1 e1 3d 96 47 be 3d 60 fd 90 bd
       -0.14112873 0.11023281 0.09290998 -0.070795774
000040 89 ec c6 3d 9e 69 07 3d 62 04 80 bd d4 a6 99 3d
       0.09713084 0.03305971 -0.06250836 0.07502523
000050 54 3f de b8 92 27 cf 3d 48 4d b0 bd d1 0b 1b 3d
       -0.00010597581 0.10114969 -0.0860849 0.037853066
000060 46 a4 59 bc 94 6a a4 3d 52 35 ae 3c c7 c3 e3 3d
       -0.013283795 0.08028141 0.02126566 0.11121326
000070 3d da ef bc a5 e1 b6 3b 29 72 91 bd bf bc ff 39
       -0.029278869 0.005581098 -0.071018524 0.00048778017
000080 5b 0d 21 be
       -0.15727751

out/kernel/transpose f4 [33, 64]
000000 11 b1 95 3e 96 89 90 3e 04 7d 07 bf 94 01 76 bf
       0.29236653 0.2822997 -0.52925134 -0.9609616
000010 a7 c2 6d 3e ce 9d 30 bf 5c 9d 2a bf 23 85 4a bf
       0.23218785 -0.6899079 -0.6664636 -0.791094
000020 f2 90 32 bf 28 d3 b0 3d 83 dc 6f bf 11 df d1 be
       -0.6975242 0.08634025 -0.9369585 -0.409905
000030 5d 49 d6 3e bb f7 63 3e 81 da 1d 3e b6 d0 72 bf
       0.41852847 0.2226247 0.15415384 -0.9484972
000040 00 e0 36 bf c4 a7 cb be 33 2c b8 3e 1d 3d 1a bf
       -0.71435547 -0.39776433 0.3597122 -0.602495
000050 b8 67 3e bf 72 9c 5c bf f7 0a 4f bf 21 ee a6 3e
       -0.7437701 -0.86176217 -0.80876106 0.32603553
000060 23 1e af 3e f6 94 20 bf 37 8b 07 bf f5 e3 31 bf
       0.3420268 -0.62727296 -0.529468 -0.6948846
000070 67 d3 15 bf 7a e5 a2 3e a6 6b 5c bf 98 38 82 3e
       -0.585257 0.31815702 -0.8610176 0.25433803
000080 6e 1a 65 bf ad 26 cb 3e 75 9f 8c be 8b 5b 6a 3e
       -0.89493454 0.39677945 -0.27465406 0.22886483
000090 f9 7c b2 be 67 76 12 bf 97 cf 9f 3e 7e 4f 46 bf
       -0.34860972 -0.5721192 0.31213066 -0.77465045
0000a0 08 bb 26 bf 8a 4a a4 3e 4d 0f d1 3e 41 bb 8e bf
       -0.6512914 0.3208812 0.40831986 -1.1150895
0000b0 d4 da 1f bf 9f a6 87 3e ea c5 cd 3e a0 4b 8c 3e
       -0.6244328 0.2649431 0.4019006 0.27401447
0000c0 a6 eb 5e bf 2e ae d4 3e 58 77 5e bf b6 5c 84 3e
       -0.8707832 0.4153914 -0.86900854 0.25851983
0000d0 69 c9 bc be 63 62 28 bf 7b d4 31 3e 69 64 b4 3e
       -0.36872414 -0.65775126 0.17366211 0.35232857
0000e0 c8 c7 15 3e 5d 84 6e bf ef eb 1e bf d2 5a 12 bf
       0.14626992 -0.9317072 -0.62078756 -0.5716983
0000f0 94 26 3d bf ae 66 9f 3e e0 e6 d3 3e d4 b9 19 bf
       -0.7388699 0.31133026 0.4138708 -0.60049176
000100 7b 9a 2c bf 69 dd dc 3e ec 36 9c 3e 46 19 3c 3e
       -0.6742322 0.43137673 0.30510652 0.18369016
000110 f7 7a d6 3e ca 54 1a bf ca 69 a3 3e 63 10 32 be
       0.4189069 -0.6028563 0.31916648 -0.17389064
000120 92 53 1b bf 23 f2 51 be 01 b8 72 3e c5 20 40 bf
       -0.60674393 -0.20502524 0.23703004 -0.7505
000130 4a 73 0e bf 44 65 b5 3e bf 23 50 bf 69 c8 78 bf
       -0.5564467 0.35428822 -0.81304544 -0.971808
000140 4d 75 97 3e 82 bf 1e bf 3a b9 4a bf 9f 1b 67 be
       0.2958168 -0.6201097 -0.79188883 -0.2256913
000150 d4 12 c6 3e a8 25 fc be 3f b6 7d ba 80 19 f1 be
       0.3868624 -0.4924748 -0.0009678341 -0.47089767
000160 ce 3a b1 3e 31 f8 bf 3e d1 df a6 3e 04 e1 48 bf
       0.34615177 0.37494043 0.32592633 -0.78468347
000170 15 38 91 3e 8e c5 b5 be 03 03 bb be b3 da 51 3e
       0.283631 -0.35502285 -0.36525735 0.20493583
000180 3e 5d 8f 3e c0 3f d6 3e 48 2a 54 3e 38 09 1a bf
       0.28000826 0.41845512 0.20719254 -0.60170317
000190 89 79 93 be 6e 4a 93 bf 0d 1b 21 bf 04 e5 70 bf
       -0.2880366 -1.1507089 -0.629319 -0.9409945
0001a0 1f d0 c4 3e 8e e1 4f bf 22 aa 96 3e 5e e3 37 bf
       0.38440034 -0.81203544 0.29426676 -0.7183131
0001b0 15 77 85 be 39 93 d0 3e 67 b8 c9 3d 1d 5d ef be
       -0.26067415 0.40737322 0.09849625 -0.46750727
0001c0 43 c0 bd be 8f 5c 28 bf 66 84 ef be c9 95 6f 3e
       -0.37060747 -0.65766233 -0.467807 0.23396982
0001d0 40 4e 2a bf 81 ee 60 bf dc 5d ee be 78 a8 ad 3e
       -0.6652565 -0.8786393 -0.46555984 0.33917594
0001e0 e5 15 aa be 7f f2 ab 3e 2d 4b 8b bf 24 9b 54 3e
       -0.3321983 0.33583447 -1.0882317 0.20762306
0001f0 a0 80 82 bf b0 8e 05 bf 55 bd dd 3e 22 98 92 3e
       -1.0195503 -0.5217085 0.4330851 0.28631693
000200 3b f0 a3 3e cc 25 13 bf bb 00 5f 3e 68 dc a3 3e
       0.3201922 -0.5747955 0.21777622 0.32004094
000210 c2 5b 05 3e c3 9e 66 3e b3 db 47 bf 30 e5 03 3e
       0.13023284 0.225215 -0.7806961 0.12880397
000220 7e 7a 5f 3e e4 d7 9d 3e e9 62 af 3e ed 08 81 bf
       0.21824071 0.30828774 0.3425515 -1.0080849
000230 5d 70 43 bf ac bf 9a 3e a0 8d 37 bf be d1 21 bf
       -0.7634333 0.3022436 -0.7170048 -0.63210666
000240 ba 01 9f be d2 fc b0 3e d7 bc 81 3e 20 ae 9d 3e
       -0.31056005 0.34567887 0.25339386 0.3079691
000250 2e d6 75 3e f9 9a 81 bf 16 42 24 bf d7 a4 64 bf
       0.24007484 -1.0125419 -0.6416334 -0.89314026
000260 dd ca 0f bf 53 86 e2 3d 4f 56 31 3e 54 32 3d bf
       -0.5616892 0.110607766 0.1731808 -0.7390492
000270 3a 8f 0f 3d 1c 87 7d bf 51 c5 c6 3d 52 fb 7b bf
       0.0350487 -0.99034286 0.09705604 -0.9843036
000280 95 5e d8 be a6 08 0f bf ca 36 94 3e 85 6e 7e 3e
       -0.4225966 -0.5587257 0.2894805 0.24846847
000290 18 53 3d 3e 3f 24 15 bf 96 d8 30 bf ec f4 62 bf
       0.18488729 -0.5825843 -0.69080484 -0.8865497
0002a0 bf c8 1d bf 72 a4 31 3e 62 cd 3a bf 90 fb 99 3e
       -0.6163444 0.17347887 -0.7296964 0.3007474
0002b0 7f e9 47 bf 8c a6 a0 3e 4d 33 99 3e 79 45 0e bf
       -0.7809066 0.31377065 0.29921952 -0.55574757
0002c0 92 64 bb be 26 bb 46 3e 1a 2f 5d bf cc 64 7b 3e
       -0.36600167 0.19407329 -0.86399996 0.2455017
0002d0 40 00 0c 3e 5e b7 1f 3e eb 92 6a 3d c5 4a 18 3d
       0.1367197 0.15597293 0.05726902 0.03718068
0002e0 9f b6 93 3e 8c 3d 28 3e 04 05 92 3e ea e5 2c bf
       0.28850266 0.16429728 0.28519452 -0.6753832
0002f0 f8 04 81 bf 1d c2 24 bf 51 89 16 3e b9 28 85 3e
       -1.0079641 -0.64358693 0.1470082 0.2600763
000300 5e f1 82 3e d3 52 34 bd 0d 57 45 bf 6d 7b 48 3e
       0.25574774 -0.0440243 -0.77085954 0.19578333
000310 3c 53 5b 3e 7e 70 4d bf fb 21 85 3e 56 9e 53 bf
       0.2141847 -0.80249774 0.26002488 -0.82663476
000320 65 52 4f bf 4e 1f ee be 26 a7 a4 be 60 ac ca be
       -0.809851 -0.4650826 -0.32158774 -0.39584637
000330 d3 92 d1 be fc 44 5d 3e 20 54 69 bf 81 00 eb 3e
       -0.4093233 0.21608347 -0.9114399 0.45898822
000340 c2 ff 14 bf b9 49 ea be 71 2f c3 3e 9a ed a4 3e
       -0.58202755 -0.4575937 0.38122132 0.32212526
000350 8b c6 2a bf 42 37 1a bf d3 73 11 bf 0c 09 83 bf
       -0.667092 -0.60240567 -0.5681736 -1.0237136
000360 71 26 ce 3e db 90 70 3e 30 c9 10 bf 24 8e ed 3e
       0.40263703 0.23492758 -0.5655699 0.46397507
000370 d8 8d c0 3e 7e c6 a0 3e 7e 79 95 3e 5e 26 73 3e
       0.37608218 0.31401438 0.29194254 0.23745105
000380 1c 79 59 3e 32 69 cf 3e 92 28 36 bf c7 8d 46 bf
       0.21237606 0.40509945 -0.71155655 -0.77560085
000390 a2 84 83 3e f6 f4 cb 3e 82 3b 7e be 37 78 da be
       0.25687128 0.39835328 -0.24827388 -0.42669842
0003a0 8c a8 9a 3e 34 88 1c bf fc aa e3 be db 3a 74 bf
       0.30206716 -0.6114533 -0.44466388 -0.95402306
0003b0 11 e3 86 bf ee e4 2c bf 1d 51 ea bd 27 d7 cb be
       -1.0538045 -0.6753682 -0.114412524 -0.39812586
0003c0 63 7b bf 3e 50 c5 b1 3e 55 14 33 bf 11 5f 8f 3e
       0.37398824 0.3472085 -0.699529 0.28002217
0003d0 17 e2 6f bf d4 4a 98 3e fd 7e 8d bf 5e eb b2 3e
       -0.9370436 0.2974459 -1.1054379 0.34945196
0003e0 c9 dd 44 bf 06 17 36 bf ea 61 d6 3e 8c b1 93 3e
       -0.7690092 -0.7112888 0.41871578 0.28846395
0003f0 0b d5 2d bf 35 74 74 3e a9 5c 5c bf ad 12 8f bf
       -0.679032 0.23872454 -0.8607889 -1.1177574
