bots/en/Monroe.chatbot/converted_model.tflite (tflite, 705200 bytes, 4 tensors)

in/MatMul_bias f4 [200]
000000 c5 4a 4f 3e a9 74 78 3e 6d 78 80 3d 87 e5 ed 3d
       0.20243366 0.24263252 0.062729694 0.116160445
000010 ec 8d 31 3e d3 c5 f2 3d fc 39 31 3e e4 a4 58 3e
       0.17339295 0.11854138 0.17307276 0.21156651
000020 cf a5 62 3e 8c a5 2c 3e 70 04 2c 3e b9 05 6d 3e
       0.22133563 0.16860026 0.16798568 0.23146714
000030 49 75 21 3e bf 5d 2e 3e 34 d2 72 3d 0c 70 39 3e
       0.15767397 0.17027949 0.059282497 0.18109149
000040 44 2f 41 3e 3d 7a 46 3e 2b 2c 6f 3e 0d 0a 56 3e
       0.18865687 0.19382568 0.23356692 0.20902272
000050 2f 57 4d 3e a1 e8 48 3e 7a b8 b0 3d a2 0c 3b 3e
       0.20052789 0.19619991 0.08628936 0.18266538
000060 04 84 5e 3e 2b 30 79 3e cf 5d a6 3d f5 4d e8 3d
       0.21730047 0.24334781 0.08123361 0.11342994
000070 f0 32 03 3e 7e 79 3a 3e c8 8d df 3d b7 30 84 3d
       0.128124 0.18210408 0.109157145 0.06454604
000080 a8 67 ad 3d cd ed 1d 3e 00 14 16 3e 19 db cd 3d
       0.084670365 0.15422745 0.14656067 0.10051555
000090 07 7b 59 3e 78 ed 13 3e f1 2f 24 3e 27 ee 68 3e
       0.21238337 0.14446056 0.16033913 0.22747098
0000a0 3e ef 72 3e f4 ca 43 3e a4 fc 92 3d 08 f0 75 3e
       0.23724076 0.19120389 0.071770936 0.24017346
0000b0 da 54 42 3e 75 bf 00 3e 51 31 f1 3d 58 f5 72 3e
       0.18977681 0.12573035 0.117769845 0.23726404
0000c0 54 2c c6 3d cd c3 82 3d 54 08 5a 3e 3f 56 fa 3d
       0.09676424 0.06385002 0.2129224 0.122234814
0000d0 0c 58 49 3e fe d4 61 3e 51 dd e8 3d af 78 65 3e
       0.19662493 0.22053906 0.11370338 0.22409318
0000e0 15 2a cd 3d d0 b0 24 3e 03 01 61 3e eb 70 2f 3e
       0.10017792 0.16083074 0.21973042 0.17132919
0000f0 15 b1 3f 3e 0c 6f 5a 3e c5 ed 7c 3e af 7b ab 3d
       0.18719895 0.21331424 0.24700077 0.083732
000100 e0 8c 70 3e aa e6 c3 3d 0d 12 33 3e 4a c3 50 3e
       0.2349124 0.0956548 0.17487355 0.20386997
000110 41 be 61 3e ab bd 49 3e c8 1d 41 3e 0a f3 e5 3d
       0.22045232 0.19701259 0.18859017 0.11227997
000120 6c e2 38 3e ce 48 6d 3e 3d 66 30 3e 68 db 65 3e
       0.18055123 0.23172304 0.17226501 0.22446978
000130 8e 30 97 3d db 4a 26 3e 89 72 a5 3d 44 29 56 3e
       0.07382308 0.16239493 0.080784865 0.20914179
000140 3e ed 84 3e b5 1a 09 3e 8d 78 22 3e fd 3c 8c 3e
       0.2596225 0.13389094 0.15866299 0.2739028
000150 44 09 8c 3e 4e e2 49 3e 47 4e 9f 3d 70 1b 0a 3e
       0.2735082 0.19715235 0.07778602 0.13487029
000160 da 69 8a 3e ff d5 60 3e 21 74 c9 3d bf c1 56 3e
       0.27033883 0.21956633 0.09836603 0.20972346
000170 28 25 77 3e 8f c6 ab 3d 2e f2 60 3e a4 02 0d 3e
       0.24135268 0.083874814 0.21967384 0.13770539
000180 3b ae e2 3d 51 e3 99 3d 1c b9 61 3e a4 02 1c 3e
       0.11068388 0.0751406 0.2204327 0.15235382
000190 6f b0 01 3e 3b d4 40 3e 9a ec 05 3e 20 90 12 3e
       0.1266496 0.1883096 0.13078538 0.14312792
0001a0 fa e5 36 3e a6 ac 7d 3e fa a7 7c 3e b2 a2 e8 3d
       0.17861167 0.24772891 0.24673453 0.11359157
0001b0 4c ab 5b 3e 5a 54 5f 3e 67 4a 13 3e 90 fc 66 3d
       0.21452063 0.21809521 0.14383851 0.056393206
0001c0 61 a9 eb 3d 6a 77 a1 3d 43 f8 09 3e 31 ee 2b 3e
       0.11506916 0.078841045 0.1347361 0.16790082
0001d0 32 53 13 3e 5a da 65 3e ff 9b 0a 3e 12 b5 65 3e
       0.14387205 0.22446576 0.1353607 0.22432354
0001e0 33 59 5d 3e 3b 36 84 3e 94 d2 04 3e 9e b0 01 3e
       0.21616058 0.25822625 0.12970954 0.1266503
0001f0 b5 f6 6b 3e ea 28 84 3e 66 41 1c 3e b5 c6 22 3e
       0.2304333 0.25812465 0.15259323 0.15896113
000200 f5 9c 64 3e 15 73 6f 3e b3 eb 6d 3e c4 89 57 3e
       0.223255 0.23383744 0.23234443 0.21048647
000210 a9 ad 45 3e b8 db 54 3e 5c a7 24 3e d8 ae 2a 3e
       0.19304527 0.20786941 0.16079468 0.1666826
000220 7f 3b d3 3d ea cf 0e 3e 08 48 6f 3e e9 0d 65 3e
       0.10314082 0.139465 0.23367321 0.22368588
000230 66 ba 36 3e f8 cd 5e 3e b2 27 60 3e 54 f7 52 3e
       0.17844543 0.21758258 0.21890143 0.2060216
000240 ac fc 2f 3e c8 d2 9b 3e aa e8 61 3e b4 36 55 3e
       0.1718623 0.3043425 0.2206141 0.20821649
000250 d9 06 22 3e 37 fd 79 3e 7e dd e0 3d 45 62 9f 3d
       0.15822925 0.24413 0.10979746 0.07782415
000260 f9 34 5f 3e 9f 44 25 3e 7a 46 80 3e d7 58 64 3e
       0.21797551 0.16139458 0.2505377 0.22299515
000270 0c 1a e6 3d b6 89 64 3d 01 56 71 3e c6 4b fc 3d
       0.11235437 0.055795394 0.23567964 0.1231914
000280 27 3a 44 3e 00 89 61 3e 05 55 fb 3d 57 a3 5e 3e
       0.19162808 0.22024918 0.122720756 0.21741997
000290 ef ac 67 3e 8f ff 7c 3e 3e 20 52 3e 5e f4 02 3e
       0.22624563 0.24706863 0.20520112 0.12788531
0002a0 4f 21 fa 3d 8c 1b 32 3e 54 78 ce 3d 8c 1f 41 3e
       0.12213384 0.17393321 0.100815445 0.1885969
0002b0 a9 e4 82 3d ce 42 40 3e ee f6 7e 3e c9 5a 49 3e
       0.0639127 0.18775484 0.24898884 0.19663538
0002c0 46 8f 35 3e fb 01 50 3e 92 14 4f 3e c5 7a 72 3e
       0.17730436 0.20313255 0.2022269 0.23679645
0002d0 76 89 0c 3e b2 8e b2 3d d3 56 90 3d 05 78 6f 3e
       0.13724312 0.08718623 0.070478104 0.23385628
0002e0 95 3e 43 3e bc ec ad 3d 7a 4a 9e 3d 2b 33 f5 3d
       0.19066842 0.08492419 0.07729049 0.1197265
0002f0 e9 71 70 3e 4e 78 38 3e 89 98 52 3e 55 63 51 3e
       0.23480953 0.18014643 0.20566 0.20448048
000300 bc b1 21 3e 54 9c 3d 3e ac 04 42 3e ea 23 38 3e
       0.15790457 0.18516666 0.18947095 0.1798245
000310 18 bf 1a 3e 73 3f 65 3e 7e 95 46 3e 99 52 11 3e
       0.15111959 0.22387485 0.19392964 0.14191665

in/kernel/transpose f4 [200, 841]
000000 22 cb 1d bd 4b 56 a4 3a a6 ab 77 bd fa 81 87 3b
       -0.0385238 0.0012537924 -0.06046643 0.0041353675
000010 73 9e 30 bd 9e 60 2e 3e 7e 62 18 3d 89 ef 4c 3e
       -0.04311986 0.17029044 0.037203304 0.2001325
000020 4a 36 bd 3d a8 06 a8 bc 26 1e 22 3d ad 97 92 bd
       0.092388704 -0.020510986 0.039579533 -0.07157836
000030 2e 46 97 bd dc 5d 3d 3e 8a 1a dd 3d d4 44 3a 3e
       -0.073864326 0.18492836 0.107960775 0.18190318
000040 fa 14 33 be 8f 0d 1f 3d 3e 1c c9 3c 8d 0f 80 3d
       -0.1748847 0.03883129 0.0245496 0.06252966
000050 ea 1d 0a 3e 33 06 80 bd 4a 4d 04 3d 5b 17 3f be
       0.13487974 -0.062511824 0.03230027 -0.18661253
000060 0c f5 dd bd 6f 82 2f 3c 2f 70 cd 3c e2 b6 30 3e
       -0.108377546 0.01071225 0.025077907 0.17257264
000070 6f f4 f3 3b 82 c7 d3 3d b4 1a e9 3c 62 c8 eb 3d
       0.0074449102 0.103407875 0.028455116 0.11512829
000080 47 13 91 3e cb ab 8a bd c8 e4 3e be 26 13 a7 3c
       0.2833502 -0.06771048 -0.1864196 0.020394873
000090 f0 e3 28 3e c6 b0 cd 3d 0a 15 e2 3d 5e 7d 06 3e
       0.16493201 0.100434825 0.11039169 0.13133761
0000a0 b8 d1 11 be 1c 41 91 bd a4 91 82 3d 74 6d ef 3d
       -0.14240158 -0.07092497 0.06375435 0.116907984
0000b0 9b fb f1 3d a4 e1 51 bd ae a0 2e bd 44 46 24 bc
       0.11815568 -0.05124058 -0.042633705 -0.010026518
0000c0 1e 6b 2e bd 72 fc 87 bd b8 3f d9 bd 88 51 a1 3d
       -0.042582624 -0.06639947 -0.106078565 0.07876879
0000d0 07 ab 33 3d 35 8a f8 bc 39 c6 eb bc 1c fb 82 3d
       0.043864276 -0.03033934 -0.028781043 0.063955516
0000e0 cf de 8c bd fc 29 0c bd 6c 22 01 bc 80 57 da 3d
       -0.06878435 -0.034219727 -0.007881742 0.106612206
0000f0 b7 7e 8a bd 95 b4 fd 3b ec 3d 7f 3d 60 05 67 3e
       -0.0676245 0.0077424743 0.062314913 0.22560644
000100 04 ab ae 3d f5 51 0f 3d 97 4a da 3d 30 8c f9 3d
       0.085287124 0.03499027 0.10658758 0.12184942
000110 08 36 8e 3d c7 03 59 be 81 d1 63 3d 4c 4d 65 bc
       0.069438994 -0.21192847 0.05561972 -0.01399548
000120 60 dc 12 be d0 aa db 3d d9 7b 01 be cf c9 f4 bd
       -0.14341879 0.10725939 -0.126449 -0.119525544
000130 2f 3d f1 bd 49 89 0a 3e 0d 21 03 be d1 64 e4 bc
       -0.11779248 0.13528933 -0.12805577 -0.027880104
000140 28 95 2f be 0a d1 e4 bd 27 e4 9d 3d d4 e7 d5 bc
       -0.17146742 -0.111726835 0.07709532 -0.02611152
000150 18 1d 96 bd b5 1d 99 3d a0 14 0e 3d eb c3 14 3e
       -0.07329768 0.07476369 0.03468764 0.14527862
000160 81 5c c3 3d bc 7a dc bd 65 36 55 bd 98 4b 59 bc
       0.09539128 -0.10765597 -0.052053828 -0.013262652
000170 72 eb a5 bc f4 94 93 bd d6 03 99 bd 39 63 be bd
       -0.02025387 -0.07206145 -0.07471435 -0.09296269
000180 17 f7 5c 3d 6d 1c 0c 3d 2f 3c 56 3c d5 59 5f bd
       0.05394658 0.034206796 0.013075872 -0.05452903
000190 7a 3f 18 3e 51 fc 8b bd d0 54 c7 bd cf 45 46 3e
       0.14867964 -0.06835235 -0.097329736 0.19362567
0001a0 7f d4 19 3e fb 36 56 3e 74 8d 2e be 7d 7b 80 bd
       0.15022467 0.20919411 -0.17046148 -0.062735535
0001b0 f5 f3 50 bc 2a 65 b5 bd 4c a9 dd bd 00 8d 93 bd
       -0.012753476 -0.08857186 -0.108233064 -0.07204628
0001c0 db 9a 3f 3e a1 f6 4a 3d db 43 08 3e 9c fc f6 bd
       0.18711416 0.04955161 0.13307135 -0.120599
0001d0 70 aa 41 bd 1e d1 6c 3d a0 af da bc 46 aa 66 3c
       -0.047281682 0.057816617 -0.026695073 0.014078682
0001e0 52 f0 94 bb 12 bb 9a bd 73 bd ac bd ca 76 c8 bd
       -0.00454525 -0.07555212 -0.08434572 -0.09788282
0001f0 c8 81 91 bd e0 8c 03 bd 8b d1 88 3d 80 37 33 bc
       -0.07104832 -0.03211677 0.06680592 -0.010938525
000200 fc 5f b9 3d 8b 84 24 3e 59 f1 18 3d 60 49 c3 bd
       0.09051511 0.16066186 0.037339542 -0.095354795
000210 39 96 f5 3b 79 bd 27 3d 75 dc a2 3d 38 ef 0d 3e
       0.0074947146 0.04095218 0.07952205 0.13860786
000220 d5 53 01 3e b4 80 12 3e ff 53 38 3d 06 19 4b 3e
       0.12629636 0.14306909 0.04500198 0.19833764
000230 29 ea 93 bd 82 34 bc 3c 23 7f 1a 3e 7f 34 ae bd
       -0.07222397 0.022974256 0.15087561 -0.085061066
000240 df e9 24 3d 4e d3 da bc 50 bb c7 3d 21 65 ef bb
       0.0402621 -0.026712086 0.09752524 -0.0073057567
000250 2b 1a 02 3c 41 e3 5f 3d 73 a7 84 3d f1 7e 94 bd
       0.007940809 0.054660086 0.06477251 -0.07250775
000260 db ae 81 3d ea 93 fb 3d d2 78 0b 3d 7c 60 71 3d
       0.06332179 0.12284072 0.03405077 0.058929905
000270 01 a9 11 3e 35 20 89 3c 33 27 c3 3d ae 75 d9 3b
       0.14224626 0.01673899 0.09528961 0.006636343
000280 07 92 8d 3d 82 bd b4 3d d2 f6 2a be f2 09 24 3e
       0.06912618 0.08825208 -0.16695717 0.16019419
000290 af 15 18 3e ba 37 5d bc 92 07 05 3e 1f e3 a4 3c
       0.14852022 -0.013502056 0.12991169 0.020127831
0002a0 ca 3e 9f 3d 1a 92 11 bb 33 e1 5c bd 7a 6e 23 bd
       0.07775648 -0.0022212327 -0.053925704 -0.03990028
0002b0 58 2f 1d 3e 4c d7 20 3d 1a 09 00 3e 5e e4 59 bd
       0.15350091 0.039267823 0.12503472 -0.053196304
0002c0 9e b9 42 3e 6f 56 69 3d 86 fa b3 3d f3 ad df bb
       0.1901612 0.056967195 0.08788018 -0.0068261563
0002d0 ca 46 bd 3d 7d 36 0b bd 55 ac 1c bd f2 af b9 bc
       0.092420176 -0.03398751 -0.038250286 -0.022666905
0002e0 61 cb 1e 3d 2d 06 39 bd 39 1a a3 bd 24 66 31 bd
       0.038768176 -0.045171905 -0.07963986 -0.0433103
0002f0 6b ef 23 3e 55 fe c2 bd c9 66 fc 3c a5 64 a9 3d
       0.160093 -0.09521166 0.03081073 0.082711495
000300 c0 73 a5 bd 86 08 e5 3d d1 61 43 be dc 64 94 bd
       -0.08078718 0.11183266 -0.19080283 -0.072458
000310 6a 1f 1e 3e bf 2e 98 3d 2d 28 4f 3d ef bd 48 3e
       0.15441671 0.07430791 0.050575424 0.19603704
000320 65 d2 dd bb 34 9b b7 bc c9 06 1f 3c d3 d6 1b 3e
       -0.0067694657 -0.022412874 0.009706208 0.15218668
000330 0a 81 bf bc 26 ee 57 bb 94 ee d7 3c 0c 9f d4 3d
       -0.02337696 -0.0032948344 0.02635888 0.10381898
000340 fc e8 c9 3d f8 03 55 bd 66 ac d1 3d d8 b4 8c bd
       0.09858891 -0.052005738 0.102379605 -0.06870431
000350 58 ee c8 bd 08 ab b6 bd b4 46 e2 3c 7e 45 54 3d
       -0.098110855 -0.0891934 0.027621605 0.051824085
000360 4b 32 99 bc 5e b3 16 3e 23 7b 8d 3d df db 81 bd
       -0.01870074 0.1471686 0.06908252 -0.06340765
000370 36 77 22 bd 0f 08 9a 3d 2b 9f ce 3c 24 7d ac 3d
       -0.03966447 0.07521068 0.025222382 0.08422306
000380 05 f8 da 3d 23 89 8c bd 8b ef 89 3d e9 61 c9 3d
       0.10691837 -0.06862094 0.06735142 0.09833128
000390 66 df a1 3d db 4c be bd 4f 4d 4b 3d 78 f2 c7 3d
       0.07903938 -0.09292003 0.049634274 0.09763044
0003a0 d8 be c8 3d b8 1c 09 3e 90 cf 85 bd 85 e7 ae bd
       0.098020256 0.13389862 -0.0653373 -0.085402526
0003b0 d1 6e 1f 3e f9 cc e2 bd 2d 25 98 3c 57 87 9e 3d
       0.15569617 -0.11074252 0.018572414 0.07740658
0003c0 3f b9 c5 bd 1a 32 2e bd c5 1f 89 3d 4a 82 de 3c
       -0.096544735 -0.04252825 0.06695513 0.027161736
0003d0 8d b9 02 3d 93 56 b8 3d 88 90 31 3d 01 ee 11 3e
       0.031915236 0.09000888 0.043350726 0.14250948
0003e0 9a 0d dd bc a3 c9 c8 3d 00 39 04 3e d7 a9 93 3d
       -0.026984025 0.09804084 0.12912369 0.07210129
0003f0 26 22 bb 3c 3a bd a2 bd 7d 99 09 bd b1 2e 84 bc
       0.022843432 -0.07946248 -0.033593643 -0.016135545

out/MatMul_bias f4 [38]
000000 d7 73 b8 bb e7 31 93 bd e1 03 44 bd c3 36 35 3c
       -0.0056290436 -0.071872525 -0.04785526 0.0110604195
000010 54 75 a4 bb f6 a0 ac 3b 97 18 89 bd 15 02 fd bb
       -0.0050188694 0.0052682115 -0.06694143 -0.0077211955
000020 df c2 de bb 71 e1 98 bc 67 42 34 bd 3a 7f 86 bd
       -0.006798133 -0.018662186 -0.04400864 -0.06567235
000030 77 23 0f 3d 21 6f b7 3c f6 41 a7 bc 26 8a b9 3c
       0.03494593 0.022391858 -0.020417195 0.022648882
000040 4a e0 3a 3c c5 84 2c bb 79 00 91 3d 39 51 c2 bd
       0.011406014 -0.0026324254 0.07080168 -0.09488148
000050 01 d5 9f 3a 00 ff 69 bd 58 50 45 bc b3 e7 5e bc
       0.0012194217 -0.057127953 -0.012043081 -0.013605046
000060 dc 4e 4d bd d6 a7 13 bd b2 af 16 bd 62 02 a0 3b
       -0.050124034 -0.036048733 -0.03678865 0.0048830966
000070 03 d7 0b bd 52 67 60 39 56 4e 0b bd 84 b8 08 3e
       -0.034140598 0.00021400795 -0.034010254 0.13351637
000080 75 40 c0 3c d1 5b 99 bc 3c 23 35 3d 95 33 b0 bc
       0.023468236 -0.01872054 0.044223055 -0.021508971
000090 98 b8 09 3c 28 55 a6 bc
       0.008405827 -0.020304278

out/kernel/transpose f4 [38, 200]
000000 f6 23 67 3e 2e d9 f7 3d 80 7a dd be 50 4a 03 be
       0.22572312 0.121019706 -0.43257523 -0.12821317
000010 66 d5 3c 3e 33 79 89 be f1 7c 9c be 4b 86 7e be
       0.1844078 -0.2685028 -0.30564073 -0.24855916
000020 db e4 06 3e ee 72 e5 be 50 65 82 3e 2f cd e0 3c
       0.13173239 -0.44814247 0.2546792 0.02744159
000030 2b 4a b6 3d d2 de 08 be ae b1 94 be 8c 51 87 bb
       0.08900865 -0.13366249 -0.2904181 -0.004129594
000040 bb df 0d bf 55 eb c9 3d 9b 49 69 3e 31 19 fe 3b
       -0.5541951 0.09859339 0.22781985 0.007754468
000050 bf b3 fe 3d 5b 8d 2f bf 9f c0 a1 be 9f c0 3b 3e
       0.124366276 -0.68575066 -0.3159227 0.18335198
000060 f0 a4 57 3e 87 81 6f 3d 6d bd 33 3e 81 36 43 3e
       0.21059012 0.058473136 0.17552729 0.1906376
000070 cc 1d 87 3d 8d 68 da 3d 06 c4 f7 be d7 97 cb 3d
       0.0659748 0.10664473 -0.48391742 0.099410705
000080 d6 3a 5f 3e c9 96 25 bf ad 63 32 bf 24 6a 8e be
       0.21799788 -0.64683205 -0.69683343 -0.27815354
000090 d9 02 25 3d cf 0e 31 3e 45 e5 e6 3d f2 72 02 bf
       0.04028592 0.17290805 0.112741984 -0.5095664
0000a0 42 98 fb 3d 67 25 78 3e b0 4e 76 3e 2a a8 8a 3c
       0.122849 0.24233018 0.24053454 0.01692589
0000b0 f0 4d 49 3e 5a 71 3c 3e 24 6f 4d 3e 97 1d 54 be
       0.19658637 0.18402615 0.20061928 -0.20714413
0000c0 60 41 d3 be 7f 80 27 3e dc 37 86 3d 37 77 e2 bc
       -0.41260815 0.16357611 0.06553623 -0.027644737
0000d0 fe bb 4c 3e f3 7c ee be c5 96 23 bf 5b 81 8c be
       0.19993588 -0.46579704 -0.6390193 -0.2744244
0000e0 58 e0 3e 3e f6 2a ef be 29 f3 40 3e e2 6c 29 bf
       0.18640268 -0.46712464 0.18842758 -0.66181767
0000f0 da 0e db 3d 3b 56 c3 be ff 57 14 bd 13 14 49 3e
       0.10696192 -0.38151726 -0.036216732 0.19636564
000100 22 d3 ff 3d 9c c2 0b 3e 1f f7 07 bf a7 25 e0 3d
       0.12491442 0.13648456 -0.5311145 0.109446816
000110 2d d1 92 3e e2 e7 c7 be e9 bd 0e 3e ef 29 07 bf
       0.28675213 -0.390441 0.13939632 -0.5279836
000120 d2 04 a9 be c4 11 6a 3e 1c 44 25 3e 65 d2 af be
       -0.3301149 0.2285834 0.16139263 -0.34340206
000130 e1 60 26 3c db 24 23 be 2e 7c 54 be 85 ae eb 3d
       0.010154934 -0.15932028 -0.20750496 0.11507896
000140 47 2e 1c 3e 02 cd 1f bf 08 bd de be 58 c0 d4 bd
       0.15252028 -0.6242219 -0.43503594 -0.10388249
000150 cc 2d d9 be 4e 68 c7 be 6b 9a 24 bf 5b 4b 80 3e
       -0.42417753 -0.38946766 -0.64298123 0.25057492
000160 e8 c4 31 be 90 0e 1f 3e 60 cf 7a 3e d9 f5 4b 3e
       -0.1736027 0.15532899 0.2449317 0.19918002
000170 36 aa a6 be ec 75 7c 3e ea 70 ab be ef fa 3f 3e
       -0.32551736 0.24654359 -0.33484584 0.18748067
000180 a8 87 e0 be aa 6c 19 3e 62 d8 79 be 3a b7 88 be
       -0.43853498 0.14982858 -0.2439895 -0.2670229
000190 d1 bc 89 3e 1b 7b 90 be 3b 50 8b 3e 3b 05 75 3e
       0.26901868 -0.28218922 0.27209648 0.23927777
0001a0 a1 80 64 be a6 88 f8 be e9 4b 14 bf 44 4e 4f be
       -0.22314693 -0.48541754 -0.5792833 -0.202447
0001b0 d9 a8 e1 3d 4e 3c 03 bf 3a 9c 0a bf 1c df 7e 3e
       0.11018533 -0.5126389 -0.5414463 0.24889797
0001c0 f0 d1 34 bf 94 cf c4 be 2f 39 1c 3d d1 56 89 3e
       -0.7063284 -0.3843962 0.038140472 0.26824048
0001d0 17 f9 1f bd 54 de 29 3e 2b 16 ab bd d2 87 07 3e
       -0.03905591 0.16588718 -0.083538376 0.13235405
0001e0 0c 0f 71 be 9e be b9 be f7 8e e3 be 55 f4 93 3e
       -0.23540896 -0.36278242 -0.4444501 0.28897348
0001f0 d2 2c 52 3e ec 56 f9 be 93 1b f1 be a5 88 9f be
       0.2052491 -0.4869913 -0.4709135 -0.3115894
000200 2c 0d 1c bf 3e c4 7d 3e e2 fe bf be 5d e0 f9 be
       -0.609576 0.24781892 -0.37499148 -0.48803988
000210 d3 e1 8b 3e 79 60 4b be 42 8f 91 be 62 9c 20 3e
       0.27320728 -0.1986102 -0.2842961 0.15684655
000220 06 90 ad 3c 4e 6a 7a be 71 a9 ff be e9 3c 45 bf
       0.02118684 -0.24454615 -0.4993396 -0.77046067
000230 01 8a 65 3e e9 bd 8b be bc 1b 75 3e 36 af a7 be
       0.22415926 -0.27293327 0.23936361 -0.32750863
000240 27 21 0c bf 8e 50 33 bf ec 6e d6 be d0 ac 59 3e
       -0.54738086 -0.7004479 -0.41881502 0.21257329
000250 d7 ec 65 be 17 00 a6 3e 56 50 68 be 2c af 88 3e
       -0.22453628 0.32421944 -0.22686896 0.26696146
000260 c2 cd ae be 2b 88 5d be c1 6f 13 bf 94 4f 6b 3e
       -0.34141356 -0.21633975 -0.575924 0.22979575
000270 3a ec c3 3d 88 cf cc 3d 20 37 4f be 9d 4c 0d bf
       0.09566541 0.10000521 -0.20235872 -0.5519503
000280 fa 0b bd be ad 26 71 3e 56 33 4e 3e 53 c5 fe be
       -0.369232 0.2354991 0.2013677 -0.4975992
000290 2c ff 8e be b1 59 4d 3e 31 44 07 3e 3d ad 4d bd
       -0.27929056 0.20053746 0.13209607 -0.05021404
0002a0 9e 3a 43 3e 88 37 21 be ca 29 d0 3d 87 3d d6 be
       0.1906533 -0.1574384 0.10164221 -0.41843817
0002b0 0f 89 6c 3e f1 3d 99 3c c8 fb 8e be 2c 9a 60 be
       0.23099159 0.018706294 -0.2792647 -0.21933812
0002c0 48 96 80 be 9d bf f5 be e7 9a af be 2a 1d 20 bf
       -0.25114655 -0.47997752 -0.3429787 -0.625445
0002d0 08 c9 1e bf 24 47 b2 be 77 08 41 be 50 e8 44 3e
       -0.620255 -0.348199 -0.18850885 0.19229245
0002e0 2b 88 92 be 7f 4f 0c bf 2d 14 10 be e8 8d 0b bf
       -0.28619513 -0.548088 -0.14070196 -0.54513407
0002f0 11 2f d7 be 6e a6 60 be 58 37 14 3e 99 0b 81 be
       -0.42028096 -0.21938488 0.14474237 -0.2520416
000300 af f0 93 be 05 f9 58 bd 2a 3d 1a bf 78 a8 a2 be
       -0.28894565 -0.05297186 -0.6024958 -0.31769156
000310 1b 6f fe be ca 69 74 3e 73 fe 1d 3e af af f3 be
       -0.49694142 0.2386848 0.15429096 -0.47594973
000320 d9 29 88 be 0a ee e7 be 0e 54 43 3e d1 ac ec bc
       -0.26594427 -0.45298797 0.19075033 -0.028890999
000330 53 42 31 be 16 20 84 be ab 59 08 bf c9 a9 3d 3e
       -0.17310457 -0.2580573 -0.5326182 0.18521799
000340 fb 92 14 bf 57 28 6e be 28 da 92 be 41 e9 a6 be
       -0.58036774 -0.23257576 -0.28682065 -0.32599834
000350 61 af fc be c4 38 d4 be 2c fe 07 bf 59 1f 2b 3e
       -0.49352553 -0.4144956 -0.5312221 0.16711177
000360 e9 65 42 bf 73 12 e0 3d d4 59 40 3e db a7 9a be
       -0.7593675 0.10941019 0.18784267 -0.3020619
000370 a9 86 80 3d 5f 94 e2 be 2e e0 96 be e1 52 c6 be
       0.062756844 -0.44253823 -0.2946791 -0.38735107
000380 31 40 75 3e 01 9b 8c be 24 72 38 3e 1f 21 f5 3d
       0.23950268 -0.2746201 0.18012291 0.11969208
000390 0e f6 89 3d 29 f4 7f 3e e5 4a a9 bc a4 27 dd 3d
       0.06736384 0.24995483 -0.020665595 0.107985765
0003a0 bb 34 db 3c 28 cf 38 3e 2d 8f d2 be 0e 97 9a 3d
       0.026758542 0.18047774 -0.4112486 0.07548343
0003b0 42 30 b2 be 52 08 d6 3d c3 1a e8 be f0 0e de 3d
       -0.34802443 0.10450806 -0.45332918 0.10842693
0003c0 49 09 1c bf a5 ea 41 3e d2 7e 1e 3e fa a9 04 bf
       -0.6095167 0.18937166 0.15478066 -0.51821864
0003d0 74 de b1 be 30 2e 7a bd a3 0b 68 3c ba 6e 8d 3e
       -0.3474003 -0.061079204 0.014162931 0.2762354
0003e0 46 6b 8b 3d 27 32 1a be 57 b5 10 3e 14 a4 07 3e
       0.0680757 -0.15058194 0.14131676 0.13246185
0003f0 b2 84 e6 3d bc 8e c6 bd b8 cb 73 3d 74 8b 01 bf
       0.11255778 -0.09695193 0.059520453 -0.50603414
