bots/Tsoy.chatbot/converted_model.tflite (tflite, 838072 bytes, 4 tensors)

in/MatMul_bias f4 [120]
00000000: 6702 863e 53d2 823e 5f49 7c3e ae61 8e3e
00000010: 9029 5a3e 2aae 5f3e 0169 813e bbe4 9a3e
00000020: a60f 933e 0ad7 453e 64a6 883e 495f 163e
00000030: 37c3 553e fa98 213e 76f1 9a3e d685 603e
00000040: 07fe 733e 2065 8c3e 16be 8e3e c3e0 653e
00000050: b71a a53e 6689 2c3e e709 733e 8c9f 8d3e
00000060: 1c7a 463e 1811 8a3e 490e a83e 3697 563e
00000070: 5a38 843e cf0f 9c3e 3752 7e3e 01eb 8b3e
00000080: 39ca 4b3e 4190 9c3e 4fee 413e e5f8 423e
00000090: 9c54 563e 03bb 973e 5ba2 8f3e 7e0a 803e
000000a0: fd65 813e 5ef4 453e a5fa 953e daef 953e
000000b0: c4fd a93e e98c 9e3e 1f11 903e 05c0 0c3e
000000c0: 217e 3d3e 2823 963e 98a8 903e 53b7 8d3e
000000d0: f57f a33e e23d 903e 3d37 903e 0dae aa3e
000000e0: fe15 963e 7bbe a43e 1741 753e 7502 8a3e
000000f0: eeb2 5b3e 6412 663e b4d8 4f3e 5e7b 893e
00000100: 9e5b 6f3e c0d4 853e 44c7 6f3e 2785 6b3e
00000110: 1358 693e e88f 3d3e 530b 6f3e 8813 343e
00000120: 8b35 413e fc81 ad3e 5181 c73e 7d87 6d3e
00000130: ba80 823e cce3 493e b664 893e 464b 303e
00000140: 5079 b83e 4f9c 893e 7a32 7f3e ab78 913e
00000150: 1728 553e b75b bc3e 7911 c53e f88f 8e3e
00000160: 630f 713e 2035 533e 0d09 8d3e c6c1 ad3e
00000170: 0285 493e 39cd 883e f9bb 593e 9e4b 9c3e
00000180: 56ac a53e 7bf1 683e 1d3b 833e acf1 923e
00000190: 888e 263e ca47 ab3e ddbc 923e 804a 913e
000001a0: db33 8c3e 52c8 813e 6722 673e 46a7 653e
000001b0: 05e6 913e f238 5a3e c9cd 593e 84b0 a03e
000001c0: d64e 603e 647b 343e 13d0 503e 9874 553e
000001d0: 9d93 863e c860 823e c934 4f3e 103f 503e
0.26173708 0.2555109 0.24637364 0.278089 0.21304917 0.21843782 0.25275424 0.30252632
0.28722876 0.19320312 0.26689446 0.14684786 0.2087525 0.15781012 0.30262345 0.21926054
0.23827372 0.27420902 0.278794 0.22449021 0.32246944 0.16849288 0.23734246 0.27660787
0.19382519 0.26966166 0.328234 0.2095612 0.25824243 0.3048081 0.2483605 0.2732773
0.1990136 0.30578807 0.18938564 0.19040258 0.20930713 0.29634866 0.28053555 0.25008005
0.25273123 0.193315 0.2929279 0.29284555 0.3320142 0.3096688 0.28138062 0.13745125
0.18505146 0.29323697 0.28253627 0.27678928 0.3193356 0.28172213 0.28167143 0.33335915
0.29313654 0.32176575 0.23950611 0.26955 0.21454975 0.22467953 0.2029751 0.26851934
0.23374793 0.26138878 0.23415858 0.23000012 0.22787504 0.18511927 0.23344164 0.17585576
0.18868081 0.33888233 0.38965848 0.23196216 0.25488836 0.19715804 0.2683465 0.17216215
0.36030054 0.26877066 0.24921599 0.28412375 0.20816074 0.36788723 0.38489893 0.27844214
0.23541026 0.20625734 0.27545968 0.339369 0.19679645 0.26719072 0.21263112 0.3052644
0.32358044 0.22748367 0.25631037 0.28700006 0.16265309 0.33453208 0.28659716 0.2837715
0.27383313 0.25348145 0.22571717 0.22427091 0.28495803 0.21310785 0.21269907 0.3138467
0.21905074 0.17625195 0.20391874 0.20845258 0.26284495 0.25464463 0.2023498 0.20336556

in/kernel/transpose f4 [120, 1646]
00000000: e515 2a3e 194a fd3c 12fb 01bd 8087 223e
00000010: 75a4 033e 850e 933d 19e4 bf3d 2296 173e
00000020: e7d4 ef3d 135c 613e 1558 043e c5cb 2a3e
00000030: 0815 313e 9282 273e 4cab 4fbd b157 fbbd
00000040: c606 22bd 1d45 513e 7b98 fb3d 382f 343e
00000050: 5809 64bd 81c0 413e 08b8 52bd 7b60 28be
00000060: b264 de3d 6332 91bc ba8d 613e 9204 353e
00000070: b0bc 4e3e 0818 553e 57d2 6e3e 54b9 6bbe
00000080: 6d76 0f3e 1d7b 5a3e 5794 eabd 478d 583e
00000090: cff8 333e c409 5bbe 3127 dd3d e4de 183e
000000a0: 9209 2d3e c98d 34bd fb45 c93d b24c 71bc
000000b0: 630e 4dbe 7e9c 09bd 3cb7 f73d 6232 6cbc
000000c0: babb 15be 0929 d53a e70d 333e 4f77 973d
000000d0: cbee 92bd de5a 2d3e daa1 0fbe 7a11 2bbe
000000e0: 2189 313e 8bd6 543e 03c0 62be 3833 1dbe
000000f0: 9e14 2c3e f0f5 2f3e 5f4a 7ebe 5126 f4bd
00000100: d4cd 1e3e 4fc7 8c3e 6b45 973e e0d6 2ebe
00000110: d15b 0dbe 3472 2fbe 1a2c 87be 1921 95be
00000120: 4af0 84bd 504c 853e a3e3 3c3e fc9e 37be
00000130: b7e1 c33d c69c 21be e683 85be b9d6 dabd
00000140: ca4b cebd 799d 4c3e a495 363e a1b7 dbbc
00000150: 627f a6be 5f5f 74bd 157d 40be b58d fe3d
00000160: 3297 cabd 3471 563d a3bc 30be d968 9fbc
00000170: ba1a 653e 905f 94bd 5a7a 783c 58b0 103d
00000180: 9305 e0bd 5f44 8bbe 24a5 bfba 0d41 8c3c
00000190: 339f 823e 1a4e 21be d85f 033e 6e31 ab3d
000001a0: f1cd 2d3e 153c 4bbd a7c5 bf3d 4576 4f3e
000001b0: a7f2 533e 51a1 9ebc fcac 0fbe dec2 c73d
000001c0: 0bc3 acbd 557a 5dbe 5f82 9f3d 534c 81be
000001d0: 8cc2 253e f491 a13d a4d3 febd 9583 7ebd
000001e0: 24c1 a9bc cb92 37bd 7fb2 bbbd c1cf cd3d
000001f0: f569 6f3e 402c 02be a7d9 093e 29c6 01be
00000200: d32c 543e 1c62 82be f609 033e b48c cf3d
00000210: 31a6 0bbe a8ef 32be f8ed 76bd 6080 d83d
00000220: 8be7 fc3c 4b97 0fbe 07fa edbd 62d2 bebd
00000230: 9c4b 433e cfe2 1f3e ffbb 203b 062b 743e
00000240: 4e51 583e 9f4c f1bc 5a5a ad3d 877c 6fbd
00000250: 5a99 e3bd 1d4e 59bd 56c2 073e de81 063e
00000260: 0a32 b63d d155 06be 5d46 c3bd cf0b bdbc
00000270: 5bd6 32be 282f 07be 7b98 1d3e 78c6 0ebc
00000280: 6133 3e3e 5180 98bd 788e 133e 632a 76be
00000290: 7e41 893e bd2c 013e bf10 f1bc cc08 a2bd
000002a0: 6015 c13d 6368 a6bd 9bdc 72be 94d8 913e
000002b0: fa01 abbd 4ff5 2bbe a615 48be 41ec 89bd
000002c0: c4ee 04be 6922 4f3e 64e4 8abd c3e0 0bbb
000002d0: 6365 503e 7708 323e 78b2 323e 09de 523e
000002e0: 16f7 70be 0628 1bbe 485d dcbd 4c99 f33d
000002f0: 49d4 6bbd 774a 133d 5217 c63d 9979 f83d
00000300: 118b 5e3d f3d0 77be 90a7 05be b285 32be
00000310: c44c 86be 1eda 27be 23ea a3bd 0031 bd3c
00000320: 487f 7bbc 52c0 b23d 44c1 023e 3c52 163e
00000330: 16b8 0bbe d500 d7bc 6683 a4bd 4f57 9bbd
00000340: b0bf b13d 49ba 543e 69fd 3a3e 31e6 383e
00000350: d680 cebd 6191 1d3e 837b d13d 16f7 ec3d
00000360: 1da5 a63d 7892 1b3e 5061 84be 76e2 a6bd
00000370: c828 71be 8d60 80be 3810 c9bd 7fe5 353e
00000380: a7a0 b03d 5d82 56bd 5787 0bbd d894 ee3d
00000390: fe50 473e 4e0f 53be b33c 32be 802a 463d
000003a0: e69b 9f3d 4e31 673e 0c98 74be f780 bbbb
000003b0: 75e8 4e3e 9d1f f7bd 606c 2e3e bebc 63be
000003c0: c2c6 593e 7d3b 5abe e3dd efbd cfb0 07be
000003d0: 9376 4dbd 63a3 33be 9092 37be f4f1 41be
000003e0: a333 e93e 24cf d9bd 408a 57be cecd 88be
000003f0: f6e2 433e 83b3 17be 423f 693d 98e0 d1bc
0.16609915 0.030919122 -0.03173358 0.15872002 0.12855704 0.07180504 0.09369678 0.14803365
0.1171053 0.2200778 0.12924226 0.16679294 0.17293179 0.16358402 -0.05070047 -0.12272585
-0.03955724 0.20436521 0.12284943 0.17596138 -0.055672973 0.1892109 -0.051445037 -0.16443054
0.1085905 -0.017724222 0.2202672 0.17677525 0.20189166 0.20809948 0.23322426 -0.23019916
0.1401002 0.21336026 -0.11454075 0.21147643 0.17575382 -0.21390444 0.10798491 0.14928776
0.16898182 -0.04408053 0.09827801 -0.014727758 -0.2002502 -0.03359651 0.12095496 -0.014416309
-0.14622393 0.001626284 0.17485772 0.07395803 -0.071744524 0.16929194 -0.14026585 -0.16705886
0.17337467 0.20784967 -0.22143559 -0.1535157 0.1680474 0.17183661 -0.24833058 -0.11921371
0.15508205 0.2749581 0.2954515 -0.17074156 -0.13804556 -0.17133409 -0.26400834 -0.29126814
-0.06491144 0.26034784 0.18446212 -0.17931741 0.09564536 -0.1578246 -0.26077193 -0.10685486
-0.10073049 0.19981946 0.17830521 -0.02682096 -0.3251906 -0.059661265 -0.18797715 0.12429372
-0.098921195 0.052354053 -0.17259459 -0.019459175 0.22373477 -0.072447896 0.01516589 0.035324425
-0.10938563 -0.272006 -0.0014621359 0.017120862 0.25512084 -0.1575245 0.1282953 0.08359037
0.16973092 -0.049617846 0.09363871 0.2025996 0.20698033 -0.019364031 -0.14030832 0.09753965
-0.08435639 -0.21628697 0.07788538 -0.25253543 0.16187495 0.078891665 -0.12442711 -0.062137205
-0.02072198 -0.044817727 -0.09164905 0.100493915 0.23380263 -0.12712193 0.13461934 -0.12673248
0.20720224 -0.25465477 0.12796769 0.10134259 -0.13637616 -0.17474234 -0.06028554 0.105713606
0.030872127 -0.14022557 -0.116199546 -0.09317471 0.19071811 0.15613864 0.0024526117 0.23844537
0.21124765 -0.029455481 0.08464499 -0.058468368 -0.11113234 -0.05305301 0.13257727 0.13135478
0.08896263 -0.13118674 -0.09534905 -0.02307692 -0.17464583 -0.13201582 0.15390198 -0.008714311
0.18574287 -0.074463494 0.14409816 -0.24039607 0.2680778 0.12614723 -0.02942693 -0.07911834
0.09427905 -0.08125379 -0.23716967 0.28485548 -0.083499864 -0.16792797 -0.19539508 -0.06734515
-0.12981707 0.2022797 -0.06781843 -0.0021343685 0.20351176 0.17386042 0.17450893 0.20592512
-0.23531756 -0.15151986 -0.107599795 0.118944734 -0.057575498 0.035959687 0.09672417 0.12132568
0.054331843 -0.24200802 -0.13052201 -0.17433813 -0.26230443 -0.16391799 -0.080036424 0.023094654
-0.01535017 0.087280884 0.12769037 0.14679807 -0.13644442 -0.026245514 -0.08032875 -0.07585012
0.086791396 0.20774187 0.18260731 0.18056561 -0.10083167 0.15387489 0.10228636 0.115705654
0.081369616 0.15192592 -0.25855494 -0.08148663 -0.23550713 -0.25073662 -0.098175466 0.17763327
0.08624392 -0.052370418 -0.034064617 0.116494834 0.1946449 -0.20611307 -0.17405967 0.048380375
0.07793407 0.22577402 -0.23886126 -0.005722161 0.20205863 -0.12066577 0.1703353 -0.22239968
0.21267226 -0.21311755 -0.117122434 -0.13251041 -0.05016191 -0.17542796 -0.17927003 -0.18939954
0.45547208 -0.10635212 -0.21048832 -0.26719517 0.19129547 -0.14814572 0.056945093 -0.02561979

out/MatMul_bias f4 [96]
00000000: 9c36 0c3c cd27 053e 78cc 01bd 7b6f b53d
00000010: f648 38bd dc21 963d 4ec7 973c 41d2 093d
00000020: 0501 ac3c e257 693d 2e58 8cbd b1cc 453d
00000030: 1497 fcbd d5de 413d 84bf 293d 06e3 283d
00000040: 0589 9cbb b5ab df3d 9da6 003d ba98 90bc
00000050: f179 b5bd c7c8 56bb 561b 303d 2181 4abc
00000060: 9911 c93c db21 d8bd 1085 953c 31fd 7bbd
00000070: 7803 57bc 0f53 1b3b a90e d8ba dbb9 c0bd
00000080: 7975 10be 80f2 0f3c d76a 5d3d d299 91bd
00000090: 1651 f1bc 36e8 73bd cf49 e93c 6aab 2abd
000000a0: 5cc7 073c e1cf ea3c 0b03 44bd 9b94 80bc
000000b0: 2338 ba3d 4e26 5bbd 4b17 ae3d 1082 963c
000000c0: 0d42 9a3b 6ff8 6fbc e581 f73c 82d5 febd
000000d0: f6ee f13a e4b5 f23d 2fb9 d63d b5da ebbc
000000e0: 81b4 51bd 3602 703d 219a 17bb f0df dbba
000000f0: db2b a7bc f415 d13c 06c4 e8bb 9936 28be
00000100: 10ae d23b 6c79 11be 8d72 953d de81 8cbd
00000110: edc7 2ebd a611 1bbc de00 c9bd 6526 97bd
00000120: 861a 09be 66ba a93c 4be4 d0bc e9e6 94bc
00000130: 23ae 333d fa7e 38bc 5284 b3bc 71a2 0c3d
00000140: 4359 2fbd 3c59 63bc c145 293e ff97 6f3d
00000150: b346 9d3c e52a 93bd 6454 30bd 590a 46bd
00000160: 8657 aebc 6ce0 a1bd 136f 993a a53f 09bd
00000170: 0d3a e13c 1b13 79bd afcf c7bc bbf6 ad3c
0.008557942 0.13003464 -0.031689137 0.08859154 -0.044991456 0.07330677 0.018527653 0.03364778
0.02099658 0.056968577 -0.068527564 0.048290912 -0.12333503 0.04733165 0.04144241 0.04123213
-0.004777076 0.109214224 0.031408895 -0.01765095 -0.08861149 -0.0032773481 0.04299482 -0.012359888
0.024544524 -0.105533324 0.018251926 -0.06152076 -0.013123386 0.002370063 -0.0016483861 -0.09410449
-0.14107312 0.008785844 0.05405697 -0.07109417 -0.02945761 -0.059547625 0.028477577 -0.04166738
0.008287277 0.028663578 -0.047854465 -0.01569586 0.090927385 -0.053503327 0.085005365 0.018372566
0.004707581 -0.0146466335 0.030213306 -0.12443067 0.0018458057 0.11851099 0.1048454 -0.028790811
-0.051197533 0.05859586 -0.002313264 -0.0016775113 -0.020406654 0.025523163 -0.007103446 -0.16427077
0.0064294413 -0.14206475 0.072972395 -0.06860708 -0.042671133 -0.009464657 -0.098146185 -0.0738037
-0.13389024 0.020718765 -0.025499484 -0.018176513 0.04386724 -0.011260742 -0.021913681 0.034334604
-0.042809736 -0.013876256 0.16530515 0.058494564 0.019198751 -0.07185916 -0.04304923 -0.048349712
-0.021281969 -0.07904133 0.0011706076 -0.03350796 0.027493501 -0.060809236 -0.024391023 0.021235814

out/kernel/transpose f4 [96, 120]
00000000: 59c5 35bf 9911 60bf fd01 2a3e 4629 ac3e
00000010: 480c 6abf 2281 92be 623e 6d3e e988 b03d
00000020: 3578 b13d 37bd 2a3e 8889 153e b699 b5bf
00000030: 72f6 a8bf 4e08 b7bf c548 5b3e 9807 59bf
00000040: 8b28 253e a7d1 53bf 6034 703d 86a7 77bf
00000050: 23de d33d 194d 62bf 59a6 4d3e 1649 503e
00000060: d27c 84bf 2fb3 833e 1bd8 723e 069d 8cbf
00000070: e023 603e 4b59 6f3e c291 2f3e ae03 d93d
00000080: 7111 9fbf 0491 2a3e 7b1e 83bf 3528 83bf
00000090: 0156 13bf 8948 ae3e fec5 ef3d 8bf7 1f3e
000000a0: a0c1 6bbf fe47 9dbf cd0a 673e 622d 473d
000000b0: a3fa 903e 9b90 103e db5a 38bf de59 8bbf
000000c0: 753e 92bf 83d9 df3d bd77 293e 7c60 883d
000000d0: 506e 1e3e f046 5bbd 1a5c 9f3e 8b46 2a3e
000000e0: 015e 0d3e 2e52 fc3d 3d21 80bf 4cd5 983c
000000f0: 5876 1a3e 945c f43d d1d1 80bf 5f36 2f3e
00000100: 5573 6d3e 2aa2 5d3e 062a 42bf 7e13 c03d
00000110: 97c5 3d3e 48c2 adbf 827b 2b3d 7e80 4cbf
00000120: 9fb7 a43d 83f8 7d3e 380f 0b3e b5a1 643e
00000130: 7fa9 7d3e e510 313d 7d9d 3c3e cd9a 8dbf
00000140: e5f2 4d3e 1bb3 083e c80f ef3d 9d02 a93e
00000150: 5271 f83d ad58 623d 1f49 103e 7d5e 5a3e
00000160: b075 593e 9ca2 41bf 46d3 7d3e 41ed 8d3e
00000170: 08de 93bf 41c3 693e 22d5 0abd db06 113e
00000180: ceeb 413e 22a1 9bbf 729b ac3d fabb 0b3e
00000190: a931 743d 8e8c 033e e674 643e 0fa1 933e
000001a0: 4571 5b3e 02ce 053e 08bb 83bf 55e6 733d
000001b0: d39a a43e 8866 833e ff12 6f3e 70a0 563e
000001c0: 078b 72bf ef9e 97bf e59e 4fbf 3eda 84bf
000001d0: 8ac7 623e 7dc2 8b3e bc8b 293e 619e 84bf
000001e0: 4605 36bf 6ad3 943e 4434 03bf 6451 47bf
000001f0: 8a2b b3be 16d1 8d3e 00ae 4ebe 5e55 13bf
00000200: 6590 8b3e 35e6 71bf 2e0d 30bd 62f6 4c3e
00000210: ee03 a3be a8ae 9dbe dbb7 c7be 37dd 33bd
00000220: a738 973e 010e b03e 3f64 78bf c726 28bf
00000230: 7e91 513e e02a b2be 495c 2bbf 5ac4 31be
00000240: 7d1d 8c3e b6f7 fc3d 4a64 89bf 6039 22bf
00000250: 907e d2be 7055 b3be 5f4e 36bf 838e 4ebf
00000260: fbdf 21bf 14b4 92bf 57f7 e03d 961d e63d
00000270: 5bc8 bebf 22b8 00bf e995 acbe 321e 09bf
00000280: 3e6e b83d af8b 173e 6cb4 f2be 2e34 ac3e
00000290: 7c12 37bd 8d3f 81bd 4668 f73d 11c8 80bf
000002a0: 33d8 8cbf 5799 2cbe d28b c6bf 0037 7bbe
000002b0: ee76 983d 8003 04be e598 4bbf 3909 ae3e
000002c0: 276c d8bd 9087 a7be 120b 9ebe 0a27 a83e
000002d0: 4631 3abf b48f 68bf 5568 673e 9b2a bd3e
000002e0: f23b 1abf f52c 9b3e 97d7 b53e 9e9f 713e
000002f0: 2aef 05bf 2bf7 61bf f220 843e 5b59 1e3e
00000300: fb54 27bf 9ff3 d53e 919a 8b3e 920e 7bbe
00000310: 6cba 9c3e 2209 16bf 8dfc 46bf 8675 f6be
00000320: d064 85bd 0085 133e 538c b33e 4c77 593e
00000330: d2e2 653e 69a4 e03e 5d2a f1be 5683 953e
00000340: bf3b 27bf 4982 ebbe 3746 733e bfcc b03e
00000350: 5b9d d8bd fb58 5ebe 6fe8 61bf a005 373d
00000360: 2701 d83e 15f8 afbf de29 7cbf e2aa 04bf
00000370: 20ee 30bf 1016 aa3e b7c0 1abf 745c a43d
00000380: 6618 79bf 40cc 983e 9f0e 943e 37f0 8a3e
00000390: e0fd 3ebd a124 66bf 7a56 13bf 2f36 a53e
000003a0: a4c1 8ebd 15d5 b6be 1d9b a73e 4d52 2ebf
000003b0: 4338 b7bf f0e8 04bf 8c37 36bf bd1e bd3e
000003c0: a4e3 80bf 97da 84bf e26a a13e d6be 39bf
000003d0: 41dc 303e 1d22 ee3d 1e48 28bf f259 39bd
000003e0: 97cf 8b3e 23ca 38bf 91b1 63bf 7d75 1dbf
000003f0: 9bde 433e b3b5 603e 80a4 9dbf e803 e1be
-0.71004254 -0.8752685 0.16602321 0.3362524 -0.9142499 -0.28614146 0.23168328 0.086198635
0.08665506 0.16673742 0.14603245 -1.4187534 -1.3200209 -1.4299409 0.21414478 -0.8477721
0.16128747 -0.8274178 0.0586437 -0.96739995 0.103451036 -0.8839889 0.20082988 0.2034038
-1.0350592 0.25722644 0.2371525 -1.098542 0.21888685 0.23373906 0.17145446 0.10596405
-1.2427198 0.16656882 -1.0243677 -1.0246645 -0.57553107 0.34039715 0.11707686 0.15621774
-0.92092323 -1.2287595 0.22562714 0.048627265 0.2831622 0.14117663 -0.72013634 -1.08868
-1.142531 0.10930159 0.16549583 0.06659028 0.15471768 -0.05353445 0.31124955 0.16628473
0.13805391 0.12320362 -1.0010144 0.018656395 0.15084207 0.119317204 -1.0064031 0.17110585
0.23188527 0.21643892 -0.7584537 0.09378718 0.18532406 -1.3574915 0.041865833 -0.79883564
0.080428354 0.24801831 0.13580024 0.22327311 0.24771689 0.043229003 0.18419452 -1.1062866
0.20112188 0.13349573 0.11672932 0.33009806 0.12130989 0.05526035 0.14090393 0.21325107
0.212363 -0.7563875 0.24787626 0.27720073 -1.1552134 0.2282839 -0.033894666 0.14162771
0.18937609 -1.2158549 0.08428086 0.13645926 0.059617672 0.12846586 0.22310218 0.28833815
0.21429928 0.13066867 -1.0291452 0.059545834 0.32149372 0.25664163 0.2334709 0.2095964
-0.9474339 -1.1845378 -0.8110183 -1.0379102 0.2214643 0.2729682 0.1655721 -1.0360833
-0.71101797 0.29067546 -0.51251626 -0.7785857 -0.34994155 0.27698582 -0.20183563 -0.57552135
0.27258602 -0.94491893 -0.04298132 0.20015863 -0.31838936 -0.30797315 -0.39007458 -0.04391214
0.2953541 0.34385684 -0.97027963 -0.6568417 0.20465657 -0.34798336 -0.6693769 -0.17360058
0.27366248 0.123519346 -1.0733731 -0.633688 -0.41112185 -0.3502612 -0.71213335 -0.80686206
-0.6323239 -1.1461205 0.10984676 0.11236112 -1.4904894 -0.50280964 -0.33708122 -0.535617
0.09005402 0.14799379 -0.47403276 0.3363356 -0.044695362 -0.063109495 0.120804355 -1.0061055
-1.1003479 -0.1685537 -1.551142 -0.245327 0.07444559 -0.1289196 -0.79530174 0.3399141
-0.105675034 -0.32720613 -0.3086782 0.32842284 -0.72731435 -0.90844274 0.22598393 0.36946568
-0.6024772 0.30307737 0.35516044 0.23596045 -0.5231806 -0.88267773 0.25806385 0.15463774
-0.65364045 0.4178743 0.27266362 -0.24517277 0.3061098 -0.58607686 -0.7772911 -0.48136538
-0.06513369 0.14406204 0.35067996 0.21236914 0.22449806 0.43875435 -0.47102633 0.29201764
-0.6532554 -0.45997837 0.23757254 0.3453121 -0.10576888 -0.21713631 -0.8824529 0.0446831
0.4218838 -1.3747584 -0.98501384 -0.51823246 -0.6911335 0.33219957 -0.6045031 0.080254465
-0.97302854 0.2984333 0.28917405 0.27136394 -0.046628833 -0.8989964 -0.5755383 0.322679
-0.06970528 -0.35709444 0.3273553 -0.6809433 -1.4314045 -0.51917934 -0.7117851 0.36937514
-1.006947 -1.0379208 0.31526858 -0.7255682 0.1727152 0.116276 -0.6573504 -0.045251794
0.27306816 -0.72183436 -0.8894282 -0.615074 0.19127886 0.21944313 -1.2315826 -0.43948293
