bots/en/Einstein.chatbot/converted_model.tflite (tflite, 944516 bytes, 4 tensors)

in/MatMul_bias f4 [200]
0	0x3e468463	0.19386439
1	0x3e5cc2d6	0.21558699
2	0x3e5f283c	0.21792692
3	0x3e44f929	0.19235672
4	0x3e3398b9	0.17538728
5	0x3e398b05	0.18119438
6	0x3e277b81	0.16355707
7	0x3e5331a8	0.20624411
8	0x3e3dce61	0.18535759
9	0x3e57aae1	0.21061279
10	0x3e3ed81b	0.18637125
11	0x3e24a666	0.16079101
12	0x3e3eeab6	0.18644223
13	0x3e570f5d	0.21001954
14	0x3e5253b5	0.20539744
15	0x3e4983a5	0.19679125
16	0x3e51e9a0	0.20499277
17	0x3e5722bf	0.21009348
18	0x3e5df88a	0.21676841
19	0x3e4c254a	0.199361
20	0x3e37e1ff	0.17957304
21	0x3e4bf91d	0.19919248
22	0x3e33529b	0.1751198
23	0x3e4be2f4	0.19910794
24	0x3e342e05	0.1759568
25	0x3e1a9bcd	0.15098496
26	0x3e3c9eb3	0.18419914
27	0x3e35227e	0.17688939
28	0x3e540ea7	0.20708714
29	0x3e45b67d	0.19307895
30	0x3e3c35bb	0.18379872
31	0x3e3509b6	0.17679486
32	0x3e3cf701	0.184536
33	0x3e12b355	0.14326222
34	0x3e35b76f	0.17745756
35	0x3e39fd51	0.18163039
36	0x3e3dd7e1	0.18539383
37	0x3e290d07	0.16508876
38	0x3e3afa10	0.18259454
39	0x3e419ca5	0.18907411
40	0x3e547d4b	0.2075092
41	0x3e44ff32	0.19237974
42	0x3e4b165c	0.19832748
43	0x3e4a2c6c	0.19743508
44	0x3e2261c4	0.15857607
45	0x3e6198e0	0.22030973
46	0x3e648944	0.22317988
47	0x3e1e2e13	0.15447263
48	0x3e3b2b40	0.18278217
49	0x3e477f73	0.19482212
50	0x3e32ec8c	0.17473048
51	0x3e384ab9	0.17997254
52	0x3e2a8cf2	0.16655329
53	0x3e2f332a	0.17109361
54	0x3e493600	0.19649506
55	0x3e47cd78	0.19511974
56	0x3e11c2fc	0.14234537
57	0x3e46320f	0.19355033
58	0x3e4e49e1	0.2014537
59	0x3e620cea	0.22075239
60	0x3e5408b9	0.20706452
61	0x3e51b0c6	0.2047759
62	0x3e4f7cc2	0.20262435
63	0x3e356a23	0.17716269
64	0x3e530077	0.20605646
65	0x3e71499a	0.23563233
66	0x3e2f4cb2	0.171191
67	0x3e553fda	0.20825139
68	0x3e53b8c5	0.20675953
69	0x3e4e9b80	0.20176506
70	0x3e43dfbb	0.19128315
71	0x3e5ddd7a	0.21666518
72	0x3e568537	0.20949255
73	0x3e3e90e2	0.18609956
74	0x3e4038b8	0.18771636
75	0x3e32413e	0.174077
76	0x3e2562ae	0.16150925
77	0x3e34d9fd	0.17661281
78	0x3e33ec33	0.17570572
79	0x3e359cff	0.1773567
80	0x3e469ef3	0.19396572
81	0x3e59208d	0.21203823
82	0x3e39f63a	0.18160334
83	0x3e49f2b7	0.19721495
84	0x3e30c22a	0.17261568
85	0x3e5c7e20	0.21532488
86	0x3e4488ba	0.19192782
87	0x3e37fd41	0.17967702
88	0x3e5852e9	0.21125378
89	0x3e4c5278	0.19953334
90	0x3e40eee4	0.1884113
91	0x3e586b65	0.21134718
92	0x3e48f1e9	0.19623531
93	0x3e44edb6	0.19231305
94	0x3e5b5de7	0.2142254
95	0x3e175407	0.14778148
96	0x3e63be6d	0.2224061
97	0x3e32b66f	0.17452405
98	0x3e4e101d	0.20123334
99	0x3e50f3d4	0.20405513
100	0x3e35d792	0.17758015
101	0x3e3f8a21	0.18705036
102	0x3e5f5889	0.21811117
103	0x3e478e4f	0.1948788
104	0x3e3a831d	0.18214078
105	0x3e45e745	0.19326504
106	0x3e2b87ab	0.16750972
107	0x3e6918e1	0.22763397
108	0x3e5565e6	0.20839652
109	0x3e56dab6	0.20981869
110	0x3e380887	0.17972003
111	0x3e34ac21	0.17643787
112	0x3e4543c7	0.19264136
113	0x3e513ab6	0.20432553
114	0x3e6138a3	0.21994261
115	0x3e3ee3c1	0.18641569
116	0x3e5ab118	0.21356618
117	0x3e2ae0a7	0.1668726
118	0x3e3aa6c8	0.18227684
119	0x3e569df9	0.209587
120	0x3e3586fc	0.17727274
121	0x3e564b65	0.20927198
122	0x3e40298f	0.18765853
123	0x3e316c45	0.17326458
124	0x3e2accbe	0.16679665
125	0x3e26a8d8	0.16275346
126	0x3e424dd8	0.18975008
127	0x3e4ad24c	0.19806784
128	0x3e3a8b71	0.18217255
129	0x3e3e45ee	0.18581364
130	0x3e20e94b	0.15713994
131	0x3e3934fc	0.18086618
132	0x3e39a397	0.18128811
133	0x3e42da1b	0.19028513
134	0x3e694b7c	0.22782701
135	0x3e5ec4cc	0.2175476
136	0x3e654318	0.22388875
137	0x3e2ab0e1	0.16669036
138	0x3e2b05e6	0.16701469
139	0x3e2fdb9e	0.17173621
140	0x3e4c4cf3	0.19951229
141	0x3e5d90f5	0.21637328
142	0x3e4bd4a6	0.19905338
143	0x3e5a956c	0.21346062
144	0x3e2bb68a	0.16768852
145	0x3e5013b0	0.2032001
146	0x3e4a82a7	0.19776402
147	0x3e6db301	0.23212816
148	0x3e6f67a6	0.23379382
149	0x3e5f15a2	0.21785596
150	0x3e7c6d6d	0.24651118
151	0x3e4776d2	0.1947892
152	0x3e4124ba	0.18861666
153	0x3e6152b7	0.2200421
154	0x3e28ba8c	0.16477412
155	0x3e453845	0.19259746
156	0x3e5453f6	0.20735154
157	0x3e3f502f	0.18682931
158	0x3e1d09fd	0.15335841
159	0x3e44333a	0.19160166
160	0x3e36c4a7	0.17848454
161	0x3e6eea64	0.233316
162	0x3e395e35	0.18102343
163	0x3e3a8325	0.1821409
164	0x3e344013	0.17602567
165	0x3e5f7ed3	0.21825723
166	0x3e46ace4	0.1940189
167	0x3e5a9925	0.21347483
168	0x3e81c7bf	0.25347707
169	0x3e49f1c4	0.19721133
170	0x3e3b3fac	0.18286008
171	0x3e4bbacc	0.19895476
172	0x3e3e989d	0.18612905
173	0x3e4397ec	0.19100922
174	0x3e5ff845	0.21872051
175	0x3e473370	0.19453216
176	0x3e47411e	0.19458434
177	0x3e29c552	0.16579178
178	0x3e51d543	0.20491509
179	0x3e699cc5	0.22813709
180	0x3e5a73ae	0.21333191
181	0x3e614abd	0.22001167
182	0x3e2e9ed3	0.17052774
183	0x3e46f4bd	0.19429298
184	0x3e81665c	0.25273407
185	0x3e238ed7	0.15972458
186	0x3e33a331	0.17542721
187	0x3e68a821	0.22720386
188	0x3e6891da	0.22711888
189	0x3e29e4ca	0.16591182
190	0x3e4fb861	0.20285179
191	0x3e69785a	0.22799817
192	0x3e22a6c7	0.15883933
193	0x3e39f563	0.18160014
194	0x3e453226	0.19257411
195	0x3e49cf69	0.19708027
196	0x3e4ae894	0.19815284
197	0x3e5951ab	0.2122256
198	0x3e4e1468	0.20124972
199	0x3e442b6f	0.19157194

in/kernel/transpose f4 [200, 1111]
0	0xbdb2ce92	-0.087308064
1	0xbd5780e8	-0.05261317
2	0xbca1d8bc	-0.019756667
3	0xbddb468b	-0.107068144
4	0xbd366c82	-0.044537075
5	0xbe04877e	-0.12942311
6	0xbd2c5649	-0.042074475
7	0x3d1ab8b0	0.037773788
8	0x3d51b015	0.051193316
9	0x3cc1cfef	0.02365872
10	0x3ceb7fae	0.028747406
11	0x3d1af3b5	0.037830073
12	0xbd81f5af	-0.063456886
13	0x3dfcbe2e	0.123409614
14	0xbd90d755	-0.07072321
15	0xbdac8528	-0.08423835
16	0x3e3b4459	0.18287791
17	0xbd60c8c5	-0.05487897
18	0x3db7a891	0.08967698
19	0x3d89f6ee	0.06736551
20	0xbd05a2b6	-0.032625876
21	0x3e1394e1	0.14412262
22	0x3de5f861	0.11229015
23	0x3e3cc22c	0.18433446
24	0xbde92de8	-0.11385709
25	0x3d5d9d56	0.054105125
26	0x3d614e9f	0.05500662
27	0x3df1c31f	0.118047945
28	0x3d8cecc4	0.06881097
29	0xbe2aacc6	-0.1666747
30	0xbd4ae906	-0.049538635
31	0x3dbb398b	0.09141835
32	0x3d78a1aa	0.06070105
33	0x3e381a6d	0.1797883
34	0x3d72056d	0.059087206
35	0xbda1f357	-0.079077415
36	0xbe0d16a3	-0.13778166
37	0x3e1e18a6	0.1543909
38	0xbde8f57d	-0.11374948
39	0xbdbfdc89	-0.093682356
40	0x3d0889fa	0.03333471
41	0xbd02491d	-0.031808008
42	0x3e23cce7	0.15996133
43	0x3da3458e	0.07972251
44	0x3d758c64	0.05994834
45	0xbd589a21	-0.052881364
46	0xbddbca1e	-0.1073191
47	0xbd7b48ec	-0.06134884
48	0x3dd90727	0.10597067
49	0x3cc46cfb	0.023977747
50	0x3d6ab27d	0.057299126
51	0xbd32124e	-0.043474488
52	0x3d82eb7c	0.06392571
53	0xbd816576	-0.0631818
54	0x3de288f0	0.11061275
55	0xbe391e72	-0.1807802
56	0x3dd89394	0.10575023
57	0x3d7b5d44	0.061368242
58	0xbd484097	-0.048889723
59	0x3c8bd14e	0.017067578
60	0xbde3a635	-0.11115686
61	0x3d74eead	0.05979793
62	0xbd8a30ac	-0.06747565
63	0xbe15db24	-0.14634377
64	0x3dbb5f47	0.09149032
65	0x3df565b1	0.11982287
66	0xbc76907d	-0.015049097
67	0x3e075c3a	0.13218775
68	0x3c980a02	0.01855946
69	0xbd923bcc	-0.071403116
70	0x3e3f8408	0.1870271
71	0x3d935a88	0.07195002
72	0xbe499b32	-0.19688109
73	0xbdbdd5c3	-0.092692874
74	0xbc942d6c	-0.018088065
75	0x3e4e8ecf	0.20171665
76	0xbe12edf1	-0.1434858
77	0x3e4c00af	0.19922136
78	0x3d9f93fd	0.077918984
79	0x3da15136	0.07876818
80	0x3e3626e1	0.17788269
81	0x3dc74dcb	0.09731635
82	0x3d879635	0.066204466
83	0x3e13794e	0.14401743
84	0xbe3f9e95	-0.18712838
85	0xbd509861	-0.05092657
86	0x3dec4129	0.11535866
87	0xbdee9849	-0.1165014
88	0xbd936ca6	-0.071984574
89	0x3e015eba	0.12633792
90	0xbdb513e0	-0.088416815
91	0xbc690664	-0.014222715
92	0x3e20c9ae	0.15701935
93	0xbde8a093	-0.11358752
94	0xbdb1fc4f	-0.08690702
95	0x3cca10e5	0.024666259
96	0x3d2ffc75	0.04296537
97	0x3d2c2a95	0.042032797
98	0xbdd2c995	-0.10292355
99	0xbe052535	-0.13002475
100	0xbdebb0fe	-0.11508368
101	0x3d0e210e	0.034699492
102	0xbe16494d	-0.146764
103	0x3d24235e	0.04007279
104	0x3dfedc80	0.12444401
105	0x3e0126b4	0.1261242
106	0x3d1a853d	0.037724722
107	0xbe291853	-0.16513185
108	0xbd444b43	-0.047923338
109	0x3e361035	0.1777962
110	0x3d17fdb6	0.037107192
111	0x3dc9c6ea	0.09852393
112	0x3d4e3f32	0.050353236
113	0x3d9b2f4b	0.0757738
114	0x3b6e1a15	0.0036331464
115	0x3d81cc70	0.063378215
116	0x3dcbc5b2	0.09949817
117	0x3e3c8d2e	0.18413231
118	0xbdef20b7	-0.11676162
119	0x3e422b60	0.18961859
120	0x3ded08f4	0.11573973
121	0x3ca0ba15	0.01961998
122	0x3dc22d3a	0.094812825
123	0xbd45fce0	-0.048336864
124	0xbdce4f39	-0.10073704
125	0x3cbcf34b	0.02306523
126	0xbcb0c8e6	-0.02158017
127	0xbdf377ef	-0.1188811
128	0x3dbe3e1f	0.092891924
129	0xbd39ad4f	-0.045331296
130	0xbcd3653e	-0.025805112
131	0x3dc133c5	0.094337024
132	0xbde820fd	-0.11334417
133	0x3df58a16	0.119892284
134	0x3d260b7d	0.0405383
135	0x3d3036f6	0.043021165
136	0xbcdb8fa7	-0.026801897
137	0x3db826dd	0.089917876
138	0x3c132a50	0.008982256
139	0x3dcb2200	0.09918594
140	0xbb03fe58	-0.0020140614
141	0xbbca79c0	-0.0061790645
142	0x3e1a63f7	0.15077196
143	0x3d41c31e	0.04730522
144	0x3dced576	0.10099308
145	0x3e2ceb9e	0.16886756
146	0xbd6f49f0	-0.05842012
147	0x3e0377c2	0.12838653
148	0xbcf4a1e9	-0.029862361
149	0xbe1804a8	-0.14845526
150	0x3d327a29	0.043573532
151	0xbd243a0d	-0.040094424
152	0xbcdef6ca	-0.027217288
153	0xbd27d3b4	-0.04097338
154	0x3dd9bbe0	0.106315374
155	0x3b0e092e	0.0021672952
156	0xbd3c3b20	-0.045954823
157	0xbde8cb3e	-0.1136689
158	0x3e1902c8	0.14942467
159	0xbde88c46	-0.1135488
160	0xbe175696	-0.14779124
161	0xbe33ef1f	-0.17571686
162	0xbdfcdab9	-0.123464055
163	0x3e0b84b1	0.13624837
164	0xbe0f879a	-0.14016572
165	0xbdf4e004	-0.1195679
166	0xbd9669f8	-0.07344431
167	0xbe2913c0	-0.1651144
168	0xbdd93f5f	-0.1060779
169	0x3e115d22	0.14195684
170	0x3de26a4b	0.1105543
171	0xbdf460ca	-0.119325235
172	0xbd631b20	-0.05544579
173	0x3d484968	0.04889813
174	0x3ccb4a4f	0.024815707
175	0x3e0682e2	0.13135865
176	0x3d7c4be5	0.061595816
177	0x3aea4a61	0.001787495
178	0xbdb777fb	-0.08958431
179	0x3cf466c9	0.029834168
180	0xbbf59070	-0.007494025
181	0xbb006397	-0.001959061
182	0xbd5c249b	-0.053745847
183	0x3d76e8b2	0.06028051
184	0x3e20ae94	0.15691596
185	0xbe414fce	-0.188781
186	0x3d47000d	0.048584033
187	0xbde1e566	-0.110300824
188	0x3e124b9a	0.14286652
189	0x3da4d385	0.08048157
190	0x3d7030d2	0.05864031
191	0xbd8947fd	-0.06703184
192	0x3ccb0ae3	0.024785465
193	0x3e56970a	0.20956054
194	0x3db9c3f7	0.090705805
195	0xbb6a64af	-0.0035765579
196	0x3dfbcd1c	0.12294981
197	0x3e5115c5	0.2041846
198	0xbddf39c7	-0.10899692
199	0xbc91877a	-0.017764796
200	0x3da57217	0.080784015
201	0x3d93e31a	0.072210506
202	0xbd5a9fc0	-0.053375006
203	0xbcdcf901	-0.026974203
204	0xbdbafa0d	-0.09129725
205	0x3d367ada	0.044550754
206	0x3d1b43de	0.03790652
207	0x3e02f2bd	0.1278791
208	0x3d901475	0.07035152
209	0xbdaeda07	-0.08537679
210	0x3e586702	0.21133044
211	0x3e2c370c	0.16817874
212	0x3e6fe949	0.23428835
213	0x3e2ecbae	0.17069885
214	0x3dc774ec	0.09739098
215	0x3e148d0c	0.1450693
216	0xbd70b21d	-0.058763612
217	0x3c1a9f58	0.009437405
218	0x3c0dbc79	0.008650892
219	0x3ddb886d	0.107193805
220	0xbdc41ab0	-0.09575403
221	0x3ccad083	0.02475763
222	0xbd9f1d04	-0.07769206
223	0xbd98c1ff	-0.07458877
224	0xbdf5a242	-0.11993839
225	0x3e23d699	0.15999831
226	0x3de7f959	0.11326856
227	0xbe4d11b6	-0.20026287
228	0xbda1af17	-0.07894724
229	0x3e53b968	0.20676196
230	0x3de6d4e2	0.11271073
231	0x3e206b85	0.15666015
232	0x3cdb8473	0.026796555
233	0x3e1ac3d8	0.15113771
234	0xbdd23d29	-0.102655716
235	0xbd490179	-0.04907367
236	0x3ddaf062	0.10690381
237	0xbd3db167	-0.046311762
238	0x3df5bb9b	0.119986735
239	0xbe15784c	-0.14596671
240	0x3da2de42	0.079525486
241	0xbda94f60	-0.08267093
242	0x3dff6f71	0.12472428
243	0x3d1c405d	0.03814732
244	0xbd899c17	-0.06719225
245	0xbdc6ac48	-0.09700829
246	0xbdf749e5	-0.12074641
247	0xbd9e8d5c	-0.07741806
248	0xbe228e2c	-0.15874547
249	0x3ddbd9b9	0.10734887
250	0x3d76fb13	0.060298037
251	0x3d58d319	0.052935693
252	0xbca03fde	-0.019561704
253	0xbd977362	-0.073950544
254	0xbd64fbf4	-0.055904344
255	0xbb674b57	-0.0035292709

out/MatMul_bias f4 [67]
0	0x3cef9a62	0.02924842
1	0xbceae769	-0.028674798
2	0xbd14ab3a	-0.036296107
3	0xbd16102e	-0.036636524
4	0x3c11f96d	0.008909565
5	0xbc97321b	-0.01845651
6	0x3d4b4bf2	0.049632974
7	0xbcbeacf8	-0.023275837
8	0xbe32ef42	-0.17474082
9	0x3c40aeb6	0.011760404
10	0xba5ae374	-0.0008349933
11	0x3d18bc75	0.0372891
12	0x3a839ba2	0.0010040889
13	0xbbb0654c	-0.0053831693
14	0xbb7256f7	-0.0036978105
15	0x3cbedcb0	0.023298591
16	0xbc74860f	-0.01492454
17	0xbd1c3fac	-0.03814666
18	0xbcf28e30	-0.029608816
19	0xbd483bd7	-0.048885193
20	0x3ce2d166	0.02768774
21	0x3cd69f88	0.026199117
22	0x3c8beef2	0.017081711
23	0x3c129e35	0.008948852
24	0xbcab9327	-0.020944191
25	0xbb5fa55c	-0.0034125661
26	0xbca353b5	-0.019937376
27	0x3d5d8010	0.054077208
28	0x3c6b8e5c	0.014377203
29	0xbb8dbc01	-0.0043253903
30	0x3c89009e	0.016723927
31	0xbbfa386d	-0.007636121
32	0xbbb9c6be	-0.005669444
33	0xbba83f18	-0.0051344745
34	0xbcc4ee16	-0.02403931
35	0xbaeeceee	-0.0018219629
36	0xbbc60df6	-0.0060441447
37	0xbaf8ffda	-0.0018997148
38	0xbbc068ea	-0.0058718817
39	0xbd047079	-0.032333825
40	0x3d3dcdc4	0.04633881
41	0xbd223326	-0.03959956
42	0x3cf5709b	0.029960921
43	0xbcde2773	-0.02711842
44	0x3cfe600b	0.031051656
45	0x3d091b4f	0.03347331
46	0xbc266ad8	-0.0101573095
47	0xbe3288e1	-0.17435028
48	0x3b389f34	0.0028171064
49	0xbcfa4999	-0.030552672
50	0xbd16822c	-0.036745235
51	0xbd2bfeab	-0.041990917
52	0x3c9eec7f	0.01939988
53	0x3c123eb6	0.008926084
54	0xbb1fc867	-0.0024380924
55	0x3c08f417	0.008358977
56	0x3c6770e3	0.014126035
57	0xbd11ba68	-0.03557816
58	0xbcaac249	-0.020844596
59	0xbc88c5e8	-0.016695932
60	0x3ba742a1	0.0051043783
61	0x3cb07f76	0.021545153
62	0xbc8b4649	-0.017001288
63	0x3cecf6c2	0.028926257
64	0xbc04cf71	-0.0081060985
65	0xbe32e20d	-0.17469044
66	0x3c7d9066	0.015476322

out/kernel/transpose f4 [67, 200]
0	0x3dc568db	0.0963914
1	0x3e67038e	0.2255995
2	0x3ddd58f1	0.1080798
3	0xbecb42fa	-0.39699537
4	0xbeb0674e	-0.34453815
5	0xbea21af6	-0.31661195
6	0xbecd1d71	-0.40061525
7	0xbf13bd81	-0.57711035
8	0xbecfcae2	-0.40584475
9	0x3e8f778d	0.28020898
10	0xbdb447b1	-0.088027366
11	0xbf166494	-0.5874722
12	0x3dfed18d	0.124423124
13	0xbeb793b5	-0.3585488
14	0x3de77677	0.11301892
15	0xbf458ff2	-0.7717277
16	0xbd0e3132	-0.034714885
17	0xbea1dabb	-0.3161219
18	0x3e315d8e	0.17320845
19	0xbe955646	-0.29167384
20	0x3e167397	0.14692532
21	0x3e59e2dd	0.21277948
22	0x3e576f7e	0.21038625
23	0x3e6a8145	0.22900875
24	0xbe9308d0	-0.2871766
25	0xbeefabed	-0.46810856
26	0x3db0ad68	0.086268246
27	0xbeedff3b	-0.46483788
28	0xbd057d2b	-0.032590073
29	0x3e30dfda	0.17272893
30	0x3e14da9e	0.14536521
31	0xbf04bb08	-0.5184789
32	0xbef15984	-0.47138608
33	0xbf18bf51	-0.59666926
34	0x3e8c403c	0.27392757
35	0xbf3cc7fe	-0.73742664
36	0xbedf812a	-0.43653232
37	0x3e8e8186	0.27833194
38	0xbefd4fc6	-0.49474925
39	0x3d816fcd	0.063201524
40	0xbd253efe	-0.040343277
41	0xbeb707e0	-0.35748196
42	0xbe612366	-0.2198616
43	0x3e6e910d	0.2329752
44	0x3cd26b87	0.025686039
45	0xbf3e9ece	-0.74461067
46	0x3e8972e8	0.2684548
47	0x3dd5d335	0.10440675
48	0xbe539c37	-0.2066506
49	0x3dbb5195	0.0914642
50	0x3e8fbee1	0.28075317
51	0x3dc1ca57	0.094624214
52	0xbe8fe48f	-0.28104064
53	0xbec64e76	-0.38731736
54	0xbe9f3727	-0.31096765
55	0x3e4d9241	0.20075323
56	0x3e72728f	0.23676513
57	0x3e44f3a2	0.19233564
58	0x3e040b59	0.12894954
59	0xbf077b81	-0.52922827
60	0x3df81f4d	0.12115345
61	0xbf13d2cf	-0.57743543
62	0xbf010fde	-0.50414836
63	0xbf2107fc	-0.6290281
64	0xbeed37a3	-0.4633151
65	0xbf230409	-0.6367803
66	0x3e7f01d3	0.2490304
67	0xbe3bca69	-0.18338932
68	0x3e24503d	0.16046233
69	0x3e19493b	0.14969341
70	0x3e8b33f8	0.27188087
71	0x3d744f1c	0.059645757
72	0xbddf79f3	-0.10911932
73	0x3e0e15e0	0.13875532
74	0x3ddb62ac	0.107121795
75	0x3ddf83ee	0.109138355
76	0xbf0ceb69	-0.5504671
77	0xbca04e2e	-0.019568529
78	0xbe9256ea	-0.28581935
79	0x3e52d649	0.20589556
80	0xbe4bec1f	-0.19914292
81	0x3e2a865d	0.16652818
82	0xbeded3ad	-0.4352087
83	0xbef5be58	-0.47996783
84	0xbed5ef4d	-0.41784135
85	0xbe33a741	-0.17544271
86	0xbe7e55a8	-0.24837363
87	0x3e80ee0f	0.25181624
88	0xbea3ce6a	-0.3199342
89	0x3e8a4ec4	0.27013218
90	0xbedb623c	-0.42848384
91	0x3e46eee4	0.19427067
92	0x3e8862e2	0.26637942
93	0xbe522159	-0.20520534
94	0xbe26cd98	-0.16289365
95	0xbdd58c50	-0.10427153
96	0x3e18bfee	0.14916965
97	0x3e277d81	0.1635647
98	0x3e3fcbb1	0.18730046
99	0xbed6fe83	-0.41991052
100	0x3e7046b3	0.2346447
101	0xbe9aeaf7	-0.3025739
102	0x3e3721b4	0.1788395
103	0x3e60284e	0.21890375
104	0x3e0b3b48	0.13596833
105	0x3e042760	0.12905645
106	0x3e725be4	0.23667866
107	0x3eac4e94	0.336537
108	0x3db93d0d	0.09044848
109	0x3e2017cd	0.1563408
110	0xbe743260	-0.23847342
111	0xbe9b5014	-0.30334532
112	0x3e46fc27	0.19432126
113	0x3e5ad4c0	0.2137022
114	0x3e5f98ea	0.21835676
115	0xbeaa5a4d	-0.3327202
116	0xbead13a2	-0.3380404
117	0x3e5bc9d2	0.21463707
118	0xbddc3374	-0.107520014
119	0xbe84965b	-0.25895962
120	0xbf11a108	-0.5688634
121	0xbe925cc3	-0.28586397
122	0xbec30cdf	-0.38095757
123	0xbea8e204	-0.32984936
124	0xbeb86900	-0.3601761
125	0x3e56bda9	0.20970787
126	0xbf23077f	-0.63683313
127	0x3e8450b9	0.25842836
128	0x3e43c2f6	0.1911734
129	0x3e88cca7	0.26718637
130	0xbf0a435b	-0.54009026
131	0xbe69dbbf	-0.22837733
132	0xbed7b9f9	-0.42134073
133	0xbe708cad	-0.23491164
134	0xbed56854	-0.4168116
135	0xbf16f5c8	-0.5896878
136	0xbefb9a05	-0.49140945
137	0xbf24c473	-0.6436226
138	0xbeef6324	-0.46755326
139	0x3e500c24	0.20317131
140	0xbee96d1a	-0.4559105
141	0xbf0a5af5	-0.5404504
142	0xbec8de9d	-0.3923234
143	0xbebd2647	-0.36943266
144	0x3e1c8743	0.15285973
145	0xbf4e9fc6	-0.80712545
146	0x3dd35daa	0.103205994
147	0xbe59229c	-0.21204609
148	0xbf06b1c3	-0.5261499
149	0x3e40696c	0.18790215
150	0xbf13c816	-0.5772718
151	0xbe99e879	-0.30060175
152	0xbef3f0bd	-0.47644606
153	0x3e33154f	0.17488597
154	0xbefb80a0	-0.4912157
155	0x3df7e17e	0.12103556
156	0xbd26fa6f	-0.040766176
157	0xbe9e5d0a	-0.30930358
158	0x3de2a682	0.11066915
159	0xbda660bd	-0.0812392
160	0xbe868e75	-0.2628056
161	0xbea4b017	-0.32165596
162	0xbe9e98a4	-0.3097583
163	0x3ca7beb6	0.02047668
164	0xbeddd582	-0.43326956
165	0xbe7d77f5	-0.24752791
166	0xbf0df07c	-0.55445075
167	0x3e0a2081	0.13488962
168	0x3e78326f	0.24237989
169	0x3d533d9c	0.051572427
170	0xbefcab35	-0.4934937
171	0xbf428e72	-0.75998604
172	0xbe5411a7	-0.20709859
173	0x3e07d018	0.13262975
174	0x3e43bff8	0.19116199
175	0xbec5683a	-0.3855608
176	0x3dfefe5e	0.124508604
177	0x3e800ff4	0.2501217
178	0xbecedf1d	-0.40404597
179	0x3e8255a0	0.25455952
180	0x3e7e0998	0.24808347
181	0x3de483d1	0.111579545
182	0x3e0901f8	0.13379657
183	0x3e4d400e	0.20043966
184	0x3e21512d	0.15753622
185	0xbe949604	-0.29020703
186	0xbe5eb08d	-0.21747036
187	0x3e438110	0.19092202
188	0xbe511817	-0.20419346
189	0x3d9262cd	0.07147751
190	0x3e5bc2fb	0.21461098
191	0x3e20aa1e	0.15689895
192	0xbf003959	-0.50087506
193	0x3e86f028	0.263551
194	0x3e07bf76	0.1325663
195	0xbf1a5449	-0.6028486
196	0xbece716e	-0.40320915
197	0xbe7198ce	-0.23593447
198	0x3e40f162	0.1884208
199	0x3e314cc0	0.17314434
200	0x3e2ff483	0.17183118
201	0xbe631d57	-0.22179161
202	0x3e5d5bb5	0.21617015
203	0xbf1644ea	-0.58698905
204	0x3e2edd7e	0.1707668
205	0xbec38cac	-0.38193262
206	0xbdcadedb	-0.099057876
207	0xbf126651	-0.5718737
208	0x3e6b124e	0.22956201
209	0x3e1bda3e	0.15219972
210	0xbe213251	-0.1574185
211	0xbeb11a78	-0.34590507
212	0xbef33326	-0.4749996
213	0xbe84b96b	-0.25922713
214	0xbe422950	-0.18961072
215	0x3ddb2ec3	0.107022785
216	0xbe222ee4	-0.158382
217	0x3d654530	0.055974185
218	0x3e510929	0.2041365
219	0xbe15e656	-0.14638647
220	0xbe0d72b2	-0.13813284
221	0xbe645d2f	-0.22301172
222	0xbf234e89	-0.6379171
223	0x3e41492e	0.18875572
224	0x3e016d9b	0.12639467
225	0x3dbd2241	0.09235049
226	0x3de04d86	0.109522864
227	0xbf0413f8	-0.5159297
228	0x3d4ea227	0.05044761
229	0xbec9e28e	-0.3943066
230	0x3e2c2619	0.16811408
231	0x3dbd9d3e	0.09258507
232	0xbf021339	-0.5081058
233	0x3e42e95f	0.19034337
234	0xbe448f19	-0.19195212
235	0x3e4a6703	0.19765858
236	0xbece4c48	-0.40292573
237	0xbe155b3f	-0.14585589
238	0x3db1a4c1	0.086740024
239	0xbe81b4e5	-0.25333324
240	0xbf294709	-0.66124016
241	0x3e641fe9	0.22277798
242	0xbd9778a9	-0.07396061
243	0x3e598c1a	0.21244851
244	0xbf11aecd	-0.5690735
245	0xbe87e58b	-0.26542315
246	0xbc1a15ea	-0.009404639
247	0xbe7de5a8	-0.24794638
248	0x3e247efc	0.16064066
249	0x3d1f4f11	0.038893763
250	0x3e3adc82	0.1824818
251	0xbe816936	-0.25275582
252	0x3de1259f	0.10993504
253	0xbec06b9c	-0.375821
254	0x3d732c77	0.059368577
255	0xbe9bbc35	-0.30417028
