bots/ru/Napoleon.chatbot/converted_model.tflite (tflite, 621312 bytes, 4 tensors)

in/MatMul_bias f4 [128]
0	0x3e6dfea7	0.23241673
1	0x3e74356e	0.23848507
2	0x3e59ea07	0.2128068
3	0x3e5dfa70	0.21677566
4	0x3e55553a	0.20833293
5	0x3e56647d	0.2093677
6	0x3e6415e4	0.22273976
7	0x3e458b13	0.19291334
8	0x3e73ba92	0.2380164
9	0x3e4e6c5c	0.20158523
10	0x3e745e1d	0.23864026
11	0x3e6d0b13	0.23148756
12	0x3e5877ac	0.21139401
13	0x3e7f2fca	0.24920574
14	0x3e487b02	0.19578174
15	0x3e4c2be3	0.19938616
16	0x3e383c06	0.17991647
17	0x3e5e7c8e	0.21727201
18	0x3e732973	0.2374628
19	0x3e4acece	0.19805452
20	0x3e44830d	0.19190617
21	0x3e7c0a75	0.24613364
22	0x3e37acdc	0.17937034
23	0x3e582d9f	0.21111153
24	0x3e724874	0.23660451
25	0x3e73586b	0.23764198
26	0x3e6b076e	0.22952053
27	0x3e85e6d1	0.2615266
28	0x3e66b661	0.2253051
29	0x3e6f6079	0.23376645
30	0x3e83ee3d	0.257677
31	0x3e7a5923	0.24448065
32	0x3e61ee0b	0.22063462
33	0x3e24c840	0.16092014
34	0x3e46d326	0.19416484
35	0x3e6b2370	0.22962737
36	0x3e8ecb9c	0.27889717
37	0x3e807fd1	0.25097516
38	0x3e4f8c1b	0.2026829
39	0x3e4140f6	0.18872437
40	0x3e3e6273	0.18592243
41	0x3e3d3041	0.18475439
42	0x3e32b819	0.1745304
43	0x3e7926e6	0.24331245
44	0x3e6efbc6	0.23338231
45	0x3e4fdeca	0.20299831
46	0x3e4a8aa3	0.19779448
47	0x3ea4facc	0.32222593
48	0x3e85d8a2	0.2614184
49	0x3e50109c	0.20318836
50	0x3e5e2f65	0.21697767
51	0x3e8e404a	0.27783424
52	0x3e70f2a4	0.2353006
53	0x3e410e01	0.18852998
54	0x3e6bbcff	0.23021315
55	0x3e62da18	0.22153509
56	0x3e6fba74	0.2341097
57	0x3e7aef9b	0.24505465
58	0x3e573540	0.21016407
59	0x3e566d0b	0.20940034
60	0x3e8d0da0	0.27549458
61	0x3e5ab836	0.21359333
62	0x3e8c218b	0.2736934
63	0x3e7c6926	0.24649486
64	0x3e51113e	0.20416734
65	0x3e97dd90	0.29661226
66	0x3e6045e8	0.21901667
67	0x3e4dcf3c	0.20098585
68	0x3e6d0c6b	0.23149268
69	0x3e553ebf	0.20824717
70	0x3e553f81	0.20825006
71	0x3e3b636d	0.18299647
72	0x3e30673c	0.17226881
73	0x3e53c2ff	0.20679854
74	0x3e51514e	0.20441172
75	0x3e6bb12a	0.23016801
76	0x3e46ba1e	0.19406936
77	0x3e836f30	0.25670767
78	0x3e8bc087	0.27295324
79	0x3e5da98c	0.21646708
80	0x3e2c006e	0.16797039
81	0x3e5226de	0.20522639
82	0x3e4b67e6	0.19863853
83	0x3e389c3e	0.18028352
84	0x3e5c6bd5	0.2152551
85	0x3e2e0472	0.16993883
86	0x3e6f3abf	0.23362254
87	0x3e67f41c	0.22651714
88	0x3e55126b	0.20807807
89	0x3e375e71	0.1790712
90	0x3e425c57	0.18980537
91	0x3e532211	0.20618464
92	0x3e87be9d	0.26512614
93	0x3e8c59c2	0.2741223
94	0x3e3db016	0.18524203
95	0x3e6c353f	0.23067187
96	0x3e7001c9	0.23438181
97	0x3e5c528b	0.21515863
98	0x3e8ba016	0.27270573
99	0x3e628d51	0.2212422
100	0x3e61e7cd	0.22061081
101	0x3e7e6c80	0.24846077
102	0x3e4ea634	0.20180589
103	0x3e6da47c	0.23207277
104	0x3e6282b8	0.22120178
105	0x3e6b9834	0.2300728
106	0x3e95974a	0.29216987
107	0x3e5c8601	0.21535493
108	0x3e2b2012	0.16711453
109	0x3e79c4e9	0.24391522
110	0x3e629afb	0.22129433
111	0x3e585f2e	0.21130058
112	0x3e391ce1	0.18077423
113	0x3e54f134	0.20795137
114	0x3e6ffdb3	0.23436622
115	0x3e3bbba8	0.18333304
116	0x3e9c803d	0.30566588
117	0x3e4b7074	0.19867116
118	0x3e53d734	0.20687562
119	0x3e87e834	0.26544344
120	0x3e4ae254	0.198129
121	0x3e66d4c1	0.22542097
122	0x3e4455fb	0.19173424
123	0x3e4ae597	0.19814144
124	0x3e562ac4	0.20914751
125	0x3e546287	0.2074071
126	0x3e427e3c	0.18993467
127	0x3e8ea36e	0.27859062

in/kernel/transpose f4 [128, 1152]
0	0x3d53b390	0.051684916
1	0x3d9728e9	0.0738085
2	0x3d8bac36	0.06819956
3	0xbc320012	-0.010864275
4	0x3e023864	0.12716824
5	0xbdbee2cd	-0.093206026
6	0x3e3688b1	0.17825581
7	0xbd88615f	-0.06659197
8	0xb9075b25	-0.00012908557
9	0xbd3c270d	-0.04593568
10	0xbdfdc9c8	-0.12392002
11	0x3db03e22	0.08605601
12	0xbdee97d4	-0.11650053
13	0xbddd750a	-0.10813339
14	0x3d637277	0.055529084
15	0xbe68cd1c	-0.22734493
16	0xbd5dc23b	-0.05414031
17	0xbd7a91e5	-0.061174292
18	0xbd0e05d4	-0.034673527
19	0xbe20654b	-0.1566364
20	0xbd4c4d69	-0.04987851
21	0x3e61e308	0.22059262
22	0x3e4772f8	0.19477451
23	0x3ae5cd7c	0.0017532553
24	0x3ddea13a	0.10870595
25	0x3dda08a0	0.10646176
26	0x3d06034d	0.03271799
27	0x3c82b386	0.015954744
28	0xbe121d2a	-0.14268938
29	0x3dc7d023	0.09756496
30	0xbd36a4a8	-0.044590622
31	0xbdeb723a	-0.11496396
32	0x3e25c525	0.16188486
33	0x3c8b82c6	0.017030131
34	0xbddc927e	-0.10770129
35	0xbde4c9bc	-0.1117129
36	0x3e2cf75f	0.1689124
37	0x3d8db160	0.06918597
38	0x3e4859bd	0.19565482
39	0x3ca24449	0.019807952
40	0x3dff09a8	0.12453014
41	0xbd1054eb	-0.035237234
42	0xbe4a0a03	-0.19730382
43	0xbc9b399e	-0.018948372
44	0xbcee9b74	-0.02912686
45	0x3e1a83f1	0.15089394
46	0xbd72ff65	-0.059325594
47	0x3d171539	0.036885474
48	0x3e629f65	0.22131117
49	0x3da2d4d6	0.079507515
50	0x3e2cc9d7	0.16873871
51	0x3e83b192	0.25721413
52	0x3d0db110	0.034592688
53	0x3e0abca7	0.13548528
54	0x3d9273ab	0.07150968
55	0x3dcb871f	0.09937882
56	0xbd960dc6	-0.07326846
57	0x3dfaee5b	0.12252494
58	0xbda8ddf9	-0.08245463
59	0x3e40cdd1	0.18828513
60	0x3d3ab544	0.045583025
61	0x3c904af8	0.017613873
62	0x3c950bbc	0.018194072
63	0x3dd8e052	0.10589661
64	0x3e7a0d63	0.24419169
65	0xbd66cf2d	-0.056349922
66	0xbe2568ce	-0.16153261
67	0xbdfcce89	-0.12344081
68	0xbc2a86c6	-0.010408109
69	0xbde5fa01	-0.11229325
70	0xbe08fa0b	-0.13376634
71	0xbd5e28ea	-0.054238237
72	0xbc4e559a	-0.012593651
73	0xbdd4c095	-0.103882946
74	0xbdf1a40b	-0.11798867
75	0x3ca0d5c0	0.019633174
76	0x3dbdc139	0.0926537
77	0x3e314209	0.17310347
78	0xbdcef9f1	-0.10106266
79	0xbd46c3d4	-0.0485266
80	0x3cfcd0ec	0.03086134
81	0x3de64e2d	0.112453796
82	0x3e17b3fc	0.14814752
83	0xbd7bed79	-0.06150577
84	0xbe328afd	-0.17435832
85	0x3b758399	0.0037462472
86	0xbddc80ba	-0.1076674
87	0x3e14d2f8	0.14533603
88	0xbd8c2440	-0.06842852
89	0x3e274b1e	0.16337249
90	0x3e510cec	0.20415086
91	0xbcf8328b	-0.030297538
92	0xbe16c47a	-0.14723387
93	0xbce04216	-0.027375262
94	0x3e240b2f	0.16019891
95	0xbe15cf74	-0.14629918
96	0x3de357be	0.1110072
97	0x3dfd3718	0.12364024
98	0xbe4ca42d	-0.19984503
99	0x3dc21c3b	0.09478041
100	0x3dcf7f3a	0.101316884
101	0xbdacfa45	-0.084461726
102	0x3d94102e	0.072296485
103	0x3d248781	0.04016829
104	0xbe7332c7	-0.23749839
105	0xbd113274	-0.035448506
106	0x3defc6c4	0.117078334
107	0x3cec2581	0.028826477
108	0x3d996833	0.074905775
109	0x3dda81ab	0.106692635
110	0xbe44be02	-0.19213107
111	0x3d8cfe0f	0.06884395
112	0x3cc3ec82	0.023916487
113	0xbe176345	-0.14783962
114	0xbdb83e3c	-0.08996245
115	0x3db483a5	0.08814172
116	0xbdf6c738	-0.12049717
117	0xbd4ee5c6	-0.050512098
118	0xbc4f4035	-0.0126495855
119	0xbda9703a	-0.08273359
120	0xbe0fe285	-0.14051254
121	0xbe6a026b	-0.22852485
122	0x3dbbc23b	0.09167906
123	0x3e3b75e1	0.18306686
124	0xbd9ef64b	-0.077618204
125	0xbe377af2	-0.17917994
126	0x3d842bf0	0.06453693
127	0xbe16de1f	-0.1473317
128	0x3e3bd6f4	0.18343717
129	0xbdb8ed6b	-0.09029659
130	0xbdf59896	-0.11991994
131	0x3de7df62	0.11321904
132	0xbe00adf0	-0.12566352
133	0x3ded45f6	0.115856096
134	0x3e2203a9	0.15821709
135	0x3e5115a8	0.20418417
136	0x3daa1d9d	0.083064295
137	0x3e2593dd	0.16169687
138	0x3e6c4570	0.23073363
139	0x3e10a86f	0.14126752
140	0x3e2dfd7c	0.16991228
141	0xbd93a9c0	-0.072101116
142	0x3b00e4c4	0.0019667605
143	0x3e1bf6e5	0.15230902
144	0xbd84e141	-0.06488276
145	0x3e1c7a4b	0.15281026
146	0xbd9fe953	-0.07808175
147	0xbe192ca9	-0.14958443
148	0xbd97c5a6	-0.07410745
149	0x3d5d683f	0.054054495
150	0x3e1bbc12	0.15208462
151	0xbe4eb758	-0.20187128
152	0x3d98cf98	0.0746147
153	0xbd27a468	-0.040928274
154	0x3e166e07	0.1469041
155	0x3e029e81	0.12755777
156	0xbdd572d2	-0.10422291
157	0xbc14e5ec	-0.009088021
158	0xbd823a4a	-0.06358774
159	0xbe11e87c	-0.14248842
160	0xbcf41823	-0.029796666
161	0x3e755f43	0.2396212
162	0xbe371092	-0.17877415
163	0xbe204a77	-0.15653406
164	0xbd9c6d9f	-0.07638096
165	0xbdc83ff4	-0.09777823
166	0x3d37bae6	0.044855975
167	0x3ce99e53	0.028517878
168	0x3e506d4f	0.20354198
169	0xbdfc1835	-0.123093046
170	0xbca35002	-0.019935612
171	0x3e276aa4	0.16349274
172	0x3e07c89c	0.1326012
173	0x3d231e50	0.03982383
174	0xbd44acaa	-0.048016228
175	0xbe02f0e8	-0.12787211
176	0xbe13e1c8	-0.14441597
177	0x3e1c8373	0.15284519
178	0xbd8e3aab	-0.06944784
179	0xbde20af9	-0.11037249
180	0xbda7b11d	-0.081880786
181	0x3e23058e	0.15920088
182	0x3d2a3efd	0.041563977
183	0xbc47118e	-0.012150181
184	0xbd1ee447	-0.03879192
185	0xbe36dda3	-0.17857985
186	0xbe031c5c	-0.12803787
187	0x3d8afecc	0.0678688
188	0xbd9ec502	-0.0775242
189	0x3e261ca0	0.16221857
190	0xbc751482	-0.014958503
191	0xbdd11030	-0.10208166
192	0x3e1d40e7	0.1535679
193	0x3dda3f4b	0.106566034
194	0x3dd6fcdd	0.104974486
195	0x3d5f6747	0.054541852
196	0x3d20484c	0.039131448
197	0xbe2bef74	-0.16790563
198	0xbe0b9f47	-0.13634978
199	0x3d79a74f	0.060950574
200	0x3e35f14d	0.1776783
201	0xbe2e4a68	-0.17020571
202	0xbe275885	-0.16342361
203	0x3e63a5d8	0.22231233
204	0xbe0f8309	-0.1401483
205	0xbd168c0a	-0.036754645
206	0xbbb91ebe	-0.0056494167
207	0x3c912949	0.017719882
208	0x3de7a251	0.11310256
209	0x3dd8a19f	0.10577702
210	0x3e3a5485	0.18196304
211	0x3d9011a1	0.070346124
212	0xbddb7c64	-0.10717085
213	0x3dc7194f	0.09721624
214	0xbd750e18	-0.059827894
215	0xbdb03b5e	-0.086050734
216	0xbe03e666	-0.12880859
217	0xbdc6fedb	-0.097165786
218	0xbdfef0df	-0.12448286
219	0x3e10f77f	0.14156912
220	0xbd7c8234	-0.06164761
221	0x3de25fb8	0.11053413
222	0x3e543803	0.20724492
223	0x3e2df12a	0.16986528
224	0x3e0b3210	0.13593316
225	0xbdc26ef7	-0.09493821
226	0xbd3d7627	-0.046255257
227	0x3e19a628	0.1500479
228	0xbdf5b46f	-0.119973056
229	0x3e4a4f60	0.19756842
230	0xbdbae6b7	-0.091260366
231	0x3d0f3b09	0.03496841
232	0x3d92af06	0.07162289
233	0xbd0c6607	-0.03427699
234	0xbd9fe822	-0.07807948
235	0x3e2d1372	0.16901949
236	0xbd869b8b	-0.06572636
237	0xbe533338	-0.20625007
238	0x3dfe3b91	0.12413705
239	0x3ddaf42c	0.10691103
240	0xbcce5c16	-0.025190394
241	0xbdd157cc	-0.10221824
242	0xbdf8611d	-0.12127898
243	0xbd5e3c15	-0.054256517
244	0x3e814022	0.25244242
245	0x3e457b7d	0.19285388
246	0x3ce7f64d	0.028315688
247	0x3d551118	0.052018255
248	0xbc95d5e0	-0.01829046
249	0x3c8648be	0.016392108
250	0x3e5e1abe	0.21689889
251	0x3d65aeda	0.056074955
252	0x3e8276b2	0.25481182
253	0xbdf9b98b	-0.12193593
254	0x3df06e3b	0.11739775
255	0xbe27d696	-0.16390452

out/MatMul_bias f4 [58]
0	0x3c23c7f0	0.009996399
1	0x3d23b98e	0.03997188
2	0x3ce68fee	0.028144803
3	0x3ce966ef	0.028491465
4	0x3c7f4a7d	0.015581724
5	0xbda5ee98	-0.08102149
6	0x3cfaa200	0.030594826
7	0x3ce1c496	0.02755956
8	0xbcea99a9	-0.028637724
9	0xbda18bb6	-0.07887976
10	0xbc469d27	-0.012122429
11	0x3c412498	0.01178851
12	0xbb36945d	-0.0027859428
13	0x3c263c13	0.010146159
14	0xbddae10c	-0.106874555
15	0xbcd9bec9	-0.026580231
16	0xbbeaed76	-0.007169421
17	0xbd721904	-0.059105888
18	0xbbe91b86	-0.0071138768
19	0xbc965015	-0.018348733
20	0xbd07ecc7	-0.033184793
21	0xbd583ce1	-0.052792434
22	0xbb8a4d8f	-0.0042206715
23	0xbcc30339	-0.023805248
24	0x3cd98055	0.026550451
25	0x3dbd3f79	0.09240622
26	0x3cad56ea	0.021159608
27	0xbdda2735	-0.106520094
28	0xbcde3fb4	-0.027129985
29	0xbc86d49a	-0.016458798
30	0xbc1c3c72	-0.009535896
31	0xbcc54a02	-0.024083141
32	0xbd874a5d	-0.066059805
33	0xbd701212	-0.058610983
34	0x3b63966b	0.0034727107
35	0x3dfb01df	0.12256216
36	0x3d3b6405	0.045749683
37	0xbc0b7e71	-0.008514033
38	0x3c9e729d	0.019341761
39	0x3d547863	0.051872622
40	0xbbf8e7d0	-0.0075959936
41	0xbb793dfb	-0.0038031328
42	0x3c1a16fb	0.009404893
43	0x3ca28c83	0.019842392
44	0xbd8e26d4	-0.069409996
45	0x3d3f3656	0.04668268
46	0x3b078a15	0.0020681669
47	0xbc29c33c	-0.010361489
48	0xbd1bd411	-0.03804404
49	0x3d28da79	0.041223977
50	0xbc89e3cb	-0.016832253
51	0x3d1dc964	0.03852214
52	0x3d1e21f2	0.03860659
53	0xbd613d73	-0.054990243
54	0x3d1d8f01	0.038466457
55	0xbd7d5d61	-0.06185663
56	0xbcb7e6e6	-0.022448968
57	0xba102ffc	-0.00055003143

out/kernel/transpose f4 [58, 128]
0	0xbf2d700d	-0.677491
1	0x3d33ad3c	0.04386638
2	0x3dd5e520	0.10444093
3	0x3e88d1f8	0.26722693
4	0x3ea79899	0.3273361
5	0xbea1c283	-0.31593713
6	0x3e71df7c	0.23620409
7	0xbf158564	-0.5840666
8	0xbd54be88	-0.051939517
9	0xbf2fbb35	-0.6864503
10	0xbd8fb4eb	-0.07016929
11	0xbf0e8c58	-0.556829
12	0xbfa2dddc	-1.2723956
13	0xbf0c80fd	-0.5488432
14	0xbf3acfa9	-0.72973114
15	0xbde2cf54	-0.11074701
16	0x3d8e4b99	0.06948013
17	0xbe0e61c5	-0.13904484
18	0xbf5eac63	-0.8698179
19	0x3e52f813	0.20602445
20	0x3e5f2c1c	0.2179417
21	0x3dbfd051	0.09365905
22	0xbeb7df7d	-0.35912696
23	0xbea21363	-0.31655416
24	0xbdaf2b6d	-0.08553205
25	0xbe0e36d5	-0.13888104
26	0xbeabbf36	-0.3354432
27	0x3e524626	0.20534572
28	0xbd28eab9	-0.041239474
29	0xbeade43e	-0.33963197
30	0x3e318c4b	0.17338674
31	0xbf44c054	-0.7685597
32	0xbd345b4b	-0.044032376
33	0xbe6654ce	-0.22493288
34	0xbf28b6ea	-0.65904105
35	0xbf5c2582	-0.8599473
36	0x3dbf09d7	0.09328049
37	0xbead32c2	-0.33827788
38	0x3e9ac86c	0.30231035
39	0xbcaf1ef4	-0.021377064
40	0x3e9c91b5	0.30579916
41	0xbd945e51	-0.07244552
42	0xbf08245d	-0.53180486
43	0x3daddf2b	0.084898315
44	0xbeecf65f	-0.46281716
45	0xbe4e9d89	-0.20177282
46	0xbec6020d	-0.3867344
47	0x3e8bcf59	0.2730663
48	0xbef492b6	-0.47768182
49	0xbf8bf32e	-1.0933588
50	0xbe9c3557	-0.30509445
51	0xbf243fea	-0.64160025
52	0xbf0f47ac	-0.5596874
53	0x3eaa378d	0.33245507
54	0xbeb77c48	-0.35837007
55	0xbf4b232b	-0.7935054
56	0x3e84ea35	0.25959936
57	0xbf050f83	-0.51976794
58	0xbed585a2	-0.41703516
59	0x3dedb816	0.11607377
60	0xbf49a0cf	-0.78761
61	0x3cde3339	0.027124034
62	0x3e6384f5	0.22218688
63	0x3e508421	0.20362903
64	0xbdc7cd76	-0.097559854
65	0x3e85e880	0.26153946
66	0x3e549e02	0.207634
67	0xbf1506ef	-0.58213705
68	0x3e2718c6	0.16318044
69	0xbee5c06e	-0.44873375
70	0x3e7c86a6	0.2466074
71	0xbf436af9	-0.763351
72	0x3e0543a9	0.13014092
73	0x3e841f0f	0.25804946
74	0xbdc2cf6e	-0.0951222
75	0xbf6df22e	-0.9294766
76	0x3e706256	0.23475012
77	0xbc4efad2	-0.012633042
78	0xbece676a	-0.40313274
79	0xbe8ab64b	-0.27092203
80	0x3e36bf0f	0.1784632
81	0xbd6ef27e	-0.058336727
82	0xbeb16de4	-0.34654152
83	0xbe45741b	-0.19282572
84	0xbf2fe3ac	-0.68706775
85	0xbe5f680d	-0.21817036
86	0xbf0f3565	-0.5594085
87	0x3ea013d2	0.31265122
88	0xbf26d117	-0.65162796
89	0xbf771e12	-0.9653026
90	0x3ec3e51b	0.3826073
91	0xbf2323a7	-0.63726276
92	0x3e9661ba	0.29371434
93	0x3e65eff8	0.22454822
94	0xbeb924c7	-0.3616087
95	0x3e914332	0.28371578
96	0xbf0a43ab	-0.54009503
97	0xbeb0016a	-0.3437608
98	0xbf0eb5a0	-0.5574589
99	0xbe1fe8f6	-0.15616211
100	0x3e9abb57	0.30221054
101	0xbf471492	-0.7776576
102	0x3e1157b7	0.14193617
103	0x3e2a7c33	0.1664894
104	0x3e71cd1f	0.23613404
105	0x3e445dd2	0.19176415
106	0xbedf39ac	-0.43598688
107	0xbeb1d34b	-0.34731516
108	0xbef52a0e	-0.47883648
109	0x3e85508b	0.26038012
110	0x3e80a4d7	0.25125763
111	0xbd8786af	-0.06617486
112	0xbeabb4f6	-0.335365
113	0x3e7bfeeb	0.24608962
114	0xbf47d2c3	-0.7805597
115	0xbf48afd5	-0.783933
116	0xbe7887fe	-0.24270627
117	0xbf616208	-0.8804021
118	0xbe7da259	-0.24768962
119	0xbf630580	-0.8868027
120	0x3eaf0781	0.34185413
121	0x3e642766	0.22280654
122	0xbf1868cf	-0.59534925
123	0x3e3d3d2a	0.18480363
124	0x3e1d48fd	0.15359874
125	0xbf5fb675	-0.8738778
126	0x3e54348c	0.2072317
127	0x3e1f66dc	0.15566581
128	0xbec9bc39	-0.39401415
129	0xbf8549ee	-1.0413187
130	0xbec7eeab	-0.39049277
131	0xbe9be817	-0.30450508
132	0xbf8a750a	-1.0816967
133	0xbeedf6f3	-0.4647747
134	0xbcbe6a11	-0.023243936
135	0x3dfef41d	0.12448905
136	0xbeb814fc	-0.3595351
137	0xbeebe2a8	-0.46071362
138	0x3eaa669e	0.33281416
139	0xbf363329	-0.71171814
140	0xbf502fe9	-0.81323105
141	0xbda222da	-0.07916804
142	0xbef48842	-0.47760206
143	0x3e9485cc	0.2900833
144	0xbf7607bd	-0.9610556
145	0xbf39fd06	-0.7265171
146	0xbe78d304	-0.24299246
147	0x3eb5e82d	0.355287
148	0x3e8ec70a	0.2788623
149	0xbeb9eb34	-0.36312258
150	0x3ea6da38	0.32588363
151	0x3e1b4e44	0.15166575
152	0xbebffe9a	-0.37498933
153	0xbebccf61	-0.36876968
154	0xbee74f30	-0.45177603
155	0xbe928d38	-0.28623366
156	0x3e6ec813	0.2331851
157	0xbf1ae848	-0.60510683
158	0x3ea575fa	0.3231657
159	0x3e8b0784	0.2715417
160	0x3e77c4f2	0.24196222
161	0xbe1f0d91	-0.15532519
162	0xbe2325c7	-0.1593238
163	0xbf05af15	-0.5222028
164	0x3e99dbdc	0.30050552
165	0xbf07dee0	-0.53074455
166	0xbe2b198c	-0.16708964
167	0x3e7db090	0.24774384
168	0xbed631ff	-0.4183502
169	0x3e668a07	0.22513591
170	0xbea67de7	-0.3251793
171	0x3e6eff7e	0.2333965
172	0xbf033aed	-0.5126179
173	0x3e607934	0.21921235
174	0xbefddc4b	-0.49582133
175	0xbf43f3dc	-0.76543975
176	0x3e38bc3b	0.18040554
177	0xbeff073d	-0.4981021
178	0x3e2b910f	0.16754554
179	0x3ec458a9	0.38348892
180	0xbf056aaf	-0.5211591
181	0xbe668e64	-0.22515255
182	0x3e4dc313	0.20093946
183	0xbea33b89	-0.3188136
184	0xbed76db8	-0.42075896
185	0x3da887e2	0.082290426
186	0x3e30ab68	0.17252886
187	0xbd2c8a7f	-0.042124268
188	0x3e889c8c	0.26681936
189	0x3e5326f8	0.20620334
190	0xbe88330f	-0.26601455
191	0x3e9ec1b6	0.31007165
192	0x3e693eed	0.2277791
193	0x3dcc279d	0.09968493
194	0x3e1177bc	0.14205831
195	0x3e2c10e5	0.1680332
196	0xbe3af471	-0.1825731
197	0xbe4c9fef	-0.19982885
198	0x3e1d99e4	0.15390736
199	0xbf20329a	-0.6257721
200	0x3e86fd34	0.26365054
201	0x3e9c5110	0.30530596
202	0x3e5660d4	0.20935374
203	0xbf3919dc	-0.72305083
204	0x3ea313ef	0.31851146
205	0xbe2c0f87	-0.16802798
206	0xbf23989c	-0.6390474
207	0x3e9493d4	0.29019034
208	0xbf67a246	-0.90481985
209	0x3e23106f	0.15924238
210	0x3e52d9f2	0.20590952
211	0xbf4c6c64	-0.7985289
212	0x3d4ca320	0.049960256
213	0xbee1bc23	-0.4408885
214	0x3e47602c	0.1947028
215	0x3e89b7eb	0.2689813
216	0xbf59d378	-0.850883
217	0xbf371be0	-0.7152691
218	0x3eaf624f	0.3425469
219	0xbef66691	-0.48125127
220	0xbf8fab37	-1.1224126
221	0xbeb89907	-0.3605425
222	0x3d0257be	0.03182196
223	0xbecd3355	-0.40078226
224	0xbf20f86b	-0.62879056
225	0xbf424df9	-0.75900227
226	0xbf358994	-0.7091305
227	0x3e94d9ca	0.2907241
228	0xbeab3a6a	-0.33443004
229	0xbf24ab91	-0.6432429
230	0xbe635c6b	-0.22203223
231	0xbf29b590	-0.6629267
232	0x3e8668eb	0.2625192
233	0x3e59ec6b	0.21281593
234	0xbf725bd5	-0.94671375
235	0xbf396451	-0.72418696
236	0xbf06430f	-0.52446073
237	0xbf1a05f1	-0.60165316
238	0xbf07ca5d	-0.53043157
239	0xbeca93dc	-0.39565933
240	0xbef6191a	-0.48066026
241	0x3e9c64cb	0.3054565
242	0x3e8ca1ae	0.27467102
243	0x3e01d375	0.1267832
244	0xbc89f9b3	-0.016842699
245	0xbf455e04	-0.7709658
246	0xbd77eee7	-0.06053057
247	0x3cebf7d4	0.028804697
248	0xbf225a12	-0.63418686
249	0xbf15473e	-0.5831183
250	0xbf24b977	-0.64345497
251	0x3e225d87	0.1585599
252	0x3d661474	0.05617185
253	0xbdc8f100	-0.09811592
254	0xbf338efa	-0.7014004
255	0x3ea376db	0.31926617
