bots/Tyrion.chatbot/converted_model.tflite (tflite, 507076 bytes, 4 tensors)

in/MatMul_bias f4 [128]
000000 50 7a 5c 3e e6 81 95 3e 1f 69 f0 3d 74 fd 5b 3e
       0.21531034 0.29200667 0.117388 0.21483403
000010 9f 1e 4d 3e d4 fa 81 3e 97 62 59 3e 36 40 4b 3e
       0.20031212 0.2538668 0.21229015 0.19848713
000020 e3 40 82 3e be 85 35 3e cf fa 94 3e 85 90 1c 3e
       0.2544013 0.177268 0.29097602 0.15289505
000030 4c 74 2b 3e c8 f5 5c 3e 94 18 5e 3e fb 6a 9e 3e
       0.16743582 0.21578133 0.21689063 0.30940995
000040 6a 75 66 3e 52 29 0e 3e 21 f8 0d 3e da 25 fa 3d
       0.22505727 0.1388295 0.13864185 0.12214251
000050 e0 d2 20 3e 03 d8 55 3e f5 0e 06 3e b4 4e 8d 3e
       0.15705442 0.20883183 0.13091643 0.27599108
000060 fc f7 0d 3e 98 c0 58 3e 66 d8 39 3e 57 b3 89 3e
       0.1386413 0.21167219 0.18148956 0.26894638
000070 d3 90 5b 3e 84 2c 85 3e 0f a0 52 3e bd b3 1d 3e
       0.21441965 0.26010525 0.2056887 0.15400596
000080 48 46 28 3e fb f0 d9 3d 88 f6 98 3e 75 a9 77 3e
       0.1643306 0.106416665 0.29875588 0.24185736
000090 4f 34 6f 3e 93 bc 65 3e 2f 47 86 3e 6e 47 2e 3e
       0.23359798 0.22435217 0.26226184 0.17019436
0000a0 44 fa 83 3e 4c c4 d3 3d 37 11 a4 3e 48 42 e9 3d
       0.25776875 0.10340175 0.32044384 0.11389595
0000b0 27 be 64 3e 58 9f 17 3e 9c 3e 8e 3e 2d 79 87 3e
       0.22338162 0.14806879 0.27782142 0.26459637
0000c0 f5 51 17 3e b3 77 43 3e eb 17 72 3e 4e 10 51 3e
       0.14777358 0.1908863 0.23641936 0.20416376
0000d0 e2 2d 09 3e e6 46 3b 3e 5a 74 70 3e e4 5f 9d 3e
       0.13396409 0.18288764 0.23481885 0.3073722
0000e0 5e ba a0 3e cd 9f 85 3e 8e 48 9a 3e 62 bd 8f 3e
       0.31392187 0.2609848 0.3013348 0.28074175
0000f0 59 58 84 3e 82 c0 6b 3e 78 35 0f 3e a3 6f 07 3e
       0.25848654 0.23022655 0.1398524 0.1322618
000100 5d 10 42 3e c0 d0 11 3e 3d 51 9b 3e 90 18 4a 3e
       0.18951555 0.14239788 0.30335417 0.19735932
000110 f5 36 92 3e 93 3e 3c 3e 3f 50 31 3e 2b 86 97 3e
       0.28557554 0.18383245 0.17315768 0.2959455
000120 65 22 8e 3e 6c 2c 6e 3e 37 6a 0c 3e 6f ef 74 3e
       0.27760616 0.23259133 0.13712393 0.23919462
000130 4c cd 4e 3e 88 ff bb 3d 4e 45 53 3e 73 36 55 3e
       0.20195502 0.09179598 0.20631906 0.20821552
000140 74 a0 15 3e 37 15 74 3e 72 8d d8 3d 10 ac 65 3e
       0.1461199 0.23836218 0.105738536 0.22428918
000150 0d 7f 85 3e 33 2b b8 3d c9 27 09 3e 00 a4 70 3e
       0.26073495 0.089926146 0.13394083 0.23500061
000160 fe a4 81 3e 98 ea 6a 3e 4b 23 2e 3e 1f e9 87 3e
       0.25321192 0.22941053 0.1700565 0.26545045
000170 f8 ef 94 3e 2d 68 b9 3e 66 ae 92 3e 93 12 44 3e
       0.29089332 0.36212292 0.2864868 0.1914771
000180 c3 a9 9e 3e b3 df 8c 3e 62 be 03 3e 07 c7 f3 3d
       0.30988893 0.2751442 0.12865594 0.11903196
000190 eb f7 43 3e f6 0e 68 3e d2 fa 7b 3e 93 4a 55 3e
       0.19137542 0.22661957 0.24607399 0.20829229
0001a0 fe 5c 72 3e f0 bb 1b 3e 8a 75 22 3e d5 e5 30 3e
       0.23668286 0.15208411 0.1586515 0.17275174
0001b0 3f a1 91 3e d7 af 15 3e db 24 66 3e 6b cf 55 3e
       0.28443334 0.14617859 0.22474997 0.20879905
0001c0 f7 97 9a 3e e4 e6 8d 3e c2 67 0d 3e 08 ab 31 3e
       0.30194065 0.27715218 0.13809112 0.173504
0001d0 f7 8a 57 3e 56 5a 20 3e df 53 80 3e 18 0a 50 3e
       0.21049105 0.1565946 0.2506399 0.2031635
0001e0 f0 b7 61 3e db ef 5d 3e 6c 9c 2d 3e be dd d6 3d
       0.22042823 0.21673529 0.16954201 0.10491513
0001f0 d6 80 23 3e fa 89 83 3e ca 07 38 3e f4 d2 8c 3e
       0.15967116 0.25691205 0.17971721 0.27504694

in/kernel/transpose f4 [128, 944]
000000 7d 13 77 bc ec 7a 90 3d 72 d0 07 3e 15 16 4d bd
       -0.01508033 0.070546955 0.1326311 -0.050069887
000010 61 d2 24 3e 34 bc cd 3b b7 fd e0 ba dd eb e3 bd
       0.16095878 0.006278539 -0.0017165457 -0.11128972
000020 bb 99 ea bd c3 b1 0c 3e 08 3d 56 3d a7 1c 9d bd
       -0.11455103 0.13739686 0.052304298 -0.076714806
000030 5c 9d 3e 3d 2e ea 44 3e 33 81 62 3e 36 5b 4e 3e
       0.04653679 0.19229957 0.22119598 0.20151982
000040 d2 32 41 3e b7 4e 17 3d 16 68 1a bd 7a f1 04 3e
       0.18867043 0.036940303 -0.03769692 0.12982741
000050 14 fe 25 3e 0f 33 1f 3e 2a 1e 95 bd c5 71 53 bd
       0.16210204 0.15546821 -0.07281144 -0.05162217
000060 37 19 03 3e 77 ea fb 3d 75 b2 3c be 10 43 68 bc
       0.12802587 0.1230058 -0.18427451 -0.014176145
000070 3f 7d 6c be eb 09 e3 3d 33 99 8e bd 7e d6 14 3d
       -0.23094653 0.11085876 -0.06962814 0.03633737
000080 d0 0b e2 bd e6 be 27 3e 7e da f1 bd 68 e8 be bd
       -0.11037409 0.16381416 -0.11809252 -0.09321672
000090 92 e6 a5 bd 38 80 27 be 18 83 4e be f4 4d db bd
       -0.081006184 -0.16357505 -0.20167196 -0.10708228
0000a0 75 5d 1b 3e b6 ce f9 bd d9 81 11 bd 76 c8 0a 3e
       0.1517237 -0.1219763 -0.035524223 0.13553032
0000b0 cf 1b 77 bc 33 c6 22 3e 29 45 0c be 3d 1e 02 be
       -0.015082314 0.1589592 -0.13698258 -0.12706847
0000c0 d9 5e e0 3d ca 0c f8 3d 7a 16 af bd c2 13 63 bd
       0.10955591 0.12111814 -0.08549209 -0.055438764
0000d0 7c db 10 3e e4 0a 32 be 21 0b ba bd d0 73 3b be
       0.14146227 -0.17386967 -0.09084154 -0.18305898
0000e0 dc ba 14 be 22 5a da ba 4c ea 16 be 49 a3 75 3e
       -0.14524406 -0.0016658942 -0.14737815 0.2398807
0000f0 c9 b3 97 bd 48 fe 26 3e ee 1f 46 bd 92 e4 3e be
       -0.07407338 0.16307938 -0.048370294 -0.1864188
000100 d6 2f b1 3d c7 13 0c 3e 37 38 24 3e 49 f4 14 bd
       0.08651702 0.1367942 0.1603707 -0.03636578
000110 d7 d3 32 3e 54 99 d9 3a 91 02 91 bd c5 b9 f1 bd
       0.17463623 0.0016601481 -0.07080568 -0.11803011
000120 0d 9f 23 3e d4 b0 63 bd 1d cd cc bd 7e 52 d5 bc
       0.15978642 -0.05558856 -0.1000006 -0.026040312
000130 dc 08 fc bd e0 c2 14 bd df 5c d6 b9 7d 9a ec bd
       -0.12306377 -0.03631866 -0.00040886455 -0.11552904
000140 8b d5 3e be 70 07 4f bd 73 e2 1f 3e 06 af d1 bd
       -0.18636148 -0.050544202 0.15613727 -0.10238461
000150 eb bf cd 3d 9f ef ae bd 10 25 22 be f3 54 03 3e
       0.10046371 -0.08541798 -0.1583445 0.12825374
000160 a9 2b 40 3e d2 a9 36 3e 23 ba 3e 3d 20 eb 84 3c
       0.18766655 0.17838219 0.046564233 0.016225398
000170 39 af ac bd 47 dd 3a 3e 8a 59 36 3e db 9c 91 be
       -0.084318586 0.18248473 0.17807594 -0.28439984
000180 5d 4b 6d 3e 1a cd 03 be 08 5c ff 3d 1b ce 02 be
       0.2317328 -0.12871209 0.124687254 -0.12773935
000190 b8 ff da bc 9a 4a fc 3d fe 05 87 bd 4e a6 bb 3b
       -0.026733264 0.123189166 -0.0659294 0.005726612
0001a0 d3 8f 13 be 22 b8 39 3e 75 2d a7 bb eb ba da bd
       -0.14410333 0.18136647 -0.0051018544 -0.10680183
0001b0 a2 89 c9 bd 58 96 ba bd 7f 6a 1e 3c 12 6d 04 be
       -0.098407045 -0.09110707 0.009668945 -0.12932232
0001c0 5c 7b 9d 3d 0e a8 ea bd f8 b5 35 3e 0e cc 90 bd
       0.076895446 -0.11457835 0.17745197 -0.0707017
0001d0 85 0b c9 3d 27 39 ac 3d e5 e6 21 3d 42 64 98 3e
       0.0981665 0.084093384 0.03952684 0.2976399
0001e0 db 85 b7 bd a1 fe 0e 3e ab 0e b5 3d 99 93 13 be
       -0.08961078 0.1396432 0.08840688 -0.14411773
0001f0 7d 1f 1a be 44 65 ad bb 6a e2 04 3e ec 79 0d 3e
       -0.15051074 -0.005291613 0.12976995 0.13816041
000200 8b 7a 84 3c c1 eb a6 bd e3 94 01 be 4c 05 f7 bd
       0.016171714 -0.08150435 -0.12654452 -0.12061557
000210 82 85 8d 3e fe df 1b 3e ee 2e 12 be e8 d6 2d bd
       0.2764092 0.15222165 -0.14275715 -0.04244128
000220 8b b7 cb 3d f7 02 02 3e a7 93 40 be 95 74 03 be
       0.099471174 0.12696443 -0.18806325 -0.12837441
000230 25 5f b5 bd 6d 5d 36 bd d3 81 35 be 5b 3c fa bc
       -0.08856038 -0.04452269 -0.17725305 -0.030546358
000240 2f 1c 3e 3c d2 44 9c bd 40 78 1a bd 72 03 48 bd
       0.011603399 -0.07630314 -0.037712336 -0.04883141
000250 42 7f b9 3c 79 61 fa bd 23 96 62 bd 31 2e ec bd
       0.022643689 -0.12225623 -0.055318963 -0.11532248
000260 d2 c9 00 be 37 09 1d be 87 21 c3 bd 18 5a 39 3e
       -0.12576988 -0.15335546 -0.09527879 0.18100774
000270 8c b4 7f 3d 71 8f 0b be 61 4c b4 bd ab 8f 2e 3e
       0.062428042 -0.13628937 -0.088036306 0.17046992
000280 ba 29 5f 3d 89 b8 ca 3c 1e d2 e2 bc 7f 17 04 3e
       0.054483153 0.024746196 -0.027688082 0.12899588
000290 fc d3 2b be e5 16 ec bd e0 38 85 bd 6d cc c3 bd
       -0.16780084 -0.11527804 -0.06504989 -0.095604755
0002a0 6f ec 92 bd 90 c6 8f bd 08 fd 5b 3e a8 25 17 3e
       -0.071740024 -0.07020295 0.21483243 0.14760458
0002b0 d9 bf dc 3d 5c 7f a6 bc e0 87 d0 bd 77 02 10 3e
       0.107787795 -0.020324402 -0.10182166 0.1406344
0002c0 0a a7 70 bc 54 1f df 3d 60 6c ac 3e 74 ad 80 3e
       -0.014688263 0.10894647 0.33676434 0.25132334
0002d0 75 9f be 3d 7b 04 86 bc af 9b 2e be 14 93 b9 bd
       0.09307758 -0.016359558 -0.17051576 -0.09061256
0002e0 a2 5a 0b bd 5c d4 dd 3d e6 37 e7 bd 91 26 d8 bd
       -0.03402198 0.1083152 -0.11289959 -0.10554231
0002f0 31 f8 e3 bd 07 48 b6 bd 44 ea b2 bd a2 cd ea 3d
       -0.11131323 -0.08900457 -0.08736089 0.114650026
000300 5f 18 3f be 7f d5 1f 3e a3 10 15 3e 87 05 2b be
       -0.1866164 0.15608786 0.14557128 -0.16701327
000310 b7 6d 2c 3e 57 62 ab 3d 50 f9 8e 3d 13 0b 36 3b
       0.16838728 0.08368366 0.06981146 0.0027777597
000320 84 16 af 3d 5a 68 25 3d 1e cb dd 3d b4 a9 2f be
       0.085492164 0.04038272 0.10829757 -0.1715458
000330 84 4a 1c be 50 92 4c bd 4c 4b 13 bd b9 fb 47 be
       -0.152628 -0.049944222 -0.03596048 -0.19529618
000340 d1 a2 0a be f1 92 41 be aa 30 e5 bd 32 66 2d 3d
       -0.13538672 -0.1890371 -0.111909226 0.04233379
000350 60 a8 bd bd 51 fa e7 bd 34 1c 12 bd 0e 85 96 bd
       -0.092606306 -0.11327041 -0.035671428 -0.07349597
000360 df fb 21 be f9 01 7c bd 40 03 3c 3e 14 75 90 3c
       -0.15818737 -0.06152532 0.18360615 0.017633952
000370 fe cb 2d bd 67 78 b3 bd 9f 48 27 3e 41 a7 a6 3d
       -0.04243087 -0.08763199 0.16336296 0.0813737
000380 56 73 b4 3d c9 c3 1c 3d 2b f2 b2 bd e9 02 ce bd
       0.08811061 0.038272653 -0.08737596 -0.10059149
000390 7a ad 3a 3e 7e 5e e2 3c 5a 1e 84 3d ea 8a 87 bd
       0.18230239 0.027632948 0.064511016 -0.06618293
0003a0 d8 13 a7 bd de d7 1d 3b e1 81 f2 bd 37 61 94 bd
       -0.08158082 0.0024084966 -0.11841179 -0.07245105
0003b0 29 b7 88 bd 96 1c 10 3d 6f 53 23 3e 5f 64 fe 3d
       -0.0667556 0.03518351 0.15949796 0.12421488
0003c0 22 b7 4b 3e a1 2a 60 3d c5 90 47 3e 55 07 4d bd
       0.19894078 0.054728154 0.19488819 -0.05005582
0003d0 6b d5 7f 3e a6 c8 af bd 5e fa ab 3d 71 93 32 3e
       0.24983756 -0.085831925 0.08397363 0.17439057
0003e0 3c 64 a0 3e 08 8d 1e 3e cc 49 9f 3d 0a a6 43 3e
       0.31326473 0.15483487 0.077777475 0.19106308
0003f0 f7 9b 30 bd 05 7b 06 3e 04 55 a6 bd fd 5f 61 3e
       -0.04311749 0.13132866 -0.08121684 0.22009273

out/MatMul_bias f4 [43]
000000 ec fb 5a bd f0 97 b8 3d 05 fc 15 3d b8 6a f9 3c
       -0.053462908 0.09013355 0.036617298 0.030446395
000010 b2 df 24 3c 2a 87 85 bb 5b 17 61 bd c9 5b 10 3d
       0.010063099 -0.0040749507 -0.054953914 0.035243783
000020 38 7c 51 bc c5 fd 88 bd 2b b1 92 3d e0 a6 a9 3d
       -0.012785964 -0.06689028 0.07162698 0.08283782
000030 64 0b b0 3d b8 4a 4c bd ab 63 42 3d 29 39 f0 bd
       0.085959226 -0.049875945 0.047458332 -0.117296524
000040 9c 12 14 bd 74 ab 2f bd d1 4f dd bc a0 0a dd bc
       -0.03615056 -0.04288812 -0.027015598 -0.026982605
000050 d8 bb 93 bd fa 91 bc bd 5a 01 c3 3c cf 3f 1e 3e
       -0.07213563 -0.0920753 0.023804355 0.15454029
000060 55 05 e3 bc b5 1c cc 3b 43 4a 47 bd 2e 93 7d bc
       -0.027712503 0.006229008 -0.048654806 -0.015476985
000070 e3 72 1d 3d de a0 12 bd 44 55 03 3d bb 7d 1d 3d
       0.038439643 -0.035797946 0.032063738 0.038449984
000080 d0 f4 b3 bd d5 7f 7a bc 9c 0f 2b bd 40 97 57 bd
       -0.08786929 -0.015289267 -0.041762933 -0.052634478
000090 96 54 2f bd 7a 25 49 bc 6e cc 16 bd 8d 4b b4 bd
       -0.042805277 -0.0122770015 -0.036816053 -0.08803473
0000a0 67 19 17 3d 44 80 01 be 70 b3 51 3d
       0.03688946 -0.12646586 0.051196516

out/kernel/transpose f4 [43, 128]
000000 f3 65 d1 3d 60 49 85 3e 09 bd ef 3d c0 0e 0a be
       0.102245234 0.26032543 0.117059775 -0.13482189
000010 4f fb ee be 8f 5d 39 bf cc ca 83 3e d6 54 b4 be
       -0.46676108 -0.72408384 0.2574066 -0.35220975
000020 17 af d1 bd 96 9b 9a 3e fc be 45 bf 17 df a3 3e
       -0.10238474 0.30196828 -0.77244544 0.32006142
000030 27 fb 4d bf 98 81 84 3e ae 66 c2 be 04 aa 9d 3e
       -0.80461353 0.25880122 -0.37968963 0.30793774
000040 6c 85 08 bf b7 66 02 be 30 29 d4 be 7e e1 a3 be
       -0.53328586 -0.12734495 -0.41437674 -0.32007974
000050 de 4e 3f bf 71 99 46 3e a8 20 9c 3e c2 01 44 3e
       -0.74729717 0.19394471 0.30493665 0.19141296
000060 86 72 8a 39 24 1a 9d 3e f4 53 64 be 4a 81 f0 be
       0.00026406738 0.30684006 -0.2229765 -0.4697364
000070 00 27 0e bf 42 b4 52 bf 51 73 8e 3e 2a 75 4c bf
       -0.5552826 -0.823063 0.27822354 -0.7986628
000080 f1 0d 31 3e 1d fa 76 3e fb c9 45 be 84 5c 3d be
       0.17290474 0.24118848 -0.1931533 -0.18492323
000090 59 e7 db bc e0 2f 9b bd 69 e6 8b 3e d1 58 3f bf
       -0.026843714 -0.07577491 0.27324226 -0.747449
0000a0 7a 60 10 bf f8 4c 2c be 20 1d f7 be 48 ba 96 3e
       -0.5639721 -0.16826236 -0.48264408 0.29438996
0000b0 19 f1 43 3e 40 3e 61 bf 98 59 82 3e cf 07 c2 be
       0.1913494 -0.8798561 0.2545898 -0.37896582
0000c0 a1 39 cd be 1c d2 a1 be bf 83 c4 be b7 dd 85 3e
       -0.4008303 -0.31605613 -0.38381764 0.26145718
0000d0 37 de bd be 64 51 96 3d 9e aa db be 3d ef 27 3e
       -0.370836 0.07339743 -0.42903608 0.16399856
0000e0 79 e2 e9 be b2 b2 5d be 9f 19 49 bf 95 3a 0b 3e
       -0.45680597 -0.21650198 -0.7855472 0.13596566
0000f0 24 e8 aa 3e f1 aa 94 3e 82 ab 60 3e 84 44 49 be
       0.33380234 0.29036668 0.21940425 -0.19655043
000100 d0 40 af bc 83 39 71 3e e9 ba 18 bb 75 ac da 3d
       -0.02139321 0.23557095 -0.0023304767 0.10677425
000110 46 bd 57 bf e7 7a 5b be 8b b5 bd be 77 48 6a bf
       -0.84273183 -0.21433602 -0.3705257 -0.9151682
000120 0c 16 9c be ad 9e 8c be 09 cc 1f 3e e6 92 66 be
       -0.3048557 -0.2746481 0.15605177 -0.22516975
000130 5f 42 2d 3e cd 12 3e 3e ca 43 47 3e f3 ce 94 be
       0.1691985 0.1856186 0.19459453 -0.2906414
000140 3c bd 53 bf 68 08 8f 3e 8b 2f 80 3e d5 e5 03 3e
       -0.82710624 0.279361 0.25036272 0.12880643
000150 d8 3f 96 be 4b eb 69 3e 2f 0d 72 3e 3a 04 c9 be
       -0.29345584 0.22843663 0.23637842 -0.39261037
000160 ee 24 9d be 81 ee 88 3e 6c e0 f3 bd 84 d9 80 3e
       -0.30692238 0.26744464 -0.119080395 0.2516595
000170 a6 23 3c 3e 02 31 35 bf 67 3e 0c be f5 f2 88 3e
       0.18372974 -0.70777905 -0.1369568 0.26747862
000180 66 87 18 3e 02 f6 82 be 72 24 05 3e 35 1e a4 bc
       0.148954 -0.25578314 0.13002184 -0.020033935
000190 ec 4e 5c 3e 69 5d 59 bf d5 1c 55 bf f2 12 87 3e
       0.21514481 -0.8490816 -0.8324712 0.26381642
0001a0 55 63 95 be 4b fd 0b 3e b6 b4 8b 3e 5b a1 dc be
       -0.29177347 0.13670842 0.2728631 -0.43091854
0001b0 45 96 04 bf c8 f2 62 bf c5 30 70 be de 5c 80 3e
       -0.51791793 -0.88651705 -0.23456104 0.25070852
0001c0 af a4 c6 be ff 74 63 3e 1f 3a f8 3d 3d 2a 96 3d
       -0.3879752 0.22212599 0.12120461 0.07332275
0001d0 f1 17 85 bf 32 8b 8d 3e 03 a1 1e bf 6e 26 03 bf
       -1.0397931 0.2764526 -0.61964434 -0.51230514
0001e0 eb 3c 1e bf 84 6d ad 3d 28 b8 03 be 8e 2b d1 be
       -0.61811703 0.08468154 -0.12863219 -0.40853542
0001f0 00 3a f9 be d4 96 b4 be 49 34 23 bf 27 ad 3b bf
       -0.48677063 -0.35271323 -0.63751656 -0.73311085
000200 8b f5 1b bf 57 fe 85 3e bb f4 7c 3e dd e2 f9 be
       -0.60921544 0.26170608 0.24702732 -0.48805895
000210 ac a9 9c bd ca 3c 98 3c 8f bf 8e bf 19 97 08 3e
       -0.0764955 0.018583674 -1.1152209 0.13338889
000220 33 ef 85 bf 0b 8b b0 3e 6e ed 37 3e 8b 51 b2 3e
       -1.0463623 0.3448108 0.17961666 0.34827837
000230 42 47 76 bd c4 79 2e 3e 1a 29 9b be e7 46 24 bf
       -0.06012655 0.17038637 -0.30304796 -0.6417069
000240 00 6c b2 3e e2 88 3e be 5b 93 c5 be 93 7d 18 3e
       0.34848022 -0.18606904 -0.38588986 0.14891653
000250 62 7f 17 bf 8d 2a 8e bf 8f f1 55 bf ce 13 ac 3e
       -0.59178746 -1.1106735 -0.83571714 0.3360886
000260 7d 50 09 bf 93 41 ea be 27 30 c9 3e 94 0d 17 3e
       -0.5363844 -0.45753154 0.3929455 0.14751273
000270 77 60 a7 be 5c c9 82 be ec d0 06 bf 93 98 6e bf
       -0.32690784 -0.2554425 -0.5266254 -0.9320156
000280 9b 7b cf be ed 6b 76 3e 8d 13 0f be 38 0f 72 be
       -0.4052399 0.24064608 -0.13972302 -0.23638618
000290 f8 bc fa 3c 3e f3 3d bf 69 bc 08 3e cb 15 34 3e
       0.030607685 -0.74199283 0.13353123 0.17586438
0002a0 0a f7 ad bd 60 be e5 3e 88 e9 90 be bc 7a 67 3e
       -0.084943846 0.44871807 -0.2830317 0.22605413
0002b0 a5 19 9b bd c0 96 04 bf b8 8e 01 bd ca 24 c3 3e
       -0.07573251 -0.51792526 -0.031630248 0.38114005
0002c0 22 eb 91 3e 6f 14 1f bf aa e1 c6 be 5d 60 b7 be
       0.28499705 -0.62140554 -0.38844043 -0.35815707
0002d0 37 87 93 3e 4d b4 83 be 1d 49 eb be a5 e4 a8 3e
       0.28814098 -0.25723496 -0.45954219 0.32986942
0002e0 e7 ee 95 3e 0e da 68 be 98 50 b1 be 63 26 10 be
       0.2928383 -0.22739431 -0.346318 -0.14077143
0002f0 c1 9a 2d 3e 39 f2 bd be bf f5 93 bf 23 4b d0 be
       0.16953565 -0.37098864 -1.1559371 -0.40682325
000300 58 9f 01 bf 86 df aa 3e 51 bf 9f 3e 21 89 3d 3e
       -0.50633764 0.3337366 0.3120065 0.18509342
000310 6d 1e 54 bd 67 68 8b 3e 34 bc 29 3e ae 9b 01 bf
       -0.05178683 0.2722809 0.165757 -0.50628173
000320 61 2d 69 be 48 b2 91 be 35 d4 44 3e 20 0b 7d bf
       -0.22771217 -0.2845633 0.19221576 -0.988451
000330 9d 88 82 3e 04 33 b3 3c bb 1f 85 3e 30 cf 61 be
       0.25494853 0.021874912 0.2600077 -0.22051692
000340 30 e0 23 bf f2 4e 71 be a8 81 8b bf 26 d1 ae 3e
       -0.6401396 -0.23565271 -1.0898943 0.34143943
000350 57 db be be f9 85 1c bf 05 20 32 bf 18 d8 e9 3d
       -0.37276718 -0.61141926 -0.6958011 0.1141817
000360 0a 47 c1 be 83 19 84 3e 48 79 68 be 99 03 19 bf
       -0.3774951 0.25800714 -0.22702515 -0.59771115
000370 6f 1e a4 3e 61 82 21 be 8f e3 36 bd 86 8e a9 be
       0.3205447 -0.15772392 -0.04465061 -0.3311655
000380 aa c1 a8 be 8b c1 96 3e 87 82 ae 3e ba 4a 80 3e
       -0.32960254 0.29444537 0.3408396 0.25057012
000390 fa c4 c0 3e d0 42 96 3e a4 ac 23 bf f0 ee 28 bf
       0.3765028 0.2934785 -0.63935304 -0.6598959
0003a0 98 96 2a bf c1 81 46 bd 46 87 84 bf 1c 83 c6 3e
       -0.6663604 -0.048463587 -1.0353782 0.38771904
0003b0 01 cd 94 3e c7 07 8f 3e 42 95 8a 3e b2 21 c3 3e
       0.29062656 0.2793562 0.27067 0.38111645
0003c0 40 5d e3 be 5b 2f 26 bf 4f a6 71 3e 0b 96 a7 bf
       -0.44407082 -0.6491601 0.23598598 -1.3092664
0003d0 91 77 ea be 6e 2c 5e bf 4c c9 81 3e ff 00 33 bf
       -0.45794347 -0.86786544 0.2534889 -0.69923395
0003e0 a7 42 87 be 2b a2 9b be 9a 4f 1e bf c7 f6 1c be
       -0.2641804 -0.30397162 -0.6184021 -0.15328513
0003f0 6b c0 8c be 8d bd 38 bf bc 97 d5 be 1c 94 4b bf
       -0.27490553 -0.7216423 -0.41717327 -0.7952287
