bots/en/Pushkin.chatbot/Pushkin_model.tflite (tflite, 475936 bytes, 4 tensors)

in/MatMul_bias f4 [120]
000000 d9 d9 62 3e fc 8f 63 3e eb b0 41 3e 11 1b 2a 3e
       0.22153415 0.22222894 0.18915145 0.16611888
000010 22 71 5c 3e 0a f3 2d 3e 20 12 63 3e 1c cc 5b 3e
       0.21527532 0.16987243 0.22174883 0.2146458
000020 46 4f 4e 3e 18 41 58 3e 8d db 70 3e 8d 47 64 3e
       0.20147428 0.21118581 0.23521252 0.2229292
000030 5d 83 43 3e 12 4d 38 3e c9 71 52 3e c2 4f 70 3e
       0.1909308 0.1799815 0.20551218 0.23467925
000040 37 fd 56 3e 26 40 69 3e b2 f7 65 3e 28 39 63 3e
       0.20995031 0.22778377 0.2245777 0.22189772
000050 2e c9 35 3e 66 32 80 3e c0 fd 67 3e 0c 32 67 3e
       0.17752525 0.2503845 0.22655392 0.22577685
000060 9e 95 38 3e 8d a5 56 3e 39 d3 79 3e c2 cd 87 3e
       0.18025824 0.2096159 0.24396981 0.26524168
000070 b5 bc 6b 3e 2e 91 3d 3e 75 da 40 3e b4 9b 64 3e
       0.23021205 0.18512413 0.18833335 0.22325021
000080 ff 5e 4a 3e e3 f8 39 3e 4b 34 8e 3e 97 eb 5e 3e
       0.197628 0.18161349 0.2777427 0.21769558
000090 bf c5 34 3e 74 74 52 3e ba 59 64 3e b7 10 31 3e
       0.17653559 0.20552236 0.22299853 0.17291532
0000a0 eb 2a 4d 3e 64 9d 55 3e f0 56 7e 3e c2 27 68 3e
       0.20035903 0.20860821 0.24837852 0.22671416
0000b0 e7 f1 79 3e 65 d4 74 3e 46 42 64 3e 16 4b 47 3e
       0.24408685 0.23909147 0.22290906 0.19462237
0000c0 14 74 4f 3e 6c 94 18 3e c8 b3 35 3e c3 fc 21 3e
       0.20259124 0.14900368 0.17744362 0.15819077
0000d0 f1 c7 2c 3e 97 37 3b 3e 1e fa 51 3e 8e 90 6d 3e
       0.16873147 0.18282925 0.20505568 0.23199674
0000e0 0e f8 33 3e 52 d8 67 3e 5c 9c 05 3e a2 59 66 3e
       0.17575094 0.22641113 0.13047928 0.2249513
0000f0 60 29 5b 3e 3a 47 40 3e d2 f4 27 3e f0 5f 6d 3e
       0.21402502 0.18777171 0.16401985 0.23181129
000100 55 a4 5a 3e 8a 0f 1d 3e 77 6f 62 3e e6 23 96 3e
       0.2135175 0.15337959 0.22112833 0.29324263
000110 22 29 56 3e ee aa 3b 3e a6 95 72 3e 0b b8 2f 3e
       0.20914128 0.18326923 0.23689899 0.1716005
000120 fb 52 51 3e 61 c0 62 3e 39 8b 74 3e a2 d1 52 3e
       0.20441811 0.22143699 0.23881234 0.20587781
000130 1b c1 7e 3e fa 1b 73 3e 44 bd 2c 3e ba 0f 2c 3e
       0.24878351 0.23741141 0.16869074 0.16802874
000140 40 e9 85 3e d9 a5 47 3e 5f 32 47 3e cf 49 64 3e
       0.26154518 0.1949686 0.19452809 0.2229378
000150 06 4c 42 3e 8d 0e 6a 3e 2f c3 48 3e 82 c7 3e 3e
       0.18974313 0.22857113 0.19605707 0.18630794
000160 df a4 43 3e bf 7a 3a 3e f4 23 6c 3e 77 39 38 3e
       0.19105862 0.18210886 0.2306059 0.17990671
000170 37 e9 71 3e b4 f4 79 3e c3 bd 2a 3e e7 3b 7d 3e
       0.2362412 0.24409753 0.16673951 0.24729882
000180 93 8b 72 3e fd 64 53 3e 73 8a 33 3e 58 81 82 3e
       0.23686056 0.20643993 0.17533283 0.25489306
000190 e9 63 8d 3e 33 d9 4a 3e 8c 60 5c 3e f5 98 8b 3e
       0.27615288 0.19809417 0.21521205 0.27265134
0001a0 f1 4d 8b 3e ce 50 85 3e 40 bd 13 3e 81 4e 5a 3e
       0.27207902 0.26038212 0.14427662 0.2131901
0001b0 46 9d f1 3d 22 fa 50 3e 59 08 52 3e d4 ed 70 3e
       0.11797576 0.20407918 0.20510997 0.23528224
0001c0 26 81 54 3e 70 4c 4a 3e 11 bf 25 3e d1 0f 5f 3e
       0.20752391 0.19755721 0.16186167 0.21783377
0001d0 2c f0 65 3e 42 7e 91 3e 1c 4e 5a 3e c3 ff 88 3e
       0.224549 0.2841664 0.21318859 0.2675763

in/kernel/transpose f4 [120, 946]
000000 74 fc a6 3d 5a b3 f4 3d 84 0c 94 3d b8 60 c9 3d
       0.0815362 0.11948271 0.0722895 0.09832901
000010 26 bf ed 3d b5 45 80 3d 70 43 b6 3d b4 1e 91 bc
       0.11608724 0.062632956 0.088995814 -0.017714836
000020 df b3 92 3d e4 a3 47 3d 86 fd 17 bd 61 c3 a9 3d
       0.07163214 0.048740283 -0.037107013 0.08289219
000030 3e f0 3b bd 83 56 04 be 20 f7 ae 3b 34 04 db bd
       -0.04588341 -0.12923627 0.005339518 -0.10694161
000040 31 a4 12 bd 4f fd da bc 92 25 06 3d 40 da af bd
       -0.035801116 -0.026732115 0.032750674 -0.0858655
000050 14 e8 00 3d 4d 23 27 3e e8 c6 eb 3d 01 9e 27 bb
       0.031471327 0.1632206 0.11512548 -0.0025576355
000060 dd 1f a4 3d ce de b6 3d 7f 0d ba 3c cb 4d 3d be
       0.0801389 0.08929215 0.022711514 -0.18486707
000070 f6 74 7c 3e e0 9d 72 be 01 de c3 bd ce c4 84 bd
       0.24653992 -0.23693037 -0.09563828 -0.0648285
000080 fd 58 1c 3c 0b 11 08 be 26 ad 0c 3e fe b7 1f 3e
       0.009542701 -0.13287751 0.13737926 0.15597531
000090 af 3b a7 3e bf 16 10 3e aa 9a 82 3e 10 2f af 3d
       0.32662722 0.14071177 0.25508624 0.08553898
0000a0 3d 08 30 3e e2 b8 6b 3b 75 ab 5a 3e cd 8f 38 3e
       0.17190643 0.0035968353 0.21354468 0.18023606
0000b0 6b da 59 3e 23 81 d5 bd 24 5b 02 3e 66 2a d7 3d
       0.21274726 -0.104250215 0.1273008 0.10506134
0000c0 f9 ef 1a 3e e6 ea d9 bb 6d 19 a9 3d 19 54 9d 3d
       0.15130605 -0.0066503165 0.08256803 0.07682056
0000d0 c9 ef bc 3b 01 10 08 3e 4a fc 5a 3e c6 7b 54 bd
       0.0057658893 0.13287355 0.21385303 -0.051875852
0000e0 e8 63 40 be 5d 73 0e ba 88 80 ba 3d 86 a4 5c 3e
       -0.18788111 -0.00054340606 0.09106547 0.21547136
0000f0 f5 58 31 3e 02 98 1e 3e a7 32 a4 bd 02 94 b0 bd
       0.1731909 0.15487674 -0.08017474 -0.0862198
000100 70 63 3c 3e 2d d6 3f 3e e8 2a ae bd 48 74 d8 3d
       0.18397307 0.18734045 -0.085042775 0.10569054
000110 20 14 3f 3c 34 0b e4 bd 65 24 68 bd ad a3 a1 3d
       0.011662513 -0.11134949 -0.056675334 0.07892547
000120 5c 29 01 3e 78 49 5c bd b3 9f f2 3d bf 1f 19 3e
       0.12613434 -0.053781003 0.118468665 0.14953516
000130 17 01 0c be e8 5f aa 3d a1 78 11 bd 3a 12 39 bd
       -0.1367229 0.08319074 -0.03551543 -0.045183398
000140 41 e2 66 bc f2 88 26 3e 2e 22 5c 3d d8 28 3f 3e
       -0.014092029 0.16263178 0.053743534 0.18667924
000150 bc b2 49 3e 31 04 ef 3d 5a 34 5e bd 88 58 16 3e
       0.19697088 0.11670721 -0.054249145 0.1468221
000160 f9 fc 06 be 5b ce 43 3e 1d 27 a1 3d 15 6c ac 3d
       -0.13182439 0.19121687 0.078687884 0.084190525
000170 b8 d9 1d be eb 36 ce bb 80 57 19 be 76 66 06 be
       -0.15415084 -0.006293168 -0.14974785 -0.13125023
000180 b9 3c dd bd 1f 25 0e be 62 bd 26 be 33 c5 3c bd
       -0.108025976 -0.13881348 -0.16283181 -0.0460865
000190 e6 c1 2e be e1 17 44 be f2 81 36 be 79 27 3a 3d
       -0.17066154 -0.19149734 -0.17823008 0.0454478
0001a0 b8 f9 32 be 2e ab be 3d 1a f7 60 bd 84 25 a3 bc
       -0.17478073 0.09309994 -0.054923154 -0.01991535
0001b0 16 30 5f 3d 80 cb 1b be cf f0 1b be 46 92 27 3e
       0.054489218 -0.15214348 -0.1522858 0.16364393
0001c0 49 96 a4 3e 0f a8 93 3d b9 3e 64 3e d8 28 69 3e
       0.32145908 0.07209789 0.22289552 0.22769487
0001d0 28 78 21 3e 37 1d ff 3d 1b 30 40 3e 54 9f b8 3b
       0.15768492 0.12456744 0.18768351 0.005634228
0001e0 9f 02 3a bc 3e a1 3d 3e 20 50 5c bd 85 6e 6a bd
       -0.011353164 0.1851854 -0.05378735 -0.057234306
0001f0 1e 31 50 bd 4d 35 c1 bd d1 5a 96 3d 03 95 ae bd
       -0.05082809 -0.094339944 0.073415406 -0.085245155
000200 79 6b da 3d 9c db 33 3e 59 25 ba 3d e6 28 5a 3d
       0.1066503 0.17564243 0.09089155 0.05326166
000210 86 ba cc 3b f4 7a bb bd dc 04 81 bb 96 47 45 3e
       0.0062478213 -0.09154311 -0.003937347 0.19265589
000220 7e 2f 39 3e ac e0 0e 3e 4c 31 e9 3d 27 2c 99 bd
       0.18084523 0.13952893 0.11386356 -0.074791245
000230 eb 1e 36 be 1a ee 4a 3e 67 f5 6f 3e e7 18 1a be
       -0.17785232 0.19817391 0.23433457 -0.15048562
000240 9b 64 ab bd b5 67 30 3e 64 e5 19 3e 5f a8 0e 3e
       -0.08368798 0.17227061 0.15028912 0.13931416
000250 44 98 17 3e 9a c2 1f 3e a5 5f 55 3e c1 e5 e7 3d
       0.14804178 0.15601578 0.20837267 0.11323119
000260 ef 08 24 bc 6a cd a0 3d ce 0a 8c be c1 59 45 3e
       -0.010011896 0.078516796 -0.27351993 0.1927252
000270 d8 4b 6c bc 64 44 3f 3d ff f6 8f bd 09 e1 41 bc
       -0.014422379 0.04669608 -0.07029533 -0.011833438
000280 d8 1a f1 bd 82 d5 4f 3d 7e 96 d1 bc 47 3d 8f bd
       -0.11772698 0.050740726 -0.025584456 -0.069941096
000290 f8 7a 23 3d 12 62 49 bc 6a 6a a4 3d ca c9 43 3e
       0.039912194 -0.012291448 0.08028109 0.19119945
0002a0 07 64 18 3e 30 c7 58 3d ce 25 87 3d e8 74 ee bc
       0.14881907 0.052924335 0.065990075 -0.02910848
0002b0 3e 28 22 bd 16 fe 06 bd d4 1c 18 be 3a de 2d bd
       -0.03958916 -0.03295716 -0.14854747 -0.04244826
0002c0 2c ce bc bd ab 7c ae 3e 6b db 2d 3e da 89 82 bd
       -0.09219012 0.3407949 0.16978233 -0.06373949
0002d0 12 86 1f be 33 6a 0a be 05 5f 2d be 35 fa 96 bd
       -0.15578488 -0.13517074 -0.16930778 -0.07371942
0002e0 42 47 5b bd bb 50 3b 3e 9c cc b9 bd 5c fd 17 3d
       -0.053534754 0.18292515 -0.09072229 0.037106857
0002f0 46 04 3e 3d 0b 19 1a 3e 47 52 fd 3d bc d1 cd 3d
       0.046390794 0.15048616 0.12369209 0.10049769
000300 19 41 66 3d 13 73 2c 3e 7d d4 7f 3e 3c 09 d8 3d
       0.056214426 0.16840772 0.24983402 0.10548636
000310 43 9e 54 3e 21 4d 43 3e 00 1f 39 3e a4 37 8a 3d
       0.20763497 0.19072391 0.18078232 0.06748894
000320 b0 8a 79 bd 1b 15 b3 3d 97 29 e1 3d 46 73 c6 3d
       -0.06092328 0.0874426 0.10994261 0.096899554
000330 b1 98 2a 3e b8 ea 66 3d 46 c4 f7 bc ad 6d 99 bd
       0.1665981 0.05637619 -0.030244958 -0.07491622
000340 d8 68 a7 3d 02 b6 c4 3d 15 4a 77 3e 28 3d 0b bd
       0.08174294 0.09605028 0.24149354 -0.03399387
000350 e2 76 14 3c b1 80 aa 3d 0b c9 d3 3d 6e c6 99 bd
       0.009061547 0.08325327 0.1034108 -0.075085506
000360 ea f6 7a 3e 59 1e 55 3e 50 c3 26 be c6 fd 68 be
       0.24508253 0.20812358 -0.16285443 -0.22753057
000370 40 ba bb ba 41 39 a8 bd ba e7 cb 3d dd 9e 93 bd
       -0.0014322475 -0.08214045 0.09956308 -0.07208035
000380 5b 85 06 be cd 06 6d 3e 0f ec 46 39 b9 7e 14 3e
       -0.13136809 0.23147126 0.0001897069 0.14501466
000390 27 81 89 3d e6 a5 00 3e e3 4a e0 bb da 74 91 bd
       0.06714087 0.12563285 -0.0068448647 -0.07102366
0003a0 8b a2 13 be 24 d9 0d be 1d 2e 79 3d f4 bb b0 3d
       -0.14417474 -0.13852364 0.060834993 0.08629599
0003b0 9b 74 5b 3d 1b 1a df 3d 9e 3f 15 3e 0c 43 77 3e
       0.053578 0.10893651 0.1457505 0.2414667
0003c0 0a 14 1a 3e 28 d0 09 3e d9 8f c1 3d 40 81 a0 bc
       0.15046707 0.13458312 0.09451265 -0.019592881
0003d0 d1 8c 02 3e 0c 80 9c bd 1a 62 05 be 6e 12 51 bd
       0.1274903 -0.076416105 -0.13025704 -0.051042967
0003e0 30 fc a8 bb c0 24 4b be fa 46 ee bd 78 81 2f 3e
       -0.005157016 -0.19838238 -0.116346315 0.17139232
0003f0 98 cd bb bd 7c 02 3f be 23 d7 cf bb 22 3a 26 be
       -0.09170073 -0.18653291 -0.006342785 -0.16233113

out/MatMul_bias f4 [42]
000000 74 75 fc 3c fc 3a 4c bd ed 7d 98 bd d1 f6 99 3b
       0.030817725 -0.04986094 -0.074458934 0.0046986123
000010 1a 37 ef bc 6a 10 40 bd 20 57 3e bd b2 4b 04 3d
       -0.02920108 -0.046890654 -0.046469808 0.03229875
000020 e0 01 95 bd f5 10 bd bd ff 14 c7 3d b6 8b 4a bd
       -0.07275748 -0.0923175 0.097208016 -0.049449645
000030 20 05 63 bd 31 cc a9 3c f4 db 82 bc 39 c6 f5 3c
       -0.05542481 0.020727249 -0.015974022 0.030001746
000040 da 1a 14 3d cf d9 c6 3c 82 00 c4 bb 2a ad 63 3d
       0.03615842 0.024273781 -0.005981506 0.055585064
000050 81 8a 7b bd b4 ca b8 bc 91 99 18 3d 65 90 7d bd
       -0.061411384 -0.022557594 0.037255827 -0.061905283
000060 55 e8 e9 3a 46 8a ad bd 85 02 9e bc b8 1e 75 3c
       0.001784573 -0.08473639 -0.01928831 0.014960937
000070 1c 11 82 bd 78 c6 e4 3d bd 87 31 bd 3c a3 15 3d
       -0.063509196 0.111706674 -0.04334234 0.036532626
000080 9a d1 e1 bd db 64 77 3c 82 10 24 bc 5c 19 1b 3d
       -0.110263065 0.015099729 -0.010013701 0.03786598
000090 58 f3 8d bd 9b f1 69 3b 68 eb 39 3c aa 06 bc ba
       -0.0693118 0.0035696987 0.011347629 -0.0014345248
0000a0 a6 f8 ea 3c 0b 31 a4 3c
       0.028683018 0.020042917

out/kernel/transpose f4 [42, 120]
000000 5d 19 32 3e 15 b5 11 bf 2a 64 49 3e 06 08 9f 3e
       0.17392488 -0.56916934 0.19667116 0.3106081
000010 68 dd c9 be cb b6 0f bf cc 8d b1 3e 22 77 e0 be
       -0.39426732 -0.56138295 0.34678495 -0.4384089
000020 98 58 5c bf d0 80 04 bf 4e 1e 66 bf 65 09 a1 3e
       -0.86072683 -0.5175905 -0.8988999 0.3145248
000030 a9 05 54 3e 8a 4c 0f bf ae e9 24 bf 63 a6 9d 3e
       0.20705284 -0.55976164 -0.64419067 0.30791005
000040 22 b1 3f 3e fa 35 50 3e 3a 4c 85 3e f3 3f de 3d
       0.18719915 0.2033309 0.2603472 0.10852041
000050 a9 fb 76 bf 96 7f 9a 3e b1 67 9a 3e 87 1c 42 bf
       -0.9647775 0.30175465 0.30157235 -0.7582478
000060 27 d9 21 bf ed eb 35 bd 31 19 19 bf b5 09 eb 3d
       -0.63221973 -0.04441445 -0.59804064 0.11476461
000070 94 bf 65 3d f3 10 43 3e bb 9f bc 3e b2 55 0a bf
       0.056090906 0.19049434 0.36840615 -0.5403701
000080 7e b3 de be 89 6c 85 bf c5 a3 20 3e f1 60 c4 3d
       -0.43496317 -1.0423747 0.15687473 0.095888026
000090 46 5c 21 bf 4d 4d 88 3e 26 49 40 3e 93 fe 0d bf
       -0.63031423 0.26621476 0.18777904 -0.55466574
0000a0 aa 5a aa 3e 29 dd 62 3e 70 95 c5 be d4 a7 1e 3e
       0.33272296 0.22154678 -0.38590574 0.15493709
0000b0 2a b2 9e 3e 59 a2 a1 3e a4 26 56 bf 4c 88 18 3d
       0.30995303 0.31569174 -0.8365271 0.037239358
0000c0 66 4f 29 bf e5 b4 34 3e cb 32 3d 3e e2 e5 02 bf
       -0.6613678 0.17647131 0.18476407 -0.51132023
0000d0 5c a8 33 bf 24 9d c3 be 9d 81 24 bf c1 fc 53 3e
       -0.7017877 -0.38205826 -0.64260274 0.20701887
0000e0 5e 7b 10 3e 01 d0 8b 3e 59 76 03 bf a3 8e f1 3d
       0.14109561 0.27307132 -0.5135246 0.11794784
0000f0 c8 e1 10 bf f7 90 74 3e ae 27 ab 3e a4 b1 89 3e
       -0.56594515 0.23883425 0.3342871 0.26893342
000100 b8 d8 5d 3e 9c 44 29 bf 8d 56 65 bf 63 fb 4c 3e
       0.21664703 -0.66120315 -0.8958519 0.20017771
000110 81 b3 cc be d2 fd d3 3d 0a 50 6c 3e d1 19 76 bf
       -0.399807 0.10351147 0.23077407 -0.9613314
000120 b2 0a 96 3e 40 21 ae 3e 55 f9 31 3e 7e 50 23 bf
       0.29305035 0.34009743 0.17380269 -0.63794696
000130 19 b3 86 3e a4 6d b5 3e d8 02 23 bf 98 c0 30 bf
       0.26308516 0.35435212 -0.63676214 -0.69043875
000140 78 56 52 3e 03 69 ff be b7 fd 30 3e dc 9b 53 bf
       0.20540798 -0.49884805 0.17284285 -0.826597
000150 34 5b 7a 3e 65 a3 02 bf 32 1c 62 3e a1 b2 33 bf
       0.24448854 -0.5103057 0.22081068 -0.7019444
000160 70 3e 05 3e 62 97 6e bf 37 d6 39 bf 75 7c 54 bf
       0.130121 -0.9319974 -0.7259249 -0.83002406
000170 df f7 56 3e c2 4e 4c 3e b2 65 5d 3e 6c c8 90 3e
       0.20992993 0.19951919 0.21620825 0.2827791
000180 e4 59 4d 3e 86 ce 5f bf 1b a8 b4 3d 31 40 40 3e
       0.20053822 -0.87424505 0.08821126 0.18774487
000190 39 f3 73 3e 84 c6 6d bf d9 67 34 3e 81 79 58 3e
       0.23823251 -0.92881036 0.1761774 0.211401
0001a0 3e 73 05 bf 88 0c 09 3e 20 db 2f 3e 9c 6a 22 bf
       -0.5212897 0.13383687 0.17173433 -0.63443923
0001b0 cb 5e 76 bf 9a 69 13 3d 75 59 44 bf 97 e6 b1 3e
       -0.9623839 0.03598938 -0.76699 0.3474624
0001c0 33 95 3a bf 2d 5e 35 3e 46 09 18 3e 74 61 a8 3e
       -0.7288391 0.17711706 0.14847288 0.3288685
0001d0 69 b3 48 3e 9e 17 87 3e 77 85 6a 3e 5f 52 82 3e
       0.1959969 0.26385206 0.22902475 0.2545347
0001e0 13 03 94 3e da 12 6e 3e 0c 7f 23 bf eb b4 3c bf
       0.28908595 0.23249379 -0.63865733 -0.7371356
0001f0 7a 0c 4c 3e 8c 78 92 be cc 1e c2 be a0 71 c0 3d
       0.19926634 -0.28607595 -0.3791412 0.09396672
000200 ab db 4c 3e f8 bd 3e 3e c0 53 b7 3d 27 ce 5e bf
       0.20005672 0.18627155 0.08951521 -0.87033314
000210 24 24 5b 3e ae 7c b2 be 31 59 57 3d 23 de 15 bf
       0.21400505 -0.34860748 0.052575294 -0.5854208
000220 0e 45 b1 3e c4 14 7a 3e b3 c0 8e 3e 31 0b 4d 3e
       0.34622997 0.24421984 0.27881393 0.200238
000230 c4 43 09 3e b8 6b 94 3d b9 d9 15 bf a7 9d 98 3e
       0.13404757 0.07247108 -0.58535343 0.2980778
000240 c4 2b 67 bf 53 39 1d bf 7d 29 55 3e 01 0d 0b bf
       -0.90301156 -0.61415595 0.20816608 -0.5431672
000250 4e 0d 2f 3e b4 fd 41 bf 35 6b ed be f3 7d 82 3e
       0.17094919 -0.75777745 -0.46370855 0.25486717
000260 81 04 ea be 3b d5 0e bf 01 e4 8d 3e a7 db 45 bf
       -0.4570656 -0.55794114 0.27713016 -0.7728829
000270 41 82 2e 3e be 7e 2a bf c4 89 17 bf bf f4 07 bf
       0.17041875 -0.66599643 -0.5919459 -0.5310783
000280 35 d1 97 3e 27 b2 79 3e f1 a6 62 3e 25 14 24 3e
       0.296518 0.24384366 0.22133996 0.1602331
000290 ab d1 88 3e 9b 71 1d bf 73 60 55 bf 82 5b bc bd
       0.26722464 -0.61501473 -0.83350295 -0.09197141
0002a0 d7 46 2c bf aa ed cb 3e 35 bd e6 be bd 7d 2e bf
       -0.67295593 0.3982976 -0.45066229 -0.6816061
0002b0 3e 9f 8d 3e aa e9 15 bf 47 c0 0e bf 70 b9 8e 3e
       0.27660555 -0.5855967 -0.5576214 0.27875853
0002c0 1b b5 1b bf 00 49 dd be 85 ef f5 be c4 63 80 3e
       -0.6082322 -0.43219757 -0.480343 0.25076115
0002d0 41 2c c5 be ad 2b ac be 9d 4a 3e 3e b3 95 b6 be
       -0.38510326 -0.33627072 0.1858315 -0.35661086
0002e0 67 42 e8 be cd ce 30 bd 61 85 6c 3e 65 fe 1c bf
       -0.4536316 -0.04316597 0.23097755 -0.61325675
0002f0 2b 2c 0c bd e8 fa 44 bf 3a 81 6d 3e 69 0f 14 3e
       -0.03422181 -0.7694535 0.23193827 0.14459004
000300 eb 17 7d be c8 2e d6 be 5b 61 1d bf ba 76 01 bf
       -0.24716155 -0.41832566 -0.6147668 -0.5057179
000310 22 db 86 3e d1 10 7b 3e 72 2a 79 3e 01 7d 42 bf
       0.2633906 0.24518134 0.24332598 -0.7597199
000320 ae 0d ff be 75 88 74 3e c3 f3 58 bf 64 2f 9b 3e
       -0.49815124 0.23880179 -0.8474695 0.30309594
000330 fe bc 6b 3e ef 8f 1f bf 45 f3 25 3e 9a 92 03 bf
       0.23021314 -0.62329 0.16206081 -0.5139557
000340 1c d8 5e 3e cc b0 84 bf 11 8c 4b bf bb 10 da be
       0.21762127 -1.0366454 -0.795106 -0.4259089
000350 b6 e4 eb be e1 81 17 bf 66 d2 cd be 2e 6d 81 be
       -0.4607293 -0.59182554 -0.40199584 -0.2527861
000360 1f 9b 02 bf b1 6a 20 be 73 e0 61 3e e7 7e 01 bf
       -0.51017946 -0.156657 0.22058277 -0.5058426
000370 a2 b5 ab 3e 9c 2f 51 3e 2b 02 7b 3d db 8a 25 bf
       0.33537012 0.20428318 0.061281364 -0.64665
000380 50 1f 5e 3e 5b 49 58 3e 60 f5 40 3e 10 19 4b 3e
       0.21691632 0.21121733 0.18843603 0.1983378
000390 4b 78 72 3e 29 92 01 be 2f e3 50 3e eb 0b 39 3e
       0.236787 -0.12653412 0.20399164 0.18070953
0003a0 2b 77 6a bf 10 f9 3e 3e 92 1d b1 be e4 9a b8 be
       -0.91588086 0.18649697 -0.34592873 -0.36055672
0003b0 9e a8 88 be 75 f5 14 bf ce 53 b6 3e d1 f3 f4 be
       -0.26691145 -0.5818704 0.35610813 -0.47842267
0003c0 36 1c 43 bf 2e c4 1a bf ff 07 9f 3e e2 8e cf be
       -0.7621492 -0.60455596 0.31060788 -0.40538698
0003d0 6a c9 1e bf d7 ad 0b 3e 52 54 b8 3e 07 ed 4a bf
       -0.62026083 0.13640533 0.3600183 -0.79267925
0003e0 41 90 e9 bd 6d 92 0a 3e ed a0 a2 3e 77 2d 10 3e
       -0.114044674 0.1353242 0.31763402 0.14079843
0003f0 88 0b 46 3e b3 d8 b2 be 97 7c ee be ce 80 9d 3d
       0.19340336 -0.34930953 -0.4657943 0.07690583
