bots/ru/Karlson.chatbot/converted_model.tflite (tflite, 441012 bytes, 4 tensors)

in/MatMul_bias f4 [128]
00000000: 5060 803e 509f 833e d350 783e ee33 7a3e
00000010: e469 843e ca99 893e d260 163e aa2f 863e
00000020: 402b 533e 9ad6 683e 557d 473e e6ac 473e
00000030: 34c9 713e 26cd 873e e202 813e 887e 6b3e
00000040: f553 793e 5266 3f3e e1cb 643e b856 253e
00000050: ba36 713e 06ee e13d 4f12 a53e 2c85 733e
00000060: 312e 683e c5ec 493e 85c9 103e 1690 1f3e
00000070: 258a 883e 9be0 313e 90f3 863e 68da 903e
00000080: 1dd4 6b3e 59ef 7b3e 30bb 203e da1b 0a3e
00000090: 00a2 553e 5d1c 993e e22a 233e 6b80 7d3e
000000a0: ccd5 863e d4de 573e ee01 7a3e 4052 403e
000000b0: c11e 503e b049 6c3e 20ff 7d3e 9117 493e
000000c0: 6f3b 883e ad08 823e 34c8 4a3e f061 963e
000000d0: 7599 303e 513f 853e 71e1 783e f4e1 233e
000000e0: f290 813e be56 873e d301 573e 6abe 833e
000000f0: 40d6 6b3e 3ff5 463e 7866 5a3e 6c9e 913e
00000100: 53c9 4e3e af46 823e c19d 4d3e d254 113e
00000110: e27f 4d3e b026 533e 7e48 0a3e 25db 2d3e
00000120: 050f 143e 3ebc 193e ecd0 703e a4ea 573e
00000130: b5eb 4b3e ae18 673e b437 7f3e 0b9a 563e
00000140: 0884 6b3e aed6 453e ecde 233e 6e5c 733e
00000150: 796e 633e d348 053e a020 4a3e b220 713e
00000160: 0de2 8c3e f778 5d3e 227e 873e 8150 7a3e
00000170: f3e5 133e 0433 6d3e 2a9d 4e3e 9f2a 313e
00000180: 8a37 663e 10c1 863e 0329 653e 7e58 613e
00000190: feb6 023e 1727 183e 9224 963e 3195 613e
000001a0: 6cd5 8a3e d0ef 8c3e ff37 093e a6d0 3d3e
000001b0: d023 3b3e a484 843e 65e6 833e 4a93 873e
000001c0: b113 383e 59ec 3f3e f0c8 7c3e addb 423e
000001d0: 9872 633e cf41 513e 1554 163e b20f 3f3e
000001e0: 1f4f 033e 7948 8a3e 64c7 823e f6c9 583e
000001f0: b67e 333e ee2e 2b3e 9296 273e 2e56 6b3e
0.2507348 0.25707483 0.24249582 0.24433872 0.25862038 0.26875144 0.14685372 0.2620824
0.20621967 0.22738114 0.19481404 0.1949955 0.23611909 0.26523703 0.25197512 0.22997487
0.24348433 0.18691376 0.22343399 0.16146362 0.23556033 0.110317275 0.3224053 0.2378127
0.2267387 0.19719227 0.14139374 0.15582308 0.26667896 0.17370836 0.26357698 0.2829163
0.23030134 0.24603023 0.15696406 0.13487187 0.2086258 0.29904452 0.15934327 0.24756019
0.2633499 0.21081096 0.24414799 0.18781376 0.20324232 0.23074985 0.24804354 0.19637896
0.26607844 0.25397244 0.19802934 0.29371595 0.17246039 0.2602487 0.24304749 0.16004163
0.25305897 0.26433367 0.2099679 0.25731212 0.23030949 0.19429491 0.21328151 0.2844118
0.20193987 0.25444552 0.2007971 0.14192513 0.20068315 0.20620227 0.13504216 0.16978128
0.14458854 0.15013215 0.23517197 0.21085602 0.19914134 0.22568008 0.24923593 0.209572
0.22999585 0.19320175 0.16003007 0.23765728 0.2221011 0.13016061 0.19739008 0.23547629
0.27516213 0.21628176 0.2646342 0.24444772 0.14443187 0.23163992 0.20177141 0.17301415
0.22482124 0.2631917 0.22378926 0.22006413 0.12765118 0.14858662 0.29324776 0.22029568
0.27115953 0.27526712 0.13400267 0.18536624 0.1827538 0.25882447 0.25761715 0.2647956
0.17976262 0.18742503 0.24686027 0.19029112 0.22211683 0.2043526 0.14680512 0.18658331
0.12823151 0.27008417 0.25542748 0.21170792 0.17528805 0.16717121 0.16366032 0.22982094

in/kernel/transpose f4 [128, 819]
00000000: e20a bf3d 5adc 3c3d 7cb9 9e3d 99fd 1a3d
00000010: b455 0d3d c043 a2bd bb4e 9fbd 17e1 bebd
00000020: 6408 74be 4ac7 be3d a6e3 383e a3d1 e0bd
00000030: 1bf4 d33d ff2a da3d fd3e 483c 6b75 2a3d
00000040: fd7d 303e 9365 b63d 9159 2d3e 24da 2abd
00000050: 6647 cf3d 9583 dd3d 8973 523e 2a03 af3d
00000060: ade6 4bbd e497 ccbd 8c19 6f3d ad1a d0bd
00000070: 3d1e c83d 126f 00be 35dd a63d 8707 84bd
00000080: 5524 093e c76d 203e 76d8 f43d 8955 063e
00000090: 864b bb3d cef9 f63d 461e d73d fd92 9b3d
000000a0: 75d7 863d fcaf bf3d e037 cc3d c462 803e
000000b0: bc02 383e 4f85 32bd cff6 bcbd 524b a4bd
000000c0: 192c 0c3e cf04 433d 9080 eebd 0ae9 31bc
000000d0: 8b90 da3d e788 9bbd 7550 563d a6ca d53d
000000e0: 7a8f eebc d39e 6239 7006 b7bd 8d47 573d
000000f0: dff0 b13d 65ab 3c3e 01fa ba3d 2d63 0abe
00000100: 3f36 9fb9 46ae 81bd 4bc7 4dbd 055c 53be
00000110: e918 47bb 9613 87bd e554 16be 76bf c0bd
00000120: fc62 a5bd d88e 0a3e 273d 923d 8529 ed3d
00000130: bee6 913d c59b 04be c14d 563e be2f 6d3c
00000140: 5a2d 8dbd 151e 913d c9b5 ad3d 7f3f 64bd
00000150: d9b7 b33c 1ae9 60bd 7692 cd3d 0396 afbd
00000160: d9b7 23be ba38 db3d f0ad 053e c69c 523c
00000170: cbd8 263e aa91 05be 2054 3d3e 00cd 963d
00000180: 8f7a a9bd 9f88 fe3d bb1f 053d f649 943d
00000190: 5d59 a9bd 1820 debd d378 80bd 1055 d43d
000001a0: 5d60 913d b0b2 bb3d c0f7 393d 64c3 d13d
000001b0: 6d86 d9bd ee36 9dbd 71e0 c83c 54de 1b3d
000001c0: b3b8 2e3e 14fc 1d3e 9c75 ba3d 2f54 75bd
000001d0: b618 9dbd d5db a73c b675 e13d c7ff cdbd
000001e0: fed1 f33d 8542 ba3d ce78 d03d 4d83 bcbd
000001f0: 7697 2a3e 1867 02be dd2a 203e cc25 c03d
00000200: a8b7 6d3e 86cf 42bd a17e 9bbd 6571 9b3d
00000210: 8318 5d3d 4600 6d3e 60d6 903d 2621 083e
00000220: c136 11bc f6d4 d4bd a4df 343d 1510 ca3d
00000230: eb1c d13d 504b 87bd 2972 4f3e a73b da3d
00000240: f26f 103e e2f3 de3d 2484 8cbd dbfa 1fbe
00000250: f4ff 20be 485e 183e 8269 4c3e 4615 05be
00000260: 8b8e 393e 4226 21be 30e7 c5bc fe65 45be
00000270: ad5d 30be cc53 89bc 13e0 86bd 914e 973d
00000280: d260 9dbd 4925 53bd f46e a7bd ef83 783d
00000290: 503a cd3d a45b 653c 9c39 6cbd 2f91 1d3e
000002a0: 8c7e c73d c4fb 0a3e 0b37 0a3e 1b93 ed3c
000002b0: 4338 49bc 8281 3a3e bf26 013e 97bd 4abd
000002c0: 090e 9cbc 36d9 0b3e 7e9e 083e a564 a7bd
000002d0: 45cc 243e 7828 acbd 6555 ac39 bd3f 18bd
000002e0: 2539 91bd 8a51 acbd 41a5 19be 45fb a8bd
000002f0: f0eb 0e3e 61d8 023e 731d 313e 0978 b6bd
00000300: fb26 943c 4772 fdbd 4aa1 303e 05a3 163e
00000310: 4626 b6bd ed55 ec3a b2ca f2bb 02e8 15bd
00000320: cabc 363e 535f a33e a927 123e 5cd3 fdbc
00000330: 25af f03d 3dd6 083e f973 3abd 15d3 2d3e
00000340: f666 ab3d 4e04 083e 4758 39be 413d 943d
00000350: 7939 d7bd 7da0 9d3d 3f87 3d3c fd51 c8bd
00000360: d449 abbc 1318 88bd 9f73 07be e845 22bd
00000370: a07d 093e 8aca 4c3d a5e1 133e 977d d8bd
00000380: ab98 5a3d f959 b8bc 6144 ab3d b256 b1bc
00000390: 77f8 c53d 2f1c 5b3e 6a67 0ebe 92d1 7dbd
000003a0: 7c2e 843d 5f04 8dbd 9913 8abb c385 193d
000003b0: c4bf 673d 350b 9fbd 89b9 bebd 2e94 133e
000003c0: 5ee1 203e 2bb1 8b3d 25c2 2a3d 6346 2a3e
000003d0: 1318 4c3e 171a b33d cfe1 9d3d 3a12 c83d
000003e0: 245d 29bd ed5b 193d c509 893d ae67 efbb
000003f0: 7cd1 ff3d b19b 7c3d 1686 583e d82e 42bd
0.093282476 0.04610858 0.07750222 0.037839506 0.03450556 -0.079230785 -0.077786885 -0.09320276
-0.23831326 0.09315355 0.18055591 -0.10977485 0.10349294 0.10652732 0.012222049 0.041615885
0.1723556 0.089060925 0.16928698 -0.04171194 0.1012104 0.10816113 0.20551886 0.08545525
-0.049780536 -0.09989908 0.058373973 -0.10161338 0.097713925 -0.1254237 0.08147661 -0.06446748
0.13392766 0.15666877 0.11955349 0.13118567 0.09145264 0.12059365 0.10503821 0.07596395
0.06584064 0.09359738 0.09971595 0.25075352 0.17969793 -0.043584164 -0.092267625 -0.08022179
0.13688697 0.047612008 -0.11645615 -0.0108587835 0.10672101 -0.075944714 0.052322824 0.10439043
-0.02912115 0.00021612206 -0.08936775 0.05255847 0.08688521 0.18424757 0.09129716 -0.13514395
-0.0003036726 -0.06332068 -0.05023889 -0.20640571 -0.0030379838 -0.065955326 -0.14680822 -0.09411518
-0.080755204 0.13531053 0.0714057 0.11580185 0.07124089 -0.12950046 0.20928098 0.014476715
-0.06893416 0.07085816 0.084819384 -0.055724617 0.021938251 -0.054909803 0.10037701 -0.08573534
-0.15988101 0.10704179 0.13054633 0.0128547605 0.16293637 -0.13043848 0.18489122 0.073633194
-0.08275329 0.12428402 0.032500964 0.072406694 -0.08268998 -0.10845965 -0.062730454 0.10367787
0.07098458 0.09164941 0.04540229 0.10242346 -0.10621343 -0.07676493 0.024521085 0.038053825
0.17062645 0.15428191 0.091044635 -0.059894737 -0.07670729 0.020490566 0.1100878 -0.10058551
0.11905287 0.09094719 0.10179292 -0.09204731 0.1665934 -0.1273464 0.15641351 0.09382209
0.2321459 -0.04756119 -0.07592512 0.07589988 0.053978454 0.23144636 0.07072139 0.13293895
-0.008863152 -0.103921816 0.044158593 0.09866349 0.10210594 -0.066061616 0.20258392 0.10655909
0.14105204 0.10886361 -0.06861141 -0.15623038 -0.15722638 0.14879715 0.19962123 -0.12996396
0.18120782 -0.1573725 -0.02415809 -0.19277188 -0.17223234 -0.01676359 -0.065857075 0.07388032
-0.07684483 -0.05154923 -0.081754595 0.060672697 0.10020888 0.0139989 -0.057672128 0.15387414
0.09740934 0.13572603 0.1349756 0.02900081 -0.01228148 0.18213466 0.12612437 -0.049497213
-0.019049661 0.13657078 0.1334171 -0.08173493 0.16093548 -0.08406156 0.0003287002 -0.03717016
-0.070909776 -0.0841399 -0.15004446 -0.08251051 0.1395719 0.12777855 0.1729639 -0.08909614
0.018084994 -0.12375312 0.17249027 0.14710625 -0.08894019 0.0018030979 -0.007409417 -0.036598213
0.17845455 0.31908664 0.14272942 -0.030984573 0.11752156 0.13362975 -0.045520756 0.16975053
0.083692476 0.13282892 -0.18100081 0.07238246 -0.10509009 0.07696626 0.01156789 -0.09781263
-0.020909227 -0.06645217 -0.132277 -0.03961745 0.13426828 0.049997844 0.14441545 -0.10570829
0.05336825 -0.02250384 0.083626516 -0.021647785 0.096665315 0.2139747 -0.13906637 -0.06196744
0.06454179 -0.06885599 -0.004213762 0.03748108 0.056579366 -0.077658094 -0.09312732 0.14411995
0.15710971 0.068209015 0.041689057 0.16628413 0.19931059 0.087452106 0.07709085 0.097691014
-0.04134859 0.037441183 0.066913165 -0.0073060608 0.12491128 0.061671916 0.211449 -0.047407955

out/MatMul_bias f4 [39]
00000000: 2822 9c3d 9a46 79bc 78f5 5cbd baee fbbc
00000010: a9aa 95bb e386 2ebd bc47 36bd 1ee6 e4bc
00000020: 94a3 a13b c8b2 683d 0e70 cdbd a6c2 803d
00000030: e453 d5bc 6956 59bb 4fee 88bd eccb a5bb
00000040: 0f4b 3cbd 66c4 85bd 5ae7 28bd 6b9b c23c
00000050: 4dde 9f3d 0fa3 0dbc 8ca1 ec3c 7156 54bc
00000060: d3fb 52bc b914 263d 1fd5 83bd 0293 783d
00000070: b290 8fbd a9b0 80bd 57c5 de3a 8123 033a
00000080: 96a9 b73c ee7e a9ba 7638 223d 50b0 6d3c
00000090: e01b 24bd f1be 503d 8a15 97bd
0.07623702 -0.015214587 -0.053945035 -0.030753482 -0.0045674634 -0.042609107 -0.044502005 -0.02794176
0.00493283 0.056811124 -0.10031138 0.06287126 -0.026040979 -0.0033163077 -0.06686079 -0.00505971
-0.04597002 -0.06531601 -0.04123626 0.02375575 0.078060724 -0.008644833 0.028885625 -0.012960062
-0.012877422 0.040547106 -0.06437134 0.060687073 -0.0701002 -0.06283695 0.0016996068 0.0005002544
0.022419732 -0.0012931505 0.039604627 0.014507368 -0.040065646 0.050963346 -0.07377155

out/kernel/transpose f4 [39, 128]
00000000: 341a adbd 176b 26be dc1d a03e 1107 c93e
00000010: 70c2 48be 0132 923e 8ba7 923e 279e 5bbe
00000020: 500a 59bf cc1f debd 12aa 883e a0a2 ab3e
00000030: 8aa2 72bf 6f67 05bf 5b80 1ebf 8973 833e
00000040: ecad 6f3e ab10 3ebf fd51 09bf 9dfe 563e
00000050: 0669 10bf 4a3d c6be dd83 903d 42c0 04bf
00000060: 3d8d 7c3e 297b 303e 4548 19bf d55a 8d3e
00000070: 4085 4c3e 72ae 14bf c90f 923e a5a3 b0be
00000080: 287b 09bf 5542 65be 5f32 dfbe 49ae 52bf
00000090: 170c 44bf 9914 0f3e 9d37 8abe b25b 78bf
000000a0: a71f b53e 931c ac3e 6e0f 103e d443 31bf
000000b0: c304 a5be 3b2d 7e3e 9ac8 61bf 6c0c 24bf
000000c0: 833f 6dbe dcb5 eabc 1680 23bf adfb 88bd
000000d0: b5e9 75be 9e3c 823e 3dc5 9fbe e220 e3be
000000e0: 4487 3fbf a90b 943e fe9f 8b3e 6244 313e
000000f0: de59 a43e db2b 8c3e 8cbd 6abe b1a8 64bd
00000100: ff08 48bf 82c9 cebe f3f2 06be 0cc6 4dbf
00000110: fc9b 0cbf f5bc 33be bbf8 16be 1e11 6abe
00000120: 729e ebbe b99f 31bf 4c83 03bf a28b 68bf
00000130: d7be 063e 0764 cf3c e9cc e2be 6740 c8bc
00000140: ecac c5bd 34b4 933e 11a8 643e b108 7ebe
00000150: aeec 40be 2420 403e b4f1 65bf 880a 8f3e
00000160: 3917 f7be 3e6d efbe 2641 443e 4c40 8f3e
00000170: 034a 31bf d8b2 a9be 8e48 4fbf ddb6 433e
00000180: fc36 5cbf 2acf 4ebe 14f5 f4be 94e0 ddbe
00000190: 04eb 21be 2fb3 d5be 5948 333e dedc 373d
000001a0: 42ed bc3e 731f 4dbe 523c 293e 9dc2 e8be
000001b0: ce49 92be 1eda 993e a2c8 843e 9dfc a0be
000001c0: d8f7 4ebf 5216 1fbf 7e32 7dbf 2d8a 443e
000001d0: 4773 58bf cd18 7c3e 6067 893e 1fac 6ebe
000001e0: 0a63 663e 8d53 71be 2471 663e 8e26 783e
000001f0: f95e fdbe 6446 61bf 24d5 b83e c59b d93d
00000200: 0a97 9fbe 0223 143e d67b d4be 3026 643e
00000210: 8aa9 b8be c801 07be b71d 0f3e abb0 653e
00000220: d0a2 953e c983 3e3e 7a47 0abf 6fe8 3f3e
00000230: c820 3a3e 7b85 29bf 4940 8cbe 1562 5c3e
00000240: ec4b 33be cdc0 d7be 799f aabe fb3d 813e
00000250: 0126 cebe 0d78 533e 4d6f 96bc b907 53be
00000260: 43df e8be 1ce3 f1be e48c 18bf f3ac 573e
00000270: 135e c9be 0d31 243e 27ba 843e 894f 14bf
00000280: f8d7 b43d 7c61 47bf 1e03 8f3e 0803 d7be
00000290: 5e7e 123e b762 67bf a12e 7ebe 275b 803e
000002a0: b11a 533e 6cd1 0c3e 3b62 88be 95be f7be
000002b0: 8e82 9ebe 5f99 e63d 8c3e 7c3e 449b b1be
000002c0: 4805 48bf 7c72 39bf 44e3 b2be a658 a2be
000002d0: 39d7 66be 8661 26bf d73e e5be c9c1 d6be
000002e0: 88c5 fbbe 9e0a 073b e32f fcbe 239c 8bbe
000002f0: 3f2a 993e 8e66 e83d b1ec 72bf 75e2 dcbd
00000300: 5cf4 e1be e3e8 573e 0593 c4be 9923 97be
00000310: 89d4 863e 7899 fc3d d700 b13e 8f4b 87be
00000320: edd1 b1be 939e 243e a9e2 5dbc 61f4 3c3e
00000330: d582 60bf bdf2 dcbe 3b79 6b3d 0976 863e
00000340: db0a ac3e 49b5 2d3e e964 ad3e d3d1 8f3e
00000350: 3e5c d6be 8ecf 343c 9163 24bf a257 903d
00000360: 9bb4 403e b993 a93d 9e4d a8be ae1b 603e
00000370: 651a 26bf 8c98 f6be e52f f1be 509f 64bf
00000380: ba34 243e 3d04 7c3e 62ad 3fbf df26 32be
00000390: 088f 15be 2cc1 923e 79c1 4d3e 4b79 c1be
000003a0: 61df a3be 2b9c 683e b770 493e 15c4 abbe
000003b0: d177 9dbe 2332 cebe 28dc 623e cff6 70bf
000003c0: 6108 813e d7bd dcbe b591 43bf 67c3 62be
000003d0: d6c2 543e fcaf 323e 940b 58be 3280 483e
000003e0: 87a6 5a3e 547d 5bbf 3227 efbe e261 60be
000003f0: 41f1 af3e 805e 96be 6390 eebe 9da2 7fbf
-0.084522635 -0.16251789 0.3127278 0.39263204 -0.19605422 0.28553775 0.2864345 -0.21447049
-0.8478136 -0.108459085 0.26692253 0.3352251 -0.94779265 -0.5211095 -0.61914605 0.25674084
0.2340619 -0.74244183 -0.5364073 0.20995565 -0.56410253 -0.38718635 0.07056401 -0.5185586
0.24663253 0.17234482 -0.598759 0.27608362 0.19972706 -0.5807868 0.28527668 -0.3449985
-0.53703547 -0.22388585 -0.43593118 -0.8229719 -0.7658095 0.13972701 -0.26995555 -0.97014916
0.3537571 0.3361555 0.14068386 -0.6924412 -0.32230195 0.24821942 -0.8819672 -0.64081454
-0.23168759 -0.02865117 -0.6386732 -0.06688628 -0.24014933 0.25436872 -0.31205168 -0.44361025
-0.74815774 0.28915146 0.27270502 0.17311242 0.32099813 0.2737721 -0.22923869 -0.05582494
-0.78138727 -0.40388113 -0.13178615 -0.8038032 -0.54925513 -0.1755255 -0.1474332 -0.22858092
-0.46019322 -0.6938434 -0.5137222 -0.9083806 0.13158737 0.025316251 -0.4429696 -0.024444772
-0.09652123 0.28848422 0.22329737 -0.24808003 -0.18840286 0.1876226 -0.89821935 0.27937722
-0.48259905 -0.46763033 0.19165477 0.27978742 -0.6925356 -0.3314426 -0.80970085 0.19112726
-0.860214 -0.20196214 -0.4784323 -0.43335402 -0.15812308 -0.4173827 0.17508067 0.04488837
0.36899763 -0.20031528 0.16526917 -0.45460978 -0.28571934 0.30049223 0.2593432 -0.3144273
-0.8084693 -0.62143433 -0.9890517 0.19193335 -0.845509 0.24618836 0.2683668 -0.23307846
0.22498718 -0.23567028 0.22504097 0.24233457 -0.4948652 -0.8799803 0.36100113 0.10625414
-0.3116992 0.1446648 -0.4150073 0.22280192 -0.36066848 -0.13184273 0.13976179 0.22430675
0.2922578 0.1860496 -0.54015315 0.1874101 0.18176568 -0.662193 -0.27392796 0.2152179
-0.1750943 -0.42139283 -0.33324793 0.252426 -0.4026337 0.20651264 -0.01836362 -0.20608415
-0.45482835 -0.47243583 -0.5958998 0.21062069 -0.39329585 0.16034336 0.25923273 -0.5793386
0.08830255 -0.77883124 0.27932066 -0.419945 0.14306018 -0.90385 -0.24822475 0.25069544
0.2061565 0.13751763 -0.26637444 -0.4838759 -0.3095898 0.11259722 0.24633235 -0.3468877
-0.7813306 -0.72440314 -0.34939015 -0.31708258 -0.22543038 -0.6499256 -0.44774505 -0.4194472
-0.49174142 0.0020605694 -0.49255285 -0.2726756 0.29915044 0.11347686 -0.9489241 -0.10785381
-0.44131744 0.21084933 -0.38393417 -0.29519346 0.26334026 0.12333959 0.34570953 -0.26424834
-0.34730473 0.16076116 -0.0135428095 0.18452598 -0.87699634 -0.43153945 0.05748866 0.2626193
0.33602032 0.16963686 0.3386605 0.2808977 -0.4186725 0.011035813 -0.64214426 0.07047965
0.18818896 0.08280129 -0.32871717 0.21885559 -0.64884025 -0.4816326 -0.47106853 -0.8930559
0.16035739 0.24610992 -0.74873936 -0.1739764 -0.14605343 0.28663003 0.20093335 -0.37787852
-0.32006362 0.22715823 0.19671904 -0.33548036 -0.30755475 -0.40272626 0.22154295 -0.941266
0.25201705 -0.43113586 -0.76394206 -0.22144853 0.20777449 0.17449945 -0.21098167 0.19580153
0.21352588 -0.8573811 -0.4670959 -0.2191234 0.3436375 -0.29368973 -0.46594533 -0.99857503
