bots/ru/Minions.chatbot/converted_model.tflite (tflite, 244464 bytes, 4 tensors)

in/MatMul_bias f4 [120]
00000000: d923 733e 6680 0a3e e0ab 503e 0e3e 843e
00000010: 67c4 173e b50f 5c3e fd76 623e 3fb0 4a3e
00000020: 9fdc ee3d adf5 033e 9862 5b3e c42f 533e
00000030: 1179 183e d48e 353e 2162 013e 2a95 433e
00000040: a4e9 173e e8ef 553e d486 133e e925 183e
00000050: 6d7a 0d3e 56c5 6b3e 8fa6 0f3e 7a1b 753e
00000060: 7777 043e f186 4d3e 8601 663e eb5d d43d
00000070: a1f8 473e 606f 613e 382f 323e 3381 713e
00000080: 10ac 213e 2a1b e13d a601 0f3e 82b6 cc3d
00000090: 1dbe 253e 902d 003e b966 223e 8076 1e3e
000000a0: ea4d 503e c2b2 313e 55c7 663e 2dad 0b3e
000000b0: 8695 803e 24a7 723e 7072 473e 1d1c 203e
000000c0: 4bc5 9c3d 4723 fa3d b842 5a3e fd20 4d3e
000000d0: e976 313e 34c0 273e cc6c 113e eaec 5e3e
000000e0: 3909 213e 70f8 293e ce29 183e c0c1 713e
000000f0: be0f c43d fc89 013e 65b3 283e d8c8 3d3e
00000100: 6927 963e bb3d 003e 3aba 203e d9fc 803e
00000110: b9bc 243e 0fcb 533e 2a10 233e f1bc db3d
00000120: fb8b 123e bef9 433e 9f90 043e 2df2 5b3e
00000130: a4a7 203e 39b3 7a3e b3d8 5b3e ec36 343e
00000140: 5ce7 fb3d 7b27 493e 3c1b 6b3e 4e7f 4c3e
00000150: 7069 273e 2262 3e3e 76b2 1d3e 1575 e33d
00000160: 3e4c 123e 4eaa 6d3e bfc6 273e 57b0 2a3e
00000170: e898 113e dff8 393e 7ba4 0d3e ce9a 743e
00000180: 01e6 643e 3507 343e d897 523e d562 2a3e
00000190: 9d17 853e b9e5 143e ab4c b23d ee24 5c3e
000001a0: c132 6b3e 6362 833e 76e9 343e 4ec2 313e
000001b0: 433c fb3d 9021 0c3e 0c9e 4b3e 0065 243e
000001c0: 49c9 443e b48a 743e d778 4f3e 2de8 f73d
000001d0: 5086 5f3e 37f3 733e d8fd e53d b026 643e
0.23744144 0.13525543 0.20378065 0.25828594 0.14821015 0.21490367 0.22115703 0.19793795
0.11663174 0.12886687 0.2142433 0.2062369 0.14889933 0.17730266 0.1263509 0.1909987
0.1483522 0.20892298 0.14406902 0.14858212 0.13816233 0.23024496 0.14028381 0.23936263
0.12936197 0.20071007 0.22461519 0.10369476 0.19528438 0.22015142 0.17400825 0.23584442
0.15788293 0.10991509 0.13965473 0.09995748 0.16185804 0.1251738 0.15859498 0.15474892
0.20342222 0.17353347 0.22536977 0.1364028 0.25114077 0.23696572 0.19477248 0.15635724
0.07654818 0.1221376 0.21314514 0.20032115 0.17330517 0.16381913 0.14201659 0.21770063
0.15726174 0.16598678 0.14859697 0.23609066 0.09573315 0.12650293 0.16474684 0.18533647
0.29326943 0.12523548 0.1569604 0.25192907 0.16087617 0.2068293 0.15924135 0.10729397
0.14311211 0.19138238 0.12945794 0.21479101 0.1568895 0.2448243 0.21469383 0.17599076
0.12299988 0.19643967 0.22959608 0.19970438 0.16348815 0.18592122 0.15400109 0.11106316
0.14286897 0.23209497 0.1638441 0.16668831 0.14218485 0.18161343 0.13832276 0.23887178
0.22353365 0.17580874 0.20565736 0.16639264 0.25994578 0.14540757 0.087060295 0.21498463
0.2296858 0.25661 0.17667183 0.17359278 0.122673534 0.13684678 0.19884509 0.16054153
0.19217409 0.23881036 0.2026094 0.12104831 0.2182858 0.23823248 0.112300575 0.22280383

in/kernel/transpose f4 [120, 492]
00000000: c124 163d e67e 053d b03c 353d ee14 8abb
00000010: fdc1 293e ee57 b13d 33d9 283d dc46 563c
00000020: 0cc1 ccbd d635 1ebd 0e50 3a3c c5d1 2a3d
00000030: 30d0 383e ce3c ebbd 3fea c0bd 07b2 eb3d
00000040: 693d 61ba 406a d3bc 6c03 1bbe a0fa 7fbd
00000050: 5889 e5bd 7119 bb3d aebd 8fbc 3ffd 4c3e
00000060: bdfd 193e 0e49 24bd 15be a13d 87f8 003e
00000070: ccbf 81bd 0ab1 e33d 94cf a3bd 480f ed3d
00000080: 4a30 773b 97e6 12be a4f9 9f3c 7cde f93b
00000090: 4001 abbd 1dc0 c9bd 9c2f 34bd e4e0 98bd
000000a0: 87ed 3abe 2531 f3bd 5f7c 403e 4f4e 3b3e
000000b0: b1c7 3dbd 988e 01bd f3a5 6b3c 3eb6 cb3d
000000c0: a41a 443d be93 08be 861b 023e 90b0 2f3d
000000d0: ad1c b1bd 0dec 413d f6a7 fbbd b2ec 623c
000000e0: f592 9c3d b2db 393d 0170 5e3d 5bf5 5f3d
000000f0: f3dc a23c 9a30 0b3e beee 763d ed8c 013d
00000100: b0cd b5bd cd36 bfbc 8b91 b83d 3fe5 25be
00000110: f49b 0bbe a9cf f93d 3069 d13d c827 2c3e
00000120: 516b f83d 53a1 afbd 20e8 cdbd 1737 c93d
00000130: 1479 413d e6e1 15bd b232 7ebd 94a3 1cbd
00000140: 332e 253e 0bdf 853d 4b53 ae3c 7e79 3c3e
00000150: d662 893d 4413 ea3d 3a7d 493e f306 33bd
00000160: fb99 123e ba47 603d 8f2c 813d e4cd 7e3d
00000170: df1c 8c3d ab70 1b3e 311a 0d3e a43e a0bd
00000180: 78ea 0a3d deca 933c cd7b 4d3c a8e0 e0bd
00000190: a490 b6bd 9778 debd 0c2b 8c3c 7c91 0f3e
000001a0: 770f 0fbd 8a61 813b ef8e a9bd 1ace dabd
000001b0: 1a86 e6bd 758a 6a3d a92d 44bd ee8b 073e
000001c0: ecb1 743e 27b4 87bd 533f 343e 0a42 363e
000001d0: 63f3 103e 07d2 863c b6b3 693e b141 a93d
000001e0: f073 443e 22b8 8e3d 7c51 8dbc 2bc1 0bbe
000001f0: c7ca 1bbd 71b4 bbbd 3408 71bc 2692 92bd
00000200: 4e12 2e3e b546 94bd 2d2d 91bd d992 193e
00000210: 762e ffbd 3afd af3d 227c d63d b3c1 cebc
00000220: b2d4 233d a5ad e8bc 29fc 523d 35be 1e3d
00000230: 90d9 293d b265 cb3d 596d 1cbc 8cb9 8ebd
00000240: df84 3b3e 8212 0b3d 2974 f2bd 0f3d fe3d
00000250: 7e0d b13d 8731 e73d bc1c 293e 64e2 dbbd
00000260: 357e 27bc 9020 89bc d0ea 44bd 30d2 9ebd
00000270: ee2f 4fbd c0af f43d 5db6 48bd d864 823c
00000280: 0468 bd3d 6761 303e e048 ac3d ff28 8fbc
00000290: 8191 c5bd c10d f93d 7ab4 2b3e b812 4fbd
000002a0: 5836 613d 7c21 173d 572f 84bd 1bb1 2a3d
000002b0: 93b9 de3d eeb0 683d 0c7b cc3d e615 3abd
000002c0: 02a0 fabd 4969 7bbc 0fee e43c c408 453d
000002d0: b112 e4bd 298f 8e3e cf44 b43d d1aa 5d3e
000002e0: 3050 de3d 2eb4 7bbc 2581 3ebc 1d66 7dbd
000002f0: 6e43 b4bd dad6 bd3c b061 233e 2add 333e
00000300: 11db ff3d fd63 1f3e 076f 66bd a327 c03d
00000310: 5555 9fbc c460 3bbd bd1d a13b e785 1d3d
00000320: 49e0 d4bc 5746 2c3c af0d dc3d 833b de3d
00000330: a764 163d 17ba 5fbd 6853 5ebd 27f9 c73d
00000340: ed17 463d 250a adbd e125 9c3d a23a 163e
00000350: 8a59 193e 1f43 3c3e 143d 02bd 0601 01be
00000360: 4dd7 10bd ada1 b4bd aca1 4a3c 3e4b ffbd
00000370: 1ce0 9d3d 5659 ae3c 61f8 2ebd 0151 7bbd
00000380: d614 02be b3af a23d 8e23 06be 7c64 423e
00000390: 293e 863c b58f dfbd 0114 f2bd 133c 633e
000003a0: 9bce 503c 13e6 e43d 023a 90bd 2982 e23b
000003b0: 35f6 453c 1bd1 853d a09b f93d 09c6 fdbc
000003c0: 73ca ed3b 53e9 243d 0c85 3e3e cac9 943d
000003d0: fb50 bb3c 2932 fb3c bb3b f93d 0eff 29bd
000003e0: dacd 723c 9a5a 103c 11f1 163e 7e12 d2bd
000003f0: 5aa7 acbc feea f23d 34ee 843d 4692 79bd
0.036656145 0.032591723 0.04424733 -0.004213921 0.16577907 0.086593494 0.041222762 0.013078418
-0.09997758 -0.03862556 0.011371626 0.041703958 0.18048167 -0.11486207 -0.09419679 0.115085654
-0.00085922197 -0.0258075 -0.15138024 -0.062494874 -0.11207837 0.09135712 -0.017546501 0.2001848
0.150382 -0.040108733 0.078975834 0.12594806 -0.063354105 0.11117752 -0.07998577 0.1157518
0.0037717992 -0.14345776 0.019528218 0.007625399 -0.08349848 -0.09851096 -0.043990716 -0.074647695
-0.18254672 -0.11874608 0.18797444 0.18291591 -0.04633302 -0.03163013 0.014382827 0.09946869
0.04787697 -0.13337609 0.12705812 0.042892992 -0.086480476 0.047344256 -0.122878954 0.013850378
0.07645217 0.045375533 0.054306034 0.05467735 0.019880747 0.13592759 0.060286276 0.031628538
-0.088771224 -0.02334156 0.09012135 -0.16200732 -0.1363371 0.12197811 0.10225141 0.1681205
0.12129844 -0.08575692 -0.1005404 0.09824961 0.04723461 -0.036592387 -0.062060066 -0.038241938
0.16130905 0.06536683 0.021279952 0.1840572 0.067083046 0.11429456 0.19676676 -0.0437078
0.14316551 0.054755904 0.06307327 0.06220807 0.06841444 0.15179698 0.13779522 -0.07824448
0.033915013 0.01804107 0.012541723 -0.1098035 -0.08914307 -0.108628444 0.01711037 0.14020342
-0.034926858 0.003948395 -0.082792155 -0.10683842 -0.112560466 0.05726095 -0.047895107 0.13236973
0.23895997 -0.06626158 0.17602281 0.1779863 0.14155345 0.01645757 0.2282246 0.08264483
0.19184852 0.06968714 -0.017250769 -0.13647906 -0.03803518 -0.09165276 -0.014711428 -0.07156782
0.1699917 -0.07240049 -0.07088695 0.14997424 -0.124600336 0.08593221 0.10472895 -0.025238847
0.039997764 -0.028403113 0.05151001 0.038755614 0.04146725 0.09931506 -0.009547555 -0.06968984
0.18312405 0.033953197 -0.11838562 0.1241399 0.086451516 0.112887435 0.16514868 -0.1073654
-0.010222961 -0.01673916 -0.048075497 -0.07754934 -0.05058282 0.11947584 -0.04900204 0.015917227
0.09248355 0.17224656 0.08412337 -0.017475603 -0.09646893 0.121608265 0.16768065 -0.05055496
0.054983467 0.036897168 -0.06454342 0.041672807 0.10875239 0.05680936 0.09984407 -0.04543104
-0.1223755 -0.015344926 0.027945546 0.048104063 -0.111363776 0.27843598 0.08802187 0.21647193
0.10855138 -0.015362782 -0.01162747 -0.06186496 -0.08801924 0.023173738 0.15955234 0.17564836
0.124929555 0.15565486 -0.056258228 0.0938256 -0.01944987 -0.04574658 0.004916875 0.038457777
-0.025985854 0.010514817 0.107447974 0.10851195 0.036717083 -0.05462083 -0.05427876 0.09764319
0.04836266 -0.084492005 0.07624412 0.14670804 0.14975563 0.1838498 -0.03179653 -0.12598047
-0.035361577 -0.088199 0.012367647 -0.12465523 0.07708761 0.021282833 -0.04271734 -0.06135655
-0.12703261 0.07943668 -0.130995 0.18983644 0.016387062 -0.10916082 -0.11820222 0.22190885
0.012744571 0.11176696 -0.07042314 0.006912489 0.012082626 0.06534024 0.12187886 -0.03097822
0.0072568 0.040261578 0.18605441 0.07265051 0.022865763 0.030663567 0.12169596 -0.041503005
0.014819587 0.008810664 0.14740397 -0.10257433 -0.021075893 0.118612275 0.06490746 -0.060930513

out/MatMul_bias f4 [14]
00000000: 2725 a23d 6419 c23d ac40 abbd ca37 f7bc
00000010: 5367 2abc c0b1 a33c 0406 2c3b 5e72 e8bd
00000020: c4fd a9bd 9ea1 8fbd 0023 ebbc 6e32 3ebd
00000030: 1a51 cabb 61cf fbbd
0.079172425 0.09477499 -0.083619446 -0.03017797 -0.010400611 0.019982219 0.0026248703 -0.11349939
-0.08300355 -0.07013248 -0.028703213 -0.046434812 -0.006174219 -0.12295414

out/kernel/transpose f4 [14, 120]
00000000: 41d5 033e 6f78 01bf e159 fb3c 64f5 283e
00000010: 64c5 5c3e bd17 203e 1e2a c73e b81e 803e
00000020: bbe2 20bf f7cd 11bf 34f3 8a3e e2a6 babe
00000030: a7ab 06bf c13f a53e 0bd4 113e f179 0e3e
00000040: 9a98 f6be 05bb 4f3e 6173 39bf 055b 9ebe
00000050: 1fb3 c93e 6d26 6a3e 31f9 a53e 9022 d43e
00000060: 9003 653e 82cf a83e bd7c b73e 93bb 3ebf
00000070: 6836 aa3e 63b5 413e 8c97 cc3e 7927 993e
00000080: 0826 2ebf 08fc 29bf db64 13bf 7a84 44bf
00000090: e0a4 763e bd13 16bf a415 dfbe 1e2e b93e
000000a0: 5c75 eb3e e306 be3e 61b1 d03e 36f1 0abf
000000b0: 9b93 a73e 06a2 ae3e b620 b83e ede5 f1be
000000c0: 97b1 06bf 453a 0fbf f84c 973e 6556 833e
000000d0: 4558 97be 7eda 0bbf 4eb6 2cbf d4d0 9e3e
000000e0: bfe3 1fbf 72f0 bc3e 21f5 5c3e 265b d33e
000000f0: b4f5 1abf a935 27bf 7107 09bf 3695 a33e
00000100: f7f3 f43e d027 12bf 1b9f edbe ff50 4f3e
00000110: bf80 25bf d977 443e ee36 09bf 3c81 0ebf
00000120: 9d97 c53c 7dd2 9c3e 0fe2 1fbf cf46 db3e
00000130: c046 f0be 86f7 9b3e 90fd a53e 265e 11bf
00000140: 6e4f 2c3e 510b ee3e 9e99 ad3e 12a3 a73d
00000150: 0496 1f3e 8a25 683e 3196 ac3d 6ea6 30bf
00000160: 9a8b 2d3e 35c8 883e efd9 83be cb71 00bf
00000170: a0d9 02bf 395d b23e ea26 16bf 7024 d4be
00000180: 7847 9e3e f885 a13e 76e6 d03e bf4d 27bf
00000190: 87f3 4e3e 23bf c0be 2b84 01be 41d4 a2be
000001a0: acc2 a93e 19cd 893e 4d47 d6be 6bdb 0b3e
000001b0: d5c5 13bd b027 0abf 6b15 103c b77f b93e
000001c0: da99 6a3e 35d6 f03d 491b c83e 4591 cbbe
000001d0: 2b10 0d3e 4afa 8cbe 5922 07bf 9c06 e73e
000001e0: 5482 d83e 112b 1ebf f70e 9d3e c0eb c43e
000001f0: 6540 f5be dbcb ad3e 5c54 d9be 6c7f 3dbf
00000200: 5f39 b4be bc11 8c3e 9bf6 923e ff75 0fbf
00000210: 0502 993e 9106 c3be 15d4 2bbf 2af7 c33e
00000220: 5086 6e3e 5789 bc3e 3bb5 09bd 7526 36bf
00000230: a66f 1dbf 8466 9c3e 5bc0 fdbe 97eb 4fbe
00000240: 7baf d2be 9596 aebe 89b6 b03e fbd2 30bf
00000250: de58 71be 4cae 7c3e b010 ffbe 01c3 be3e
00000260: b6b5 b23e fa96 35bf 8743 e5be 7eb7 fdbe
00000270: 192b eabe 33df 813e 5a73 fcbe 99b7 a8be
00000280: 375d d9be fb41 e2be 2305 983e 155f 04bf
00000290: 1894 893e 285a b63e 1a51 90be f56f b43e
000002a0: f5e2 10bf 592f be3e f4dd a4be ee73 d9be
000002b0: 452d d23e 88cc fb3e 5e12 3d3e e24f da3e
000002c0: eda1 a93e 1fa4 2abf e383 103e 72d0 b83e
000002d0: d143 2abf 7807 453e 4283 e33e 3e54 b6be
000002e0: e672 89be cc09 333e ee5a c83e acc7 90be
000002f0: db49 b23d e8df 2b3e 2302 a53e ae5d 26bf
00000300: 5c33 19bf d09c c43e 19ac 2fbf 9613 a63e
00000310: 9b0c f53e ef01 933e 9730 0cbf 8254 713e
00000320: 99e1 17bf 038a 00bf e299 b73e bba7 623e
00000330: 1bad 723e b2ab a73e e2b8 13bf 598b 36bf
00000340: 5079 33bf 8df6 e1be 37b7 173e c712 e8be
00000350: 551c eebe 1829 06bf 8cb8 28bf beee cb3e
00000360: c20f ce3e 6bdf c9be c27b 9bbe cd93 3c3e
00000370: 510e 883e e36b ec3e a7db 00bf d926 c33e
00000380: 8dff b7be e111 5c3e 0274 d4be 31c8 21bf
00000390: 04fa 33be 3dc8 b7be 2ce1 d13e 2d6b 02bf
000003a0: e893 9a3d 31aa d2be b6d6 11bf 8555 05bf
000003b0: fae6 593e 102a bc3e 4209 ecbe 3e02 ecbe
000003c0: eb46 fa3d f1af 13be 3f49 02be e6af 15bf
000003d0: e948 9fbe 19b0 77be 19c3 2abf ad1e edbe
000003e0: 9cfc c93e afc3 733e 1704 5e3e edae febe
000003f0: 7ec2 f7be b3b4 06bf bb84 01bf b4a6 27bf
0.12874319 -0.5057439 0.030682506 0.16499859 0.21559674 0.15634055 0.3889932 0.25023437
-0.62845963 -0.569549 0.27138674 -0.36455446 -0.5260567 0.32275203 0.14241044 0.13913704
-0.481633 0.20286186 -0.7244168 -0.30928817 0.3939447 0.22866221 0.3241668 0.4143262
0.2236464 0.32970816 0.35837355 -0.74504966 0.33244634 0.1891685 0.3995937 0.29912928
-0.6802678 -0.66400194 -0.5757577 -0.76764643 0.24086332 -0.5862387 -0.43571198 0.36167997
0.45987976 0.3711463 0.4076033 -0.5427431 0.32729802 0.3410799 0.35962456 -0.47245732
-0.5261473 -0.5594829 0.2955091 0.2565185 -0.29559532 -0.5463027 -0.67465675 0.31018698
-0.6245689 0.36902195 0.21577884 0.41280478 -0.60531163 -0.65316254 -0.5352698 0.31949776
0.4784238 -0.57092 -0.4641045 0.20245741 -0.64649576 0.19186343 -0.5359944 -0.55665946
0.024120146 0.3062934 -0.62454313 0.4282746 -0.46928978 0.30462283 0.32420015 -0.56784284
0.16827175 0.4649301 0.33906263 0.081854 0.1558457 0.2267057 0.08427084 -0.6900395
0.16947785 0.26715246 -0.25752208 -0.50173634 -0.5111332 0.34836748 -0.5865313 -0.4143405
0.309139 0.31547523 0.40800828 -0.65353006 0.20210086 -0.37645826 -0.12648074 -0.31802562
0.33156335 0.2691429 -0.41851273 0.1365792 -0.03607734 -0.5396681 0.008794169 0.3623025
0.22910252 0.11759607 0.39083317 -0.3975927 0.13775699 -0.27534705 -0.52786785 0.4512223
0.42286932 -0.61784464 0.3067548 0.38461113 -0.47900692 0.33944592 -0.42447174 -0.74022555
-0.3520002 0.2735728 0.2870377 -0.5603942 0.29884353 -0.38090947 -0.67120486 0.3827451
0.23293424 0.36823532 -0.0336201 -0.7115243 -0.61498487 0.30546963 -0.49560818 -0.20304714
-0.41149506 -0.3409926 0.34514263 -0.6907193 -0.23569056 0.24675864 -0.4981742 0.3725815
0.3490426 -0.70933497 -0.44778082 -0.49554056 -0.45736006 0.253656 -0.49306756 -0.32952574
-0.4245393 -0.44190964 0.2969142 -0.51707584 0.268708 0.3561566 -0.28186876 0.35241666
-0.5659631 0.37145498 -0.32200587 -0.4247126 0.41050163 0.49179482 0.18464038 0.4263907
0.33131352 -0.6665668 0.14112811 0.3609653 -0.6650973 0.1924113 0.4443608 -0.35611147
-0.26845473 0.17484206 0.39131874 -0.28277338 0.08705493 0.16784632 0.32228193 -0.64986694
-0.59843993 0.38400888 -0.68621975 0.32436818 0.4786118 0.28712413 -0.5476164 0.23567393
-0.5932861 -0.5021059 0.3585959 0.22134297 0.23698847 0.3274818 -0.57703984 -0.7130638
-0.70106983 -0.44133416 0.14815985 -0.45326826 -0.4650599 -0.52406454 -0.65906596 0.39830583
0.40246397 -0.39428267 -0.30367857 0.18415757 0.26573423 0.4617606 -0.5033516 0.38115576
-0.35937157 0.21491195 -0.41494757 -0.6319609 -0.17575842 -0.35894957 0.40992105 -0.5094479
0.07547742 -0.4114547 -0.5696825 -0.5208362 0.21279517 0.3675084 -0.46100813 -0.4609546
0.12220558 -0.14422585 -0.12723254 -0.58471525 -0.31110314 -0.2418827 -0.66703945 -0.46312466
0.39450538 0.23805116 0.21681248 -0.49742833 -0.48390573 -0.52619475 -0.50593156 -0.65488744
