bots/ru/Lenin.chatbot/converted_model.tflite (tflite, 504284 bytes, 4 tensors)

in/MatMul_bias f4 [120]
000000 7e f3 74 3e 62 47 51 3e cf e6 34 3e b0 5c 36 3e
       0.2392101 0.20437387 0.17666171 0.17808795
000010 8f ef 3b 3e 61 32 57 3e 56 60 0a 3e b9 e2 23 3e
       0.18353103 0.21015312 0.13513312 0.16004457
000020 27 1d 7b 3e 65 fa c8 3d c1 bd 65 3e d7 45 97 3e
       0.2452284 0.09813384 0.22435667 0.2954547
000030 7e 3d 91 3e 30 5d 7a 3e ef 85 4e 3e 95 a8 4c 3e
       0.28367227 0.2444961 0.20168279 0.19986184
000040 e7 4f 39 3e 61 00 52 3e 07 21 38 3e 7e fd 66 3e
       0.18096887 0.20507957 0.17981349 0.22557637
000050 42 24 27 3e 88 9b 48 3e aa 7c 0e 3e 0f eb 88 3e
       0.16322425 0.1959058 0.13914743 0.26741835
000060 3d 5f 8d 3e 9b ff 3a 3e 56 e4 5e 3e 66 75 85 3e
       0.27611724 0.18261568 0.21766791 0.2606613
000070 fe af 3c 3e 2a b4 45 3e 4c 13 64 3e fb 35 1d 3e
       0.1842651 0.19307008 0.22272986 0.15352623
000080 f6 ec 59 3e e1 cf 54 3e 4e d1 55 3e ba 01 27 3e
       0.212818 0.20782425 0.20880625 0.16309252
000090 7c 52 5a 3e 31 93 69 3e c4 20 2a 3e bb c7 7c 3e
       0.21320528 0.22810055 0.16614062 0.24685566
0000a0 3a 8a 70 3e 60 08 41 3e 01 f9 34 3e fa f5 20 3e
       0.23490229 0.18850851 0.17673112 0.15718833
0000b0 40 ae 43 3e 86 c8 88 3e 35 c8 54 3e 3a 7d 84 3e
       0.1910944 0.26715487 0.20779498 0.2587679
0000c0 b4 15 48 3e 44 26 4f 3e dd af 46 3e 2f 6d 7c 3e
       0.19539529 0.20229441 0.19403024 0.24651025
0000d0 12 5b 50 3e 60 c0 70 3e 0c 7c 72 3e 5b 28 73 3e
       0.2034724 0.23510885 0.23680133 0.23745863
0000e0 23 6b 2f 3e be c7 83 3e d3 ec 89 3e 77 91 56 3e
       0.17130713 0.2573833 0.26938495 0.20953928
0000f0 f4 a4 42 3e ad 6d 64 3e 60 d4 80 3e d1 16 80 3e
       0.19008237 0.22307463 0.2516203 0.25017408
000100 1a 91 5e 3e 5b be 2d 3e a8 a8 81 3e bd e6 44 3e
       0.2173504 0.16967146 0.25323987 0.19228645
000110 18 d1 45 3e e0 9d 85 3e 6a d4 e0 3d a0 dd 85 3e
       0.19318044 0.26097012 0.10978015 0.2614565
000120 c3 c9 6b 3e 2a 86 4c 3e b1 5f 5f 3e 78 6d 4c 3e
       0.23026185 0.19973055 0.21813847 0.19963634
000130 76 be 4e 3e d2 d1 48 3e 5a 16 8a 3e 0f bc 3a 3e
       0.20189843 0.1961129 0.26970178 0.18235801
000140 85 45 7e 3e 67 d8 60 3e 70 71 83 3e e7 cd 58 3e
       0.24831207 0.21957551 0.25672483 0.21172296
000150 26 76 61 3e 3e 49 72 3e 31 2d 6c 3e 87 e0 46 3e
       0.22017726 0.23660752 0.23064114 0.19421588
000160 07 c8 8f 3e 1a b8 67 3e 67 cb 8b 3e 3e 1f 46 3e
       0.28082296 0.22628823 0.2730362 0.19347855
000170 5b 9e 4e 3e b6 f9 50 3e cb 0a 65 3e 40 2d 57 3e
       0.20177595 0.20407757 0.22367398 0.21013355
000180 5b 2f 5c 3e 6a c6 8f 3e c2 21 5b 3e 5d c3 34 3e
       0.2150244 0.28081065 0.21399596 0.1765265
000190 5c 5c 0a 3e 62 2d 89 3e 87 c3 59 3e dc 00 5f 3e
       0.13511795 0.26792437 0.21265994 0.21777672
0001a0 08 0c 3c 3e ab d6 46 3e 9f 0e 84 3e 0f 92 6b 3e
       0.18363965 0.19417827 0.25792405 0.23004936
0001b0 f0 d9 1f 3e 93 3a 83 3e e0 bc 21 3e 67 fc 50 3e
       0.1561048 0.25630626 0.15794706 0.20408784
0001c0 41 f6 78 3e 10 ee 6d 3e ed 41 89 3e da 28 65 3e
       0.24312688 0.23235345 0.2680811 0.22378865
0001d0 19 3b 83 3e 0f ee 55 3e 7d d3 4b 3e 04 6a 7b 3e
       0.25631025 0.20891593 0.19904895 0.2455216

in/kernel/transpose f4 [120, 998]
000000 09 1f bd 3d d2 38 93 3d bc 23 03 3d 34 41 fa 3c
       0.09234435 0.07188572 0.0320165 0.03054867
000010 3a 60 3d 3c 84 5b e0 bc ac 96 d5 bc e0 5b 88 bd
       0.011558587 -0.027387388 -0.026072823 -0.06658149
000020 20 af e0 bd 50 42 03 bd f0 6d 1c be cc 7c 92 bd
       -0.109709024 -0.032045662 -0.15276313 -0.07152709
000030 8d 28 c9 bc 80 7b 33 3d e8 a3 43 3e 94 24 8a 3c
       -0.024555469 0.04381895 0.19105494 0.016863145
000040 b6 18 a9 bd 85 39 11 3e a3 d0 b0 3d 5a 77 86 bd
       -0.08256666 0.14182098 0.08633544 -0.06565733
000050 b0 fe 16 3e 90 1d c1 3d 27 7b 1f 3d ea 8a 04 3e
       0.14745593 0.09429467 0.038935807 0.12943617
000060 d7 9c ea 3d d3 a3 44 be c6 3c 15 3e fd e9 ec 3d
       0.11455696 -0.19203119 0.14573964 0.11568067
000070 c7 3d 83 3d c3 2f 62 bd 98 36 51 3e 4a c2 08 be
       0.064082675 -0.05522133 0.20430982 -0.13355365
000080 fd 9e 3d 3e df 99 e7 bd 38 69 04 bc 98 9a d0 3d
       0.1851768 -0.113086455 -0.008081727 0.101857364
000090 68 44 ef 3d 94 d6 9d bd 67 57 22 be 2d 82 cb bd
       0.11682969 -0.07706943 -0.15853654 -0.099369384
0000a0 1b b0 47 bb 16 97 24 3e be 9d 2c be 97 34 84 3d
       -0.0030469957 0.1607326 -0.16857049 0.06455343
0000b0 f1 08 87 3d 0a a4 d8 3d 5b ce b6 bb 94 c5 15 3e
       0.06593502 0.10578163 -0.0055787987 0.14626151
0000c0 9e 40 31 3e f7 4f 41 be 14 ee 45 bd 08 59 c3 bd
       0.17309806 -0.1887816 -0.048322752 -0.09538466
0000d0 c8 ed 84 3d 53 0c c1 bd a1 de 40 3e 26 e8 6c be
       0.06490666 -0.09426179 0.18834926 -0.23135433
0000e0 5f 4f 62 bd 0a 84 05 bd 0d e2 be 3d d5 c4 13 bd
       -0.055251475 -0.032596625 0.093204595 -0.036076386
0000f0 ba ec 4a 3e 92 9d e9 bd 8f ae b4 3c c3 f7 07 be
       0.19816867 -0.11407007 0.022055892 -0.13278107
000100 d8 97 b6 bd 94 e5 50 3d 38 d2 db 3d 00 19 91 bd
       -0.08915681 0.051000193 0.107334554 -0.070848465
000110 22 d2 e2 3d 49 6e 02 be d3 65 26 3e f5 f3 a6 bd
       0.11075236 -0.12737383 0.1624978 -0.08152
000120 2e e5 66 bd d4 4e 0f bc 66 78 51 bd 41 44 28 3e
       -0.056370907 -0.008746821 -0.05114021 0.16432287
000130 e0 cb 7e 3e 40 58 d8 bd b6 90 91 be 9c a3 29 3e
       0.2488246 -0.10563707 -0.28430718 0.16566318
000140 b5 e3 34 3e 5d 59 f8 bd 4c 15 ff bd 2c b8 c2 3d
       0.17664988 -0.1212642 -0.12455234 0.09507784
000150 d4 e8 ac bd 09 b2 0a bd 3c 5f a4 3d b5 37 48 bd
       -0.08442846 -0.033861194 0.08025977 -0.04888125
000160 ed 64 d8 bd d2 e5 77 bd 51 cd 20 3e e7 07 85 3c
       -0.10566125 -0.060521908 0.15703322 0.01623912
000170 e9 e3 4e 3d d1 fd 4a 3e 28 ea 38 3e 26 08 01 3e
       0.05051032 0.19823386 0.18058074 0.12600765
000180 e7 29 29 3e 25 1f 45 3e fa 93 2e 3e 78 50 b2 3d
       0.1651989 0.19250162 0.17048636 0.087067544
000190 2e 10 a2 3d b6 0f 1d be 28 a8 cd bd 5c 2c 24 3e
       0.07913242 -0.15338024 -0.10041839 0.16032547
0001a0 e9 57 fb bd 07 54 c0 bd 94 ed 7e bd 3d 6a 8c be
       -0.12272627 -0.09391027 -0.06223829 -0.27424803
0001b0 c3 62 2a 3e e7 c2 e0 3d f6 46 41 3d 65 34 f1 3d
       0.16639237 0.10974675 0.047186814 0.117775716
0001c0 4b 0a 54 3e 3a a3 52 3e 51 b9 42 3e 1f ec 8f bd
       0.20707051 0.20570078 0.19016005 -0.070274584
0001d0 55 8b f9 3d 4b d5 f5 bd 37 96 d0 bd c5 d0 ac bd
       0.121847786 -0.12003573 -0.10184901 -0.08438257
0001e0 57 05 02 bd aa 9b 72 bc 11 25 15 3e 4d 06 00 be
       -0.031743374 -0.014807621 0.14564921 -0.12502404
0001f0 4d bf 25 3d 32 7e 27 3e 76 f7 20 3e 06 e6 ce 3d
       0.04046564 0.16356733 0.15719399 0.10102467
000200 dd 58 96 bd 9c 64 d1 3b 1e 66 01 3e 72 7e 07 be
       -0.07341168 0.0063901674 0.12636611 -0.13231829
000210 58 21 6b bd df f4 4a 3d 6a 4e 60 3d 61 fb 49 3e
       -0.057404846 0.049549934 0.05476228 0.197248
000220 cd 36 6e bd 7d 56 1d 3e 80 4f 16 3d a6 0c 72 3d
       -0.05815773 0.15365024 0.03669691 0.059094094
000230 9c a4 cd bd b9 01 ce 3d fe ac ed 3c 43 de 21 be
       -0.10041162 0.10058922 0.029013153 -0.15807442
000240 27 74 b4 bd 66 11 28 be 80 a7 26 3e a1 57 1b 3d
       -0.08811217 -0.16412887 0.16274834 0.037925366
000250 2d 8b a5 bd d1 7e 04 be 9b bd 62 3d 65 b7 25 3e
       -0.08083186 -0.12939002 0.055356603 0.1618324
000260 0d 7c 4d 3e 42 9f 54 3e cc 92 57 3b d4 a6 c0 bc
       0.20066853 0.20763877 0.0032893894 -0.02351705
000270 38 17 02 3d 05 22 c5 bd e7 83 69 3d b9 a1 9e 3d
       0.031760424 -0.09625629 0.057010558 0.0774569
000280 39 6d 0f bd dd 95 c9 bd 66 ed dd bd 07 13 b1 3c
       -0.035016272 -0.09843037 -0.10836296 0.021615518
000290 4e 8e e0 bd 4e ef f8 3d cd c5 65 bc 19 31 bd bd
       -0.109646425 0.12155019 -0.01402421 -0.0923788
0002a0 6c 0a 13 be 3c 18 27 bd db b3 51 bd 96 28 de bd
       -0.14359444 -0.040794596 -0.051196914 -0.10847585
0002b0 5f 9c 64 bd 50 86 9b bd b1 b9 d7 3d 27 79 8e bd
       -0.05581319 -0.075939775 0.10533465 -0.06956702
0002c0 dc f8 14 3d af bb 3d be 48 a0 2c 3e af 6c dc 3d
       0.036370143 -0.18528627 0.16858017 0.10762917
0002d0 82 7f 9a 3d de 27 a3 bd 4d 5a 38 3e 79 0b 47 3e
       0.075438514 -0.079665884 0.18003197 0.1943797
0002e0 e9 a4 cf 3d 69 e1 6b 3d 4e ee 4a be f3 ed f1 bd
       0.10138876 0.057588015 -0.19817469 -0.11812963
0002f0 78 f5 ef bc 25 c6 f6 3d 61 c2 ed 3d b6 c7 48 3c
       -0.029291853 0.12049512 0.116093405 0.012254646
000300 0e 4d b8 bd b2 fe 83 3d ac 02 0f 3d 76 40 1a 3e
       -0.08999072 0.06445064 0.034914657 0.15063652
000310 39 6d b8 bc ec 32 22 3e 85 4e b0 3d 99 2b 06 be
       -0.022513019 0.15839738 0.086087264 -0.13102569
000320 fe 97 b5 3d cd f4 a1 bd 3c ed 87 be df e7 0c be
       0.08866881 -0.0790802 -0.26548183 -0.13760327
000330 1b 4e 17 be fa ec d9 3d bc b8 2b 3e 13 c2 fd bd
       -0.14775889 0.10640903 0.1676969 -0.12390532
000340 19 0f 2c be c6 cf 19 be 22 ae 9b 3c 97 b0 ed bd
       -0.16802634 -0.15020666 0.019003931 -0.116059475
000350 0d 47 5e 3d 54 44 3a 3d 16 0a 8d bd 2b 1a e6 3d
       0.054266978 0.04547532 -0.06886689 0.1123546
000360 33 dc 18 be 6a 39 32 3e b3 b9 ac 3d 68 fa 15 3e
       -0.1492775 0.17404714 0.08433857 0.14646304
000370 72 45 93 bd 34 b5 89 3e 01 06 89 bd 7f be d0 3c
       -0.0719098 0.2689606 -0.06690598 0.02548146
000380 e1 c8 dc 3d 13 70 8f 3d c3 64 b4 bd 5a 6c 19 3e
       0.10780502 0.07003798 -0.08808281 0.14982739
000390 63 0f 30 3d 36 f0 f5 3d 29 6f 9b bd 6d bf ad bd
       0.042983424 0.12008707 -0.075895615 -0.08483777
0003a0 00 84 6c 3c c8 87 86 3e a2 79 92 3d f5 e4 d9 3d
       0.014435768 0.26275468 0.07152106 0.10639373
0003b0 ee dd 76 3e 98 22 b2 bd b8 8e c1 3c 49 83 4d be
       0.24108097 -0.086980045 0.023627624 -0.20069613
0003c0 df f5 21 3d 85 fd 7c bd ad fc 02 3d 47 7c 6b bd
       0.03954112 -0.061765213 0.03197925 -0.057491567
0003d0 95 34 32 bd e8 9f ff bd 52 be 0d be b5 77 6d be
       -0.043507177 -0.124816716 -0.13842133 -0.23190196
0003e0 c5 41 0e bd c9 30 ad bd 76 35 24 be 02 63 53 bd
       -0.03473069 -0.08456571 -0.16036019 -0.051608093
0003f0 bd 26 ff bd 36 b7 31 bc 9c 59 0a 3e c7 5c de 3d
       -0.124585606 -0.010846904 0.13510746 0.108575396

out/MatMul_bias f4 [49]
000000 71 b0 4e bd d4 87 0c be 6a f0 2d bd 51 46 09 3d
       -0.050461236 -0.1372369 -0.042465605 0.033514325
000010 42 e3 d5 3c cf 31 f0 3c 89 11 33 3d 13 60 57 bd
       0.026109342 0.029320626 0.043717895 -0.052581858
000020 0f 4f f2 3d 49 9f 76 3b 5d de 9a bc e9 1a 0a 3d
       0.118314855 0.0037631562 -0.01890486 0.03371707
000030 f6 b1 a6 3c 96 96 19 3d 0c ec 44 bd e3 eb 19 3d
       0.02034853 0.037497126 -0.048076674 0.037578475
000040 d8 ca 24 be 87 74 7c bd 3e 71 3e bd 79 54 e8 3c
       -0.16093004 -0.061634567 -0.046494715 0.028360592
000050 f6 14 cd 3d 29 f9 84 3d 11 ca d0 3c 47 59 29 3c
       0.100137636 0.06492836 0.025486978 0.010336227
000060 89 89 26 bc 17 de 1c bd 25 99 5b bb 20 73 ec 3c
       -0.010164627 -0.03829774 -0.003350803 0.02886349
000070 4d 43 30 3b 11 c6 ad 3c 9d f3 79 bd 47 66 0a 3d
       0.0026895583 0.02121261 -0.061023343 0.033788946
000080 cb 62 24 3c 80 71 b6 bd 86 3a bf bc df 8c bf 3c
       0.01003332 -0.08908367 -0.023343336 0.023382602
000090 19 9a 77 bd ee 65 72 bd a1 ac 3b 3c 66 82 2c b9
       -0.060449693 -0.05917924 0.011454732 -0.00016451775
0000a0 bf ae c0 3c 7b 7f 18 bd 75 0e 2c bd cd e9 04 bc
       0.023520825 -0.03723095 -0.042005975 -0.008112383
0000b0 e6 9f 0e bd 4d 29 a8 bc 85 6b 97 3a 0c da 64 bc
       -0.03482046 -0.020527506 0.0011552429 -0.013968002
0000c0 8c d5 2d bd
       -0.042439982

out/kernel/transpose f4 [49, 120]
000000 7c 4e 39 3e 79 47 33 bf e7 f0 97 be 14 79 5d 3e
       0.18096346 -0.70030934 -0.2967598 0.21628219
000010 44 79 17 3d db c8 8b 3e 54 f5 06 bf 10 ae 1c 3e
       0.036980882 0.27301678 -0.5271809 0.15300775
000020 38 1b 7e 3e 34 86 a8 3d ee 02 b0 be e6 c7 b5 3d
       0.2481507 0.08228722 -0.34377235 0.08876018
000030 f7 33 78 be 1e f8 2c be 77 f4 29 bc 4c bc e1 be
       -0.24238573 -0.16891524 -0.010373226 -0.44088972
000040 84 3f bc be f3 87 ab be 60 67 e7 be 17 db 84 3e
       -0.3676721 -0.3350216 -0.45196056 0.25948402
000050 b6 e9 97 3e 32 c4 dc be cb 6c 3c bf 60 28 86 3e
       0.29670495 -0.43118435 -0.73603505 0.2620268
000060 97 16 cd be e8 b2 6a 3e a9 24 86 3e b2 c8 8a bf
       -0.40056297 0.2291981 0.26199844 -1.0842497
000070 0f 03 17 3e 06 79 23 bf e0 9a 7c be 18 d6 9a 3e
       0.1474726 -0.6385654 -0.24668455 0.30241466
000080 3c 9f e2 3d ba 2c 63 3e 5e d8 f5 bc 20 ae 25 bf
       0.11065528 0.2218503 -0.030010398 -0.6471882
000090 12 1e 73 3e d3 08 07 bf eb d2 9f 3e 68 cc 8c 3e
       0.2374194 -0.5274784 0.31215605 0.274997
0000a0 35 9f 92 3e c1 14 52 3e 86 08 9b 3e 98 06 05 3e
       0.2863709 0.2051573 0.3027994 0.12990797
0000b0 97 89 1a bf 28 99 ff be cd 8b a7 3e b9 53 6f 3e
       -0.60366195 -0.49921536 0.32723847 0.23371781
0000c0 c8 c2 56 3e f9 a8 47 bd c9 77 a2 3d 03 6b 23 be
       0.2097274 -0.04874513 0.079330035 -0.1595879
0000d0 40 71 2f bf ca 46 04 bf 13 4e 85 3e 7e 61 22 3e
       -0.6853218 -0.51670516 0.26036128 0.15857503
0000e0 9e 60 41 3e ba fd d3 be 9f 23 07 bf 93 13 45 3e
       0.18884513 -0.41404516 -0.5278873 0.19245748
0000f0 0b d3 9f 3e 25 e4 ad 3e ab 39 bc 3e 09 18 27 bf
       0.312157 0.33963123 0.36762747 -0.6527105
000100 0e 10 5b bf a0 bf be 3d 57 2d 3a 3e e9 f2 1c bf
       -0.8557137 0.09313893 0.18181358 -0.6130815
000110 2d 01 07 3e 65 ae 95 3e 89 5b c8 3e 35 09 d7 be
       0.13184042 0.29234615 0.39132336 -0.41999212
000120 0b 79 f2 be 61 bb a6 3e 78 d8 82 bf 3b 71 31 bf
       -0.47357973 0.32564834 -1.0222311 -0.693134
000130 3d b1 39 bf 45 a4 7a 3e 42 68 05 bf 2d 91 81 3e
       -0.7253607 0.24476726 -0.5211221 0.25306073
000140 c1 16 33 bf 58 ab d5 bc d0 8e 2c bf 28 11 5c bf
       -0.69956595 -0.02608268 -0.67405415 -0.8596368
000150 da b5 6d 3e ea 52 b3 be d3 40 51 bf 03 7e b7 be
       0.23213902 -0.35024196 -0.8173954 -0.35838327
000160 0d db d1 be e1 3c 2f bf fa f1 8b 3b b5 f6 6d bf
       -0.40987435 -0.6845227 0.004270789 -0.9295457
000170 23 06 1e bf a0 4b 28 bf 00 ec 90 3e 9c 66 5d 3e
       -0.61728114 -0.65740395 0.28305054 0.21621174
000180 a3 1a 7d 3e 6c f3 79 3b 60 f8 4c bf 0a 3c b3 be
       0.24717192 0.0038139476 -0.8006649 -0.35006744
000190 24 b5 3f bd 18 7e f1 be d0 6e 26 3e c2 83 75 3e
       -0.04680361 -0.47166514 0.16253209 0.23976043
0001a0 8f e2 a1 be 8c 62 b6 be 9e a4 5f 3e fe 89 16 bf
       -0.31618163 -0.3562206 0.2184014 -0.5880431
0001b0 04 ba 38 3e cc 0b 4b 3d 69 46 8c 3e 2e ba 38 3e
       0.1803971 0.049571797 0.2739747 0.18039772
0001c0 60 80 41 bf 54 01 41 3e 86 34 13 bf 26 cb 07 3d
       -0.7558651 0.18848163 -0.5750202 0.03315272
0001d0 37 61 76 bf 4e aa 00 bf 3a 5c 46 bf e9 06 57 3e
       -0.9624209 -0.50259864 -0.77484477 0.2099873
0001e0 d6 36 65 3e 4c 65 87 bd 50 20 6b 3e 84 3b 1a bf
       0.223842 -0.06611118 0.22961545 -0.60247064
0001f0 ab d9 81 3e 9c 32 e0 be 4f 92 40 3e 2d 92 8f 3d
       0.2536138 -0.43788612 0.18805812 0.07010303
000200 b7 29 89 be 89 92 c4 3d b2 ee 1d 3e b0 e8 42 3e
       -0.26789638 0.09598262 0.15423086 0.19034076
000210 b9 a3 06 bf cf c9 90 3e 50 5e 8c 3e ba 6d 1b 3e
       -0.5259357 0.28278968 0.27415705 0.15178576
000220 05 22 84 be 17 ff 77 bf 6f 17 7e 3e a5 72 8b 3d
       -0.25807205 -0.9687361 0.24813627 0.06808976
000230 42 d9 96 be 1a 44 be be 82 a8 3d 3d 44 cc 7f be
       -0.2946263 -0.37161332 0.04630328 -0.24980265
000240 3f dc 92 be 0c f4 36 bf 0c 41 49 bf c9 10 7b 3e
       -0.2868366 -0.71466136 -0.7861488 0.24518122
000250 f5 1a 56 3e 3d 04 91 3e 5f 7b 2e 3e 32 ef 43 bf
       0.20908721 0.28323546 0.1703925 -0.7653686
000260 86 40 a2 3c 1a 3c da be f6 65 e5 be b8 46 6d 3e
       0.019806158 -0.4262398 -0.44804353 0.23171508
000270 e7 c6 8c 3e c0 00 9c be 77 fe a4 be 22 90 4e 3e
       0.274955 -0.30469322 -0.3222539 0.2017217
000280 bb 1d 5e be ec a8 f3 3d 04 92 35 3e f8 77 e8 be
       -0.21691029 0.11897454 0.17731482 -0.4540403
000290 82 73 96 be a6 8d 50 bf 40 f4 86 bf 77 12 17 3d
       -0.29385 -0.8146614 -1.0543289 0.036882844
0002a0 ac 38 87 3e 1b 24 a6 be fe 9b ee 3d 95 da 01 3e
       0.26410425 -0.3244942 0.11650847 0.12681039
0002b0 41 64 2d bf 56 5e c1 be 0c 5b b8 be f6 2e 45 3e
       -0.677311 -0.37767285 -0.36006963 0.19256195
0002c0 28 39 57 be ee bb e5 be d1 ae 7c 3d f9 bf d3 3d
       -0.21017897 -0.4486994 0.061690155 0.1033935
0002d0 96 d2 2b 3e 0c 6d 87 3e da a0 7a bf cc e0 7d be
       0.16779551 0.26450384 -0.9790169 -0.24792784
0002e0 24 36 f1 3d 80 fc 7f 3e 0e 7f 2f bf d0 51 53 3e
       0.11777905 0.24998665 -0.68553245 0.20636678
0002f0 1b a9 93 be fe 1e 69 3e 5c f8 03 bf bb fc 5a 3e
       -0.28839955 0.22765729 -0.5155084 0.21385472
000300 42 4f e7 3d 48 44 b3 bd 8c 8b 4a bf c8 85 73 3e
       0.11294414 -0.08753258 -0.7911918 0.23781502
000310 f6 de df bc fc a6 b3 3d 9c fa fb be 73 96 17 be
       -0.027327996 0.08772084 -0.49214637 -0.14803486
000320 eb 11 b2 be 7c 6e fe be bb e3 c2 bb 8d ee 75 3e
       -0.34779295 -0.49693668 -0.0059475577 0.24016781
000330 85 aa 3b bf 66 33 85 bf 3e 09 2e bf 48 3f 3f bf
       -0.7330707 -1.040631 -0.6798285 -0.74705935
000340 a6 d0 7e bf 6e 44 19 3e 5a c0 8e bf e9 2e 2e bf
       -0.9953712 0.1496751 -1.1152451 -0.6804033
000350 d5 d4 47 3c 6f 6e b0 3d 1a 6d 16 bf 29 0e 8f 3e
       0.012196739 0.086148135 -0.58760226 0.2794049
000360 ab c2 ea 3d 08 95 0f 3e 20 63 5f 3e d0 77 48 3e
       0.11462911 0.14021695 0.21815157 0.19576955
000370 5f f6 36 be e8 bd 22 bf 98 68 24 bf 10 db 61 bf
       -0.1786742 -0.63571024 -0.642221 -0.8822489
000380 9a 74 52 3e 6c 89 34 3e d7 7c 00 bf 96 89 d1 bc
       0.20552292 0.17630547 -0.5019049 -0.025578301
000390 de a9 26 3e 00 48 44 3e de 0b 06 3e af bb 05 bf
       0.16275737 0.19168091 0.13090464 -0.5223951
0003a0 69 16 98 3e 9a f6 67 3e 51 d9 2f 3e a3 9b 61 bf
       0.29704598 0.22652665 0.17172743 -0.8812811
0003b0 a5 41 12 bf 00 4f 48 3e 55 81 97 be d3 6a d6 be
       -0.57131416 0.19561386 -0.2959086 -0.41878375
0003c0 2a ed 46 bf 4b 23 c9 be a6 a4 36 bf 33 f3 ad 3e
       -0.77705634 -0.3928474 -0.71344984 0.3397461
0003d0 b4 dc 89 3e a1 f5 89 3e d4 02 94 3e d7 92 19 3e
       0.26926196 0.26945212 0.28908408 0.14997421
0003e0 3b 5e 93 3e 61 3e 10 bf b0 82 9b 3e 74 69 73 bf
       0.2878283 -0.5634518 0.30373144 -0.95082784
0003f0 81 7e dc be 42 54 57 be f4 a6 8f 3e 75 d8 b3 be
       -0.43065265 -0.21028236 0.28057063 -0.3512608
