bots/Assistant.chatbot/converted_model.tflite (tflite, 851788 bytes, 4 tensors)

in/MatMul_bias f4 [200]
00000000: 001d 213e 094c 573e 6932 383e c16b 643e
00000010: 1632 683e 9e8c 053e 7e41 823e 2e61 613d
00000020: 3fc3 893e 5689 8f3e 2215 573e f4f0 fb3d
00000030: 3041 233e de2a 383e dab0 563e 4594 533e
00000040: af60 043e 5218 583e 2c74 073e a9a3 703e
00000050: d88c 8f3d 0fcd 5f3e ec91 243e 3134 573e
00000060: ec53 e13d 58fe a53e e7f5 6f3e 8118 4f3e
00000070: 1593 883e 2d59 703e 0e43 553e fef2 753e
00000080: acdf 5d3e 88b4 543e df5a f43d b0fc da3d
00000090: 3316 613e e1c9 453e 11e1 813e db7e 0f3e
000000a0: f7b6 3e3e 1042 a33e bfec 393e aeb3 6d3e
000000b0: e063 923e 1a19 403e 16a8 3c3e 4c77 2c3e
000000c0: 0a72 6d3e 30bc 1a3e 36df 643e 2a21 103e
000000d0: a071 3c3e ca91 3b3e 36d7 523e 7ee1 893e
000000e0: ee7a 243e 4318 813e efaa ab3e 9cae 393e
000000f0: e969 343e b4fe 273e 6fcc 533e a56a 063e
00000100: 623d 723e 84f9 453e 31b3 603e 6c53 173e
00000110: ae36 293e d139 203e d197 843e afdd 303e
00000120: 9013 563e 69e5 683e 4a6d 073e b71a 323e
00000130: b6be 4f3e 8f9b 383e fd7d 1f3e 18c3 ba3d
00000140: a470 663e cf58 093e 273f 8a3e d320 8f3e
00000150: addd 6b3e a5ba 563e 25ba 303e ca2a a33e
00000160: 35f5 693e 9a48 773e 4136 853e 9fd9 823e
00000170: 375f 053e 6905 423e 4d2b 683e be1f 6b3e
00000180: 0779 fe3d 113c 8f3e 5e5b c03e 9bc7 3f3e
00000190: b727 0f3e 9e8f 663e 4b15 6a3e d535 473e
000001a0: 4c24 3e3e 9738 513e de1e 6a3e 816a 903e
000001b0: d2c5 6d3e 864e 833e 0cc6 793e 0c8a 6e3e
000001c0: 18e2 463e fd4c 483e b33d 3e3e ce25 323e
000001d0: 1fda 6f3e 9550 303e d0ad 633e b4f9 133e
000001e0: 140e 4b3e 4d8b 5b3e 7371 883e 8644 713e
000001f0: 27b0 373e fa73 863e ac9b 723e 4ea7 bf3d
00000200: a631 563e ec35 4f3e 15bf 263e 954e 8b3e
00000210: 703e 093e 0e76 f23d dcc2 913e 460d 403e
00000220: e83f 133e e0af 843e 4950 5b3e 7fae 563e
00000230: 266e 813e b469 503e eb2b 1d3e e1be 8a3e
00000240: 933d ae3d a1c6 e03d 2d9d 713e 9266 2e3e
00000250: d429 503e cb4b 363e 876a 163e 54fe 513e
00000260: c178 0c3e 7f86 4e3e 5720 413e 1060 363e
00000270: 17fb 723e 976e 183e 491d 603e 0431 513e
00000280: f6cf 0b3e 50d5 933e 7749 d23d 1cf5 4a3e
00000290: 1d7e 6f3e 27fa 4c3e d704 263e 45c9 903e
000002a0: e5f3 2e3e 426e 453e 85d8 7e3e 955d 773e
000002b0: 4718 103e 01fc 203e b222 873d bbc0 4a3e
000002c0: ba40 263e ea9d 723e 8ccf 343e 4e86 003e
000002d0: d4da 313e 0868 433e d322 5b3e 3e06 453e
000002e0: 1372 983e bd3e 2c3e 326c 1b3e 6c11 3f3e
000002f0: 5ea9 5f3e be60 883e 8877 473e f79b 913e
00000300: 44d6 373e f052 6f3e fdba 643e 1cf6 633e
00000310: 6453 8c3e a1ef a73e 88c5 283e 4dcc fa3d
0.15733719 0.21025099 0.1798798 0.2230673 0.22675356 0.13041922 0.25440592 0.05502432
0.26906773 0.28034467 0.21004155 0.123018175 0.15942836 0.17985103 0.20965901 0.20662029
0.12927507 0.21103027 0.1322791 0.23499931 0.07009286 0.21855567 0.1607129 0.21016003
0.11002335 0.3242061 0.23433648 0.20224191 0.26674715 0.23471518 0.2082636 0.24018475
0.21667355 0.20771992 0.11931395 0.106927276 0.21981125 0.19315292 0.25367025 0.14013235
0.18624483 0.3188634 0.18156718 0.23213074 0.28591824 0.18759575 0.18423495 0.16842383
0.23188034 0.1511085 0.22350773 0.14075151 0.1840272 0.18317333 0.20589909 0.2692985
0.16062519 0.25213823 0.3352885 0.18133014 0.17618527 0.16405755 0.20683454 0.13126619
0.23656228 0.19333464 0.21943356 0.14777917 0.16524765 0.15647055 0.25897077 0.17272066
0.209059 0.22743763 0.13225284 0.17393003 0.20287594 0.18028091 0.15575404 0.091192424
0.22503906 0.13412784 0.27001306 0.2795473 0.23033781 0.20969637 0.17258509 0.31868583
0.22847445 0.24148789 0.26017955 0.25556657 0.13024603 0.18947376 0.22672768 0.22961327
0.12425428 0.27975515 0.37569708 0.18728487 0.13979994 0.22515723 0.22859685 0.19454129
0.18568534 0.20431744 0.22863337 0.28206256 0.23219994 0.25645846 0.24391955 0.23294848
0.19422185 0.19560619 0.18578224 0.17397234 0.2342305 0.1721824 0.22234273 0.14450723
0.19829589 0.21439858 0.26649055 0.23561296 0.1793829 0.26260358 0.23692197 0.09358083
0.20917377 0.20235413 0.1628383 0.2720839 0.13402724 0.118389234 0.28468978 0.18755063
0.14379847 0.25915432 0.21417345 0.20965002 0.2527935 0.20352823 0.15348785 0.27098754
0.08507838 0.109753855 0.23595114 0.17031315 0.20328456 0.1780235 0.14689074 0.20507175
0.13717939 0.20168494 0.18859993 0.17810082 0.23728596 0.14885937 0.21886171 0.20428854
0.1365355 0.28873682 0.102679186 0.19820064 0.23387952 0.200173 0.16212784 0.28278556
0.17085226 0.19280341 0.24887283 0.24156792 0.14071761 0.15721132 0.065984145 0.19800083
0.16235629 0.23693052 0.17657298 0.12551233 0.17368633 0.19082654 0.21400003 0.19240662
0.29774532 0.16820808 0.15177992 0.1865899 0.21841952 0.26636308 0.19479191 0.28439304
0.1795283 0.23371482 0.22336955 0.22261852 0.27407372 0.3280001 0.16481602 0.122459985

in/kernel/transpose f4 [200, 977]
00000000: 27ec 833c 263e 3fbd fc42 f93d de12 e83c
00000010: ca3e 3abe ae05 1cbe 5aa4 183e 149f b7bc
00000020: fa3a e23d 91da 31be 1dde 53bd f91b 703e
00000030: 798a 8c3e 87d0 2d3e 7db8 cc3d abce 60be
00000040: bdb0 6a3e 453c 333e f2dd 31bd 8652 2c3e
00000050: 0ea0 403e e9c1 8bbe ba18 683e 5104 5e3e
00000060: 4509 913d 989a 1b3e da83 d03d 695f 82bd
00000070: ebc9 873d ef41 453e f4b7 f13d 5688 103e
00000080: 6a40 37bd 22a3 7abd 8b0e 22be 78b8 37be
00000090: 4ce1 3a3c 4ae0 b5bd 1af0 123e a713 e73d
000000a0: bfae 263e d661 23be bd85 b5bd f620 673c
000000b0: 0457 9cbd 8324 de3d 5daf 4e3e a98d 39be
000000c0: 81ad 78be 3a65 253e c3e7 4a3e d762 08be
000000d0: 2ac5 babd e84a d2bd 64d2 0b3e f512 703e
000000e0: c963 09be 0c6f f9bb 9b2a 37be 779a 23be
000000f0: 30c5 e63d 70e9 0d3e b09b 0f3e 1ce0 65be
00000100: 107e 6f3e 9011 343e fdcd 893e 142a 1b3e
00000110: cd8a 5b3e 3a37 a63e b4c1 863e fb85 7e3c
00000120: 89e8 643e 868f 313e 929c 883e c521 753e
00000130: 96ea 4a3e 958a 103e 9093 3cbe 3455 463c
00000140: c96f 963b f4a8 00be 4fd9 c4bc 9de8 60be
00000150: 3e99 e3bd 7574 933c a866 a8bd 6c59 83bc
00000160: ab5b 9bbd 042a 373e bf48 19be 4475 053e
00000170: acc1 e73d 92f6 40be dddd 793d f72e 703d
00000180: 96f3 2c3e b086 403e 8d23 d93b e97b 7bbe
00000190: fce3 323e cc7a 123e 588c 523e b9db 6bbe
000001a0: d027 6bbd 96a5 2d3e 9d71 a43c 790d 0d3e
000001b0: b48c 913d 4bda 92be 252c a03e e0f1 8a3d
000001c0: 9686 f73d ca22 113e 1db8 163e 18da 9e3d
000001d0: dcdd 7bbe b14a 78be b202 4fbd 9efe 09be
000001e0: ff4a 80bd d093 4e3d 6eb5 093e 40d5 3dbe
000001f0: 9141 34be 6694 af3d db4e 5dbe 34fc 1cbe
00000200: 4202 40be c12e 06be e3a4 39be 0e95 8dbe
00000210: 60e1 5abd b819 c3bd 22c8 6d3e ed1e a73e
00000220: 46d8 843e 0f1d 053e 5810 71be 7789 393e
00000230: 1480 d93d 6bb7 6ebe f559 03be 4fee 63be
00000240: a5d1 19be 14da 33be 40b0 78be 2455 fcbd
00000250: 9638 753e 73be 663e fc62 10be 48b6 353e
00000260: 68bc 32be 6a0f 1e3c a059 a43c 7e9b b13d
00000270: 0515 283d ecaa 283e bd1d 1a3e 3e25 65bd
00000280: 5732 ba3d c38e e63d 3f16 92bd 1524 53be
00000290: f369 a1bc 7403 95bd 29f1 203d df98 12be
000002a0: 5a0a d63d 03c4 ac3c 2e79 c8bd 0c71 243e
000002b0: c6a8 323e 029c bb3c 4b71 a53e df37 663e
000002c0: bfbb 083e e8f8 013d 94b2 373d 7afc 0e3e
000002d0: 29cf 403d f678 6b3e 613c 22be f81c 63bd
000002e0: e475 383e acf2 1fbe bd41 84be 16b3 83be
000002f0: d9fa 1cbe 9253 56bd cb07 d2bd 4bde f7bd
00000300: ca5d 02bc 62bf 08bc d46c d13b 3c77 54bc
00000310: e913 273e 7c53 a33e 84e0 693e 793c 53be
00000320: 5d9c 723e 54a4 aa3e 5db0 22bd 0002 093e
00000330: e4c0 833e 7047 b73d 7413 43be 3f81 3d3e
00000340: b0a4 8abe e479 1e3e b54e 323e 4018 95bc
00000350: 4a8b 1b3d 472a be3d 422b fc3d 0245 473e
00000360: 59fb 103e 49d3 213e 2d25 8a3e a1eb a03e
00000370: 6fe6 1f3e 4235 2cbd f827 8f3c c4ca a93d
00000380: 90fd ef3d 3544 c9bd fd8e 333d d04c cfbd
00000390: 5eae 2b3e e443 313e daa3 24bd bafd 9e3d
000003a0: ca83 22be 5cef 533d faad 05be a0f3 33be
000003b0: b555 3abe bdfa 923e 039b 6e3e a0c1 283e
000003c0: 5954 1bbe b5fb 6cbe 3439 3abe d298 72bc
000003d0: 526e 24bd fbdf 6f3e 7b8d 3ebe 62e7 6a3e
000003e0: b3ec 30be a7c2 68bd b743 1ebe d2f0 d1bd
000003f0: 1f48 be3d ac57 2d3e 6621 373d 86ae 21be
0.016103817 -0.04669013 0.121709794 0.02832931 -0.18188015 -0.15236542 0.14906445 -0.022414722
0.11046405 -0.17368533 -0.051725496 0.2344817 0.27449396 0.16974078 0.09996126 -0.21953838
0.22918983 0.1750346 -0.043424554 0.16828355 0.18811056 -0.2729638 0.22665682 0.21681334
0.07081846 0.15195692 0.10181399 -0.06365854 0.0663031 0.19263433 0.118026644 0.14114508
-0.044739164 -0.06119073 -0.1582586 -0.17941463 0.011406254 -0.0888067 0.14349404 0.11283045
0.16277598 -0.1595529 -0.08863399 0.01410698 -0.076337844 0.10846808 0.20184083 -0.18120445
-0.24284936 0.16151896 0.19814973 -0.13318954 -0.09119637 -0.102681935 0.13654476 0.23444732
-0.13416971 -0.007612115 -0.17887346 -0.15976892 0.11268079 0.1385858 0.14024234 -0.22448772
0.23387933 0.17584825 0.2691497 0.1515277 0.21439667 0.3246401 0.2631966 0.015534873
0.2235433 0.17339906 0.26681954 0.23938663 0.1981605 0.14115365 -0.18415666 0.012105275
0.0045909625 -0.1256445 -0.024029402 -0.21963735 -0.11113213 0.017999867 -0.08222705 -0.01603385
-0.07585844 0.17887121 -0.14969157 0.13033015 0.11316237 -0.18844059 0.0610026 0.05863854
0.16889796 0.18801379 0.0066265524 -0.24558987 0.17469782 0.14304656 0.2056135 -0.23033036
-0.057411015 0.16957697 0.020073706 0.1377467 0.07106915 -0.2868217 0.3128368 0.06784415
0.12086217 0.14173427 0.14718671 0.07756442 -0.24596351 -0.24247243 -0.05053968 -0.13476035
-0.06264304 0.050433934 0.13448116 -0.1853838 -0.17603137 0.08573227 -0.21612112 -0.15330583
-0.18750861 -0.13103773 -0.18129306 -0.27652782 -0.05343759 -0.0952639 0.23220876 0.32640782
0.25946254 0.12999366 -0.23541391 0.18118845 0.10620132 -0.23312156 -0.12827285 -0.22258876
-0.1502138 -0.17563659 -0.24285984 -0.12320927 0.23947367 0.22533588 -0.1410026 0.17745316
-0.17454684 0.00964723 0.020062268 0.08672236 0.04103567 0.16471452 0.15050407 -0.05594372
0.09091633 0.112576984 -0.07133149 -0.20619233 -0.01970384 -0.07276049 0.03929249 -0.14316128
0.10451193 0.02108956 -0.09788738 0.16058749 0.17447194 0.022901539 0.32312998 0.2248225
0.1335287 0.031731516 0.04484804 0.139635 0.047072563 0.22995362 -0.15843345 -0.05544755
0.18013722 -0.15619916 -0.25831404 -0.2572257 -0.15330066 -0.052325793 -0.10255393 -0.12102946
-0.007956931 -0.0083464105 0.006391147 -0.012967881 0.16316189 0.3189963 0.22839552 -0.20628537
0.2369246 0.33328497 -0.039718974 0.13379669 0.257331 0.089491725 -0.1905039 0.18506335
-0.27078772 0.15476185 0.17412837 -0.01820004 0.037974633 0.092854075 0.12312938 0.19459918
0.14158382 0.15803255 0.26981488 0.3142977 0.15615247 -0.042042978 0.017475113 0.082906276
0.11718285 -0.098274626 0.043837536 -0.10122073 0.16765735 0.17311054 -0.040195324 0.07763238
-0.15870586 0.051741943 -0.13054648 -0.17573404 -0.18196757 0.28706923 0.2330132 0.16480112
-0.15168895 -0.23142894 -0.18185884 -0.014806943 -0.040144272 0.23425286 -0.18608658 0.22939828
-0.17277794 -0.05682626 -0.15455519 -0.10251011 0.092911 0.16927975 0.044709586 -0.15789232

out/MatMul_bias f4 [85]
00000000: 2ddb 1ebc c9bb 163d accd 2ebc a791 11bd
00000010: a637 36bc 7513 3dbd 922c 5ebd 7345 53bc
00000020: 5938 893d eac3 803d 2da2 3ebd 7856 3c3d
00000030: 8566 99bd d8ad bc3c e99b 4bbd b845 923c
00000040: 70f4 5f3b 76b0 49bc 9d24 ae3b c8a3 24bd
00000050: d6a1 6bbd b25b a63c 0379 133d 2101 d43c
00000060: 4bf2 cd3c bd2d a6bc 3e0e bc3c 2964 173c
00000070: 13ae 673c 1e25 92bd 1c2c 2abd da20 2ebc
00000080: 73c5 d9bc 10f7 88bc b4d2 f83c 7b8c a7bc
00000090: fcf7 583d 47a1 ec3c e80d 53bc f41b 4bbc
000000a0: 0ca6 dfbc 9c07 69bd 86a1 e6bc d989 c73c
000000b0: 56d8 a13d 9b35 97bc b7ef 97bc 7701 b83a
000000c0: a886 7f3d f195 2dbc 23d0 9cbd a381 c8bc
000000d0: 7247 783b bbc0 9cbc 5eb9 49bd c67d 593d
000000e0: 7eca 6e3d c100 353d d460 3dbc 1297 d6bc
000000f0: 3b9c 4ebc 8876 e0bd 7058 bc3c 5aaa 4bbd
00000100: 8ef5 0bbe d39a 50bd 8d39 c4bd 9863 23bb
00000110: 4b85 553d 18c3 2c3c 09fd f2bc 764a 7b3d
00000120: a11d 8339 4a03 a3bc ed00 9a3d e8b4 e13c
00000130: 1e68 b63b 6bb0 cebb 52a3 afbc a3ae 4dbc
00000140: 359d 543c 9cb8 fc3c 2050 0fbd 1535 07be
00000150: 5a9f ab3d
-0.00969581 0.03680018 -0.010669153 -0.035539296 -0.011121666 -0.046161134 -0.054241724 -0.012894976
0.067002006 0.06287368 -0.04654138 0.0459809 -0.07490257 0.023032114 -0.049709234 0.01785551
0.0034172796 -0.012310138 0.0053144232 -0.040195256 -0.057527386 0.020307396 0.036004078 0.025879445
0.025139948 -0.020285482 0.02295601 0.009240189 0.014140624 -0.07135986 -0.041545972 -0.01062795
-0.026583409 -0.016719371 0.030373909 -0.020452728 0.05297087 0.028885497 -0.0128817335 -0.012396801
-0.027300857 -0.056892022 -0.028153192 0.024357723 0.07902591 -0.018458178 -0.018546922 0.0014038522
0.062384278 -0.010594831 -0.076568864 -0.024475878 0.0037884382 -0.01913487 -0.049249046 0.053098463
0.05829858 0.044190172 -0.01155873 -0.026195083 -0.01261049 -0.10960108 0.022991389 -0.049723007
-0.1366789 -0.050928902 -0.095812894 -0.0024931189 0.05212907 0.010544561 -0.029661672 0.06135031
0.00025008342 -0.01989903 0.07519708 0.027552083 0.005566611 -0.0063076518 -0.021440182 -0.012553844
0.012976934 0.030849747 -0.034988523 -0.13203843 0.08380003

out/kernel/transpose f4 [85, 200]
00000000: 3ffc 793e 97eb 76be c72d 853e 5af5 ef3d
00000010: 6b10 ec3d f17d 1e3e fa5d 9bbe 99fe bfbd
00000020: 5855 263e ac83 43bf 2dc5 40bf c941 22bf
00000030: 54c3 2ebf a3be f73d f869 783e e328 223d
00000040: 8122 163e 8819 f2be d519 423d 35c9 a6be
00000050: fbee 133e 9bbb 7e3e 6e9e 03bf 8dfe 6cbf
00000060: 0163 333e 41c4 6fbf 3d67 153d fc52 e2be
00000070: f6d9 c43d e10b 823d 34dd 003e b43b 3ebc
00000080: b55e 793e 83aa d6be ff79 79bd 7eec c8bd
00000090: 53a3 f13d f0dd 173d 499b 473e e3bf c2bd
000000a0: 91d6 f7bd 4a10 01bf be4c 2dbf c05d 0b3e
000000b0: 3805 313e 0d5c 843e 9be9 0e3e 048a 40bf
000000c0: c84a 08bf f93f d9be 635f 4fbf 482e 4dbd
000000d0: 39c9 083e 0ffc 20be 3b8c 8f3e 05c9 b5be
000000e0: ce81 35bf 3fec 5c3e 643f 17bf 54e7 a9bd
000000f0: b7c3 04be 89c4 82be 1e1e 1dbf 0de7 493e
00000100: 1a52 93be 1ff3 60bf 9cc4 09bf 4990 d33d
00000110: 4061 a2be 6d94 d1be 22e5 dabe 3bd2 efba
00000120: b535 653e c464 103e ea53 923e cbe5 85be
00000130: ff42 4bbe 6c38 2dbf 8581 33bf 6885 a2be
00000140: 3b4d 4e3d e724 b5be 50c5 823e 25b3 0bbf
00000150: 903d b73c afa7 07bf f064 35bf 904e 97be
00000160: f0a4 133e fc48 2fbe 98a0 a6be 8eb4 66bf
00000170: ac84 b1be cf89 9e3c 258f 343e fbac bbbe
00000180: 36d9 e9be 0093 2a3e de7b 5f3e c381 4cbf
00000190: d813 5c3e e2dd 15bf 3280 4ebe 4490 adbe
000001a0: b6f4 57bf e7f2 673e dadd 383e 9c42 23bf
000001b0: 2a71 a73c 66a7 853e 3780 bdbe 1ded 85be
000001c0: dcc4 7a3e b102 42bd 3b77 8b3e f0b0 b2be
000001d0: 4b38 d43d 2d78 5d3e 885e 393e bf96 10bf
000001e0: e87c 033e d29e 4fbf 79bf 96be b9d6 15bd
000001f0: 6299 55bf af8c 36bf 3631 32bf 6935 f63d
00000200: d4a5 4d3e d9ef 793e c872 0d3e 47fa 533d
00000210: 71d8 2d3e 47c2 a7bf f4a9 95be f66a 9abe
00000220: f97c ecbe c1b9 95be 12ec c1be d18f 7c3e
00000230: 3c07 a4be 947f 4cbf 879b e3be ce82 38bf
00000240: 4a1e 1cbf 976d 4a3e 6778 213e ac58 6e3e
00000250: c376 663e 3f27 293e c15f f83d d8ee f1be
00000260: 0d73 fa3d 28d5 e83d 2675 723e fb04 98be
00000270: 63ea 843e 4465 e6be 8d6c 4a3e c977 08bf
00000280: 8a8e 973e 36b6 3dbf 6bbc 1dbf 110f ba3d
00000290: 0d2f 553e d62c 833c f14b 46bf 5da9 083d
000002a0: 073c 1c3e 8f71 66be 3ee4 a1be 8fd6 e6bd
000002b0: d5ef 453e 477b 81bf 1340 06bf 2dab a1be
000002c0: 6bb6 423e 0b29 55bf 0bb5 2bbf 2290 803e
000002d0: 54ff 3d3e 19ef 333e 530c 83be 2261 53bf
000002e0: bf1d 8d3e 2954 e5bc b0e0 edbe 882d d9bd
000002f0: de62 3abf eefe 09bf 67d4 3bbf 23fa 1cbf
00000300: 6e6b 343e 6eb2 2ebf 1799 bfbd 9c0a 02bf
00000310: 0fec 293d a902 f33d 8afc 86bf 5023 50be
00000320: e661 07bf e720 7c3e 6197 fbbc ccfe 5a3e
00000330: 2535 2fbf 6c65 1dbf d552 b63d 3537 3ebe
00000340: d8b1 7d3e 09d7 d1be 3ce8 e9be 2658 9fbe
00000350: f245 d3be 11d8 4ebf dbdf efbe dff9 38bf
00000360: 49ed 5ebf 2717 8f3e f101 0dbf a60c bebe
00000370: 6112 1fbe 6843 9dbd efde 53be cd60 d6bc
00000380: 560b a2bd 6762 283e 154b 0fbf c380 11bf
00000390: 2847 8abe ba99 073e d022 c6be 28f0 793e
000003a0: 3346 6a3e 9616 ad3e f2ae 9bbe 3938 3dbe
000003b0: 18a6 54bf 0ca5 473e cf7b f7be 8ae2 5b3e
000003c0: 44dc 8a3e 2677 983e 19c6 9c3e eb15 bdbe
000003d0: c0a7 0fbf 3362 553e 4fb6 ae3d 3e22 563e
000003e0: 154e 5a3e 8b5f 033e 3273 e1bd f6c6 823e
000003f0: 6745 80be e7c1 bcbe bf78 4c3e 556f 6bbf
0.2441263 -0.24113308 0.26011488 0.11716719 0.11526569 0.1547773 -0.30345136 -0.093747325
0.16243494 -0.7637279 -0.75300866 -0.6338163 -0.682668 0.12096908 0.24259174 0.039589774
0.146616 -0.47285104 0.047387917 -0.32575384 0.14446633 0.24876253 -0.5141362 -0.92575914
0.17518236 -0.93658835 0.03647541 -0.44203937 0.09611885 0.06349922 0.12584382 -0.011610914
0.24352534 -0.41926965 -0.06090736 -0.09810732 0.1179873 0.03707689 0.1949283 -0.09509256
-0.12101472 -0.5041548 -0.67695224 0.13609982 0.17287147 0.2585148 0.13956301 -0.75210595
-0.5323911 -0.4243162 -0.81004924 -0.050092965 0.1335801 -0.15721153 0.28036675 -0.35504928
-0.7090119 0.21574496 -0.590811 -0.082960755 -0.12965284 -0.2554057 -0.6137408 0.19717045
-0.28773576 -0.87870973 -0.5381563 0.103302546 -0.3171482 -0.40933552 -0.4275294 -0.0018296906
0.22383769 0.14100939 0.28579646 -0.2615188 -0.19849776 -0.6766422 -0.70119506 -0.31742406
0.05036662 -0.35379717 0.25541162 -0.5457023 0.022368222 -0.5299024 -0.70857143 -0.29552126
0.14418387 -0.17117685 -0.32544398 -0.90119255 -0.34671533 0.019352822 0.1763273 -0.3665541
-0.4567353 0.16657639 0.21824595 -0.798855 0.21491945 -0.5854169 -0.2016609 -0.33899128
-0.84357774 0.22651254 0.1805338 -0.6377351 0.020439703 0.26104277 -0.37011883 -0.26157466
0.24489158 -0.047365848 0.27239403 -0.34900618 0.103622995 0.21627875 0.18102467 -0.5648002
0.12840617 -0.81101716 -0.29442957 -0.03658173 -0.8343717 -0.71308416 -0.6960634 0.12021906
0.2008279 0.24407901 0.13813317 0.051752355 0.16977097 -1.3106164 -0.29231226 -0.3015973
-0.46189097 -0.2924328 -0.3787542 0.24664237 -0.3203677 -0.7988217 -0.44454595 -0.7207459
-0.6098372 0.19768368 0.15768586 0.23276013 0.22506242 0.16518877 0.121276386 -0.47252536
0.122289754 0.11368781 0.23677501 -0.296913 0.25960073 -0.44999135 0.19767971 -0.5330778
0.29600936 -0.74106157 -0.6161563 0.09084905 0.2081873 0.01601259 -0.7745963 0.033364642
0.15257274 -0.22504257 -0.31619447 -0.112713926 0.1932977 -1.0115746 -0.5244152 -0.3157591
0.190149 -0.8326575 -0.67073125 0.25109965 0.18554431 0.17571677 -0.2559534 -0.8257009
0.27561757 -0.027994232 -0.46460485 -0.106043875 -0.7280711 -0.53904617 -0.73370975 -0.6131918
0.17619106 -0.6824101 -0.093553714 -0.5079744 0.04148489 0.11865742 -1.0545819 -0.2032597
-0.52883756 0.24621926 -0.030711832 0.2138626 -0.6844047 -0.6148288 0.08902518 -0.18575747
0.24774873 -0.4098437 -0.45684993 -0.3112194 -0.41264302 -0.8079844 -0.46850476 -0.72256273
-0.8708082 0.2794735 -0.5508109 -0.37119025 -0.15534355 -0.07678872 -0.20690511 -0.026169205
-0.079123184 0.16443788 -0.5597394 -0.568371 -0.27007413 0.13242236 -0.38698435 0.24408019
0.22878341 0.33806294 -0.3040691 -0.18478478 -0.8306594 0.19496554 -0.48336646 0.21473137
0.27121174 0.29778403 0.30619887 -0.36930785 -0.5611534 0.20838241 0.08530866 0.209115
0.21318848 0.12829416 -0.110083 0.2554242 -0.2505295 -0.36866686 0.19967936 -0.91966754
