bots/en/Celentano.chatbot/converted_model.tflite (tflite, 527572 bytes, 4 tensors)

in/MatMul_bias f4 [128]
00000000: 6a2d 5e3e 3b0a 923e 3820 363e 97bd 343e
00000010: d532 953e 6a4c 1f3e 7e31 973e 8f7f 8d3e
00000020: 8f2c 643e 4eff 4c3e 2482 503e f0e0 2a3e
00000030: f1e4 833e 3d58 593e 0ee4 003e e24e 543e
00000040: 0b4e 4a3e 4cd3 023e 52bf 613e a585 433e
00000050: 35a1 403e 2a8d 153e 6ab6 943e 8eb1 e63d
00000060: 6652 113e da32 2f3e e47b a13e 6b07 1f3e
00000070: 3f53 893e 06da 1b3e 6a4f 823e f6c5 523e
00000080: 0922 a63d 8e44 4b3e a9f2 183e 93b6 373e
00000090: a4fe 673e a34f 473e 2a4c 5f3e 38f3 833e
000000a0: 027b 613e e3ba 3a3e fd59 9f3e e7b8 423e
000000b0: fcff 723e 2038 903e 1576 9d3e 4820 7c3e
000000c0: f13b e73d f4f3 773e fba5 0f3e ed2c 8f3e
000000d0: 3b9b 583e 10d6 5f3e 35a1 2e3e 7cdf 4a3e
000000e0: 840b a23e 68c2 993e a5b0 863e f589 743e
000000f0: 31ce 203e 4cf8 873e 842b 553e 94e9 6d3e
00000100: ad48 7a3e ea39 333e a3c5 a93e ecc2 8f3e
00000110: d007 893e 1782 543e 494f 653e c758 5e3e
00000120: 342b a53e 68c1 0d3e 283a 563e 0351 4e3e
00000130: 0c3a 883e 1e5b 7f3e e303 823e 5a07 233e
00000140: 9c46 2f3e 3acb 5c3e 4893 463e 23c8 783e
00000150: 48b3 733e 7fc4 8a3e 6086 a13e c90b 433e
00000160: 5387 0f3e b2cb 8e3e 6ac5 1c3e facc 283e
00000170: bf53 033e 2cd4 6a3e 2bf2 2c3e 582c 393e
00000180: 7d27 213e 7a5c 8b3e 585e 573e 6a22 973e
00000190: eb80 213e e963 613e d1d8 643e d533 993e
000001a0: 5bfc 223e 8707 b43e ebd0 593e d21e 333e
000001b0: 1c18 693e 658a 943e 3873 713e 3e65 5c3e
000001c0: 66e3 8d3e 94cb 753e 9176 313e a2df 7a3e
000001d0: c215 5f3e b35e 3b3e 3658 1c3e 44ea 473e
000001e0: 6b7c 783e 261e 243e 2f95 1d3e f8dd 353e
000001f0: d9ea 6a3e 9fd7 223e fc46 293e 0478 773e
0.21697012 0.2852343 0.17785728 0.17650448 0.29140344 0.15556493 0.29529947 0.27636382
0.22282623 0.20019266 0.20362145 0.1668737 0.25760606 0.21225066 0.12586996 0.20733216
0.19756334 0.12775916 0.22045639 0.1909395 0.18811496 0.14604631 0.2904542 0.112643346
0.14191589 0.17109242 0.31539834 0.15530173 0.26821324 0.15219888 0.25451213 0.20583329
0.081119604 0.1985037 0.14936318 0.1794074 0.22655731 0.19463973 0.21806398 0.257715
0.2201958 0.18235354 0.31123343 0.19015847 0.23730463 0.2816782 0.30754152 0.2462169
0.1129073 0.24214154 0.1402816 0.27963963 0.21152966 0.21859002 0.17053683 0.19811815
0.3164941 0.30031133 0.26306644 0.23880751 0.15703656 0.26556623 0.20817381 0.23233634
0.24441786 0.17502561 0.33158597 0.280784 0.26763773 0.2075275 0.22393526 0.21713553
0.32259524 0.1384331 0.20920622 0.20148091 0.26606786 0.24937102 0.2539359 0.15920773
0.17116779 0.215619 0.19392121 0.24295096 0.23798859 0.2710304 0.31547832 0.19047464
0.14016466 0.27889782 0.15309682 0.16484442 0.12824915 0.229325 0.16889255 0.18083322
0.1573772 0.27218992 0.21032083 0.29518443 0.15771835 0.22010769 0.22348334 0.29922357
0.15916578 0.35161993 0.21271102 0.17492226 0.22763103 0.29011837 0.23579109 0.21522996
0.27712554 0.2400344 0.17330386 0.24499372 0.21785644 0.18297844 0.15268025 0.19522959
0.24266212 0.16027126 0.1538894 0.17760456 0.2294115 0.15902565 0.16530985 0.24166876

in/kernel/transpose f4 [128, 980]
00000000: ee6a 57be 0a1c 1a3b cb79 063e 2814 ba3d
00000010: ffe1 e43d baea 01bc 060a aabd 5296 203e
00000020: 6b02 99bd 81aa 90bd f6a8 373d 6e20 18be
00000030: c9c1 d0bd fec4 0e3e 0f64 123e 4554 d3bd
00000040: f254 a9bd c4a3 37be 2dda 40be bef3 223d
00000050: 9bfe 78bd 6ca4 a23d b32a f43c 472c 01be
00000060: 9649 1a3e a290 f2bd fedb 51bd 8bf2 60be
00000070: 7450 80bd f51a b53d 9f49 b9bd 9113 23bd
00000080: 95ca c33d d1e9 f1bc c95d 6dbd 446b 2e3d
00000090: 696f 5c3e 3dad 313e e90a bbbd d20b c63d
000000a0: b720 cd3d 1452 833e 8228 453e 214c e03d
000000b0: 0b6e 523e 6033 5d3e f8f0 803d d08a 01bd
000000c0: e6cf 163e 8671 f9bd 9d2e 283e 3a05 8fbb
000000d0: 9be0 1a3e 306e c23d b881 00bc 64e9 b23d
000000e0: 94c0 e1bd 17b1 e6bd cf82 70be f2f2 bd3d
000000f0: af95 1c3e ceb4 b7bd 0ebb 2cbe 1141 b93d
00000100: ae58 0cbe 9cf1 38be a158 693e 6605 613d
00000110: ff93 ffbd 96da a6bd 7c4b 093e 05c6 e03d
00000120: 550b 623e 7bf9 2fbd b707 1f3e 52f6 98bd
00000130: 551e 38bc c789 c2bd 0106 cdbd fdc2 493e
00000140: 9395 1cbe 299c 3b3e 2ab5 11be 8553 a23d
00000150: 240c 6a3d faca aa3d fd13 123d 222a e2bd
00000160: 2a64 253a 4ab3 1d3e dbd1 113e 8a05 5dbd
00000170: 5f77 9e3d 06cc 013d ef63 303e cc6d 2abe
00000180: bf39 ae3d 6cbc 3fbe 58b1 e6bd d462 16be
00000190: d090 b6bd bba9 62b9 daad fd3d f363 c93d
000001a0: ecef ee3d bb4a 94bd 1a24 4dbe 119c 463d
000001b0: 76dc 083d da33 58be 294d 573d 7949 153e
000001c0: 3863 51bd 158f b13d b978 ba3c 332f 18be
000001d0: de7b 223d 304a 8a3d 0679 323e 5b93 14bd
000001e0: 4fe2 9bbd b4b2 913d 8237 963d 3d22 28bd
000001f0: eea7 76bd a813 b1bd 0896 233e 517b 473d
00000200: 7c92 afbc aed3 94bd a3fc 0bbd a0ea 87bd
00000210: a510 1ebd bff5 1d3e ae21 a5bd 2d4d 0f3e
00000220: db5b 613e 5960 893e 1e78 e03d c909 43be
00000230: 8c3e e73d d5fb 63bd b786 8abe f504 bc3d
00000240: bfaa 56bd f4e0 eb3d 7c43 643e aec9 0ebe
00000250: a270 dc3c c82d 9b3d 6c7c 623e 8c1c dc3d
00000260: 0cb6 65bd a411 96bd 0907 15bc 7b26 53be
00000270: 0caa 463e 93c9 53bd 284f 4bbd d049 3dbd
00000280: fb07 b13d 7a50 f4bc 2681 2b3e 586b 59bd
00000290: 8940 37be b054 85be a3a6 423e fc6c 84bc
000002a0: 528a 25bd fae7 66bd 7c63 8fbd 17cb 34be
000002b0: e08c e2bd f28e 1cbe 39be 073d 33c0 c0bd
000002c0: 4001 49bd 6705 1e3e 4642 85bc 5e50 043e
000002d0: 7d33 ec3d 9fa3 cb3d 92c9 623d 87e6 05be
000002e0: d6f0 aa3d 802f c73d a57e afbc 45a4 1cbe
000002f0: bae4 3a3e 5b6a 7e3e 6e5e fa3d 2cb3 2bbe
00000300: b52a bdbd 668a 0d3d 873f 103e 9c45 e5bd
00000310: 91a6 173e cfb1 04be 9055 143e 09fc cbbc
00000320: fb07 1fbe d103 513e 35cf ee3d e141 5f3d
00000330: 3f56 363e 5c25 0bbd 38b0 c83d c166 d1bd
00000340: 5192 683e 9340 8dbc ffc8 1e3d 0ea1 bd3d
00000350: 84b7 27bd 7ad7 993d 910b 89bd f9ff 503e
00000360: 4b2a abbd 3e6b 0a3e 3ec7 673d 84d0 203e
00000370: 1bbd bb3c 4213 c23d 0c4a cfbc 7871 433e
00000380: 837b 1a3e 7d01 afba a97d 893c 2e05 7ebd
00000390: a3da 44bd f27d 91bd 0776 1ebe 62f9 44be
000003a0: f639 a3bd e940 debd 0e46 06be 45df 2d3e
000003b0: 097b d0bd 8a81 163e e3f0 373e fec3 1c3d
000003c0: de96 553c 1aaa 89bd 2dc0 6ebe 6b68 21be
000003d0: 5d68 29be d51a 36bd c8c7 143e b487 d33c
000003e0: 580b 5e3e 733d 29bd 9836 c7bd 0a14 5dbe
000003f0: f9ef 9a3e 4861 b63e a745 b83d c6c2 093e
-0.21036884 0.0023515248 0.13132398 0.09085876 0.11175918 -0.007929498 -0.08302693 0.15682343
-0.07471164 -0.07063771 0.044838868 -0.14856121 -0.101932116 0.13942334 0.14295982 -0.103188075
-0.08268155 -0.17933565 -0.18833227 0.039783232 -0.060789686 0.07941517 0.029805517 -0.12614547
0.15067133 -0.11843993 -0.05123519 -0.21967523 -0.06265345 0.08843032 -0.09047245 -0.03981358
0.09560124 -0.029530438 -0.05795077 0.042582765 0.21526875 0.17351241 -0.0913294 0.09670223
0.100160055 0.25648558 0.19253734 0.109520204 0.2054979 0.2160163 0.06295961 -0.031626523
0.14727744 -0.12179856 0.16424032 -0.0043646367 0.15124743 0.09493673 -0.007843427 0.08735922
-0.110230595 -0.11264246 -0.234874 0.09274854 0.15291475 -0.08970033 -0.1686823 0.090456136
-0.13705704 -0.18060917 0.22787715 0.05493679 -0.124794 -0.08147161 0.13407701 0.10975269
0.22074635 -0.042962532 0.15530287 -0.07468857 -0.0112377005 -0.09498935 -0.10010911 0.19703288
-0.15291433 0.18321289 -0.14229265 0.07926086 0.057140484 0.08339496 0.035663594 -0.110431924
0.0006309176 0.15400425 0.1424021 -0.05396036 0.07737612 0.031688713 0.17225622 -0.16643447
0.08507108 -0.18724221 -0.112642944 -0.14686137 -0.089143395 -0.00021616269 0.12386675 0.09833517
0.11666855 -0.07240816 -0.20033303 0.04848868 0.033413373 -0.2111353 0.05256382 0.14578809
-0.051120013 0.08669869 0.022762643 -0.14861755 0.03966891 0.067524314 0.1742898 -0.03627334
-0.07611524 0.07114163 0.07334806 -0.041048277 -0.060218744 -0.08646327 0.15975201 0.048701588
-0.021432154 -0.07266937 -0.03417648 -0.06636548 -0.038590092 0.15425776 -0.080630645 0.13994284
0.22007696 0.2683132 0.109604105 -0.19046701 0.11291227 -0.055660088 -0.27055904 0.09180633
-0.05240893 0.11517516 0.22291368 -0.13944122 0.026909176 0.075770915 0.22117776 0.107476324
-0.056081817 -0.073275834 -0.009095916 -0.20620148 0.19400805 -0.051705908 -0.049636036 -0.04621297
0.086441 -0.02982353 0.16748485 -0.053080887 -0.17895712 -0.26041174 0.1900888 -0.016165249
-0.040415116 -0.056373574 -0.07001397 -0.17655598 -0.11062026 -0.15288904 0.033140395 -0.09411659
-0.049073458 0.15431748 -0.016266953 0.12921283 0.11533258 0.099433176 0.055368014 -0.1307622
0.08346717 0.09725857 -0.021422694 -0.15297039 0.18251315 0.24845259 0.12225042 -0.16767567
-0.09236661 0.034555815 0.14086734 -0.111949176 0.14809634 -0.12958454 0.14485765 -0.024900453
-0.15530388 0.20411612 0.11660615 0.054506186 0.17806338 -0.033971176 0.09799236 -0.10224677
0.22712065 -0.017242705 0.038765904 0.09259234 -0.0409465 0.07511802 -0.06691659 0.20410146
-0.08357676 0.13517472 0.056586497 0.15704542 0.022917321 0.094763294 -0.025303863 0.19086254
0.15086178 -0.0013351884 0.016783552 -0.06201666 -0.04806007 -0.071041 -0.15474711 -0.19235757
-0.079700395 -0.108522244 -0.13112661 0.16979702 -0.10179717 0.14697853 0.17962985 0.03827285
0.013036458 -0.067218974 -0.23315497 -0.15762489 -0.16543718 -0.044459183 0.14529335 0.025821544
0.21684015 -0.04131837 -0.0972721 -0.21589676 0.3026121 0.35621095 0.0899766 0.13453206

out/MatMul_bias f4 [47]
00000000: 462e 793c 02d7 c3bb f261 d63c 5033 73bd
00000010: ef55 86bd 8c2c 3c3b 87de 49bd d649 56bd
00000020: 0e79 563d 1ff6 21bc 558d 92bd 2471 ef3b
00000030: 087f ecba 6daf a93d c8e7 9fbc 3661 5dbd
00000040: 754e 8abd ac62 64bd 1f6c 31bd 3fa4 893c
00000050: 758a e0bb 4f39 6abc 8683 d1bc 7a02 f6bc
00000060: 79e7 083e 77c2 093d acaa 713c 79b0 a03a
00000070: d677 1fbd 9c17 14bd 166d 56bc 2342 88bd
00000080: ea7f 8cbd b74b cfbc 0e79 30bd 67b1 95bd
00000090: c83e 66bd 5a52 4bbd cf39 743d c7db ca3c
000000a0: 5b33 71bc 1597 4a3d 1f41 303d bdcf ce3d
000000b0: 08ed c1bb f536 7cbd 5b75 3a3d
0.015208786 -0.0059765587 0.02616975 -0.059375107 -0.06559359 0.0028713075 -0.049284484 -0.05231651
0.05236154 -0.00988534 -0.07155863 0.0073071886 -0.0018043229 0.08285413 -0.019519702 -0.054047786
-0.06753246 -0.055758163 -0.043316003 0.016801951 -0.006852443 -0.01429589 -0.02557541 -0.030030478
0.1336955 0.03363272 0.014750164 0.0012259624 -0.038932644 -0.03615533 -0.013087532 -0.066532396
-0.06860335 -0.025304658 -0.043084197 -0.073092274 -0.056212217 -0.049639083 0.059625443 0.024763001
-0.014721717 0.04946049 0.043030854 0.10098217 -0.005918149 -0.06157585 0.045522075

out/kernel/transpose f4 [47, 128]
00000000: 89f8 b13e 1429 a43e 0cc7 8c3e 80ef 7e3e
00000010: 291b 06bf 24d6 a1be 3fb7 15bf 5e6d 303d
00000020: f969 863e dd4b 813e 0cb4 9c3e 69f6 d0be
00000030: 2c62 30bf 4d19 16bf 4019 6e3e 1f34 863e
00000040: 7ce9 5e3e 820e 14be 11d3 27bf caa0 e3be
00000050: cade 67be 6ede 0b3e 2135 303e ddb2 1bbf
00000060: dfe4 123e 0f0a 0bbf 7932 8bbe f791 93be
00000070: 8ba4 933e 78bc 863e c048 443e c2c2 9c3e
00000080: bfde 513e 3b67 19bf 349c 39bf 5ae6 78bf
00000090: 91d2 6f3e 7287 a6be 315c c4be 599f a6be
000000a0: b90a 9ebe c581 633e 90c1 873e c8cb 523e
000000b0: 6e92 cabe b603 f3be 239c 56bf 3e42 e4bd
000000c0: 4e05 f7be b581 0e3e ffb4 13bf 84f3 913e
000000d0: b188 523e 1b36 2bbf 1bc2 14bf 0380 dabe
000000e0: 3a7d 72be ddc1 873e 3b3e 993e 5b7a 3cbf
000000f0: d713 a03e 03e6 b73d 3601 853e 9637 ba3e
00000100: c4a6 8c3d 8acb b4be bfd5 74be a9c7 37bd
00000110: 3d58 c9be 6809 aa3e bbb8 07bf e2f1 0ebf
00000120: 9420 24be efe0 893e c367 cbbe ebe8 8e3e
00000130: e6c1 9e3e f4cb 8f3e 6b41 48bf aeff 81be
00000140: f4ff 55be 6213 983e 7b5b d4be dc80 55bf
00000150: 6ca2 0abf d373 9cbe b41d 8f3e f2fb 433e
00000160: 6756 903e c64b bcbe 3a35 5fbe 421a cfbe
00000170: be1d 623e 40c0 933e 8a15 c2be e084 c03d
00000180: da04 57be 1a83 993e 3a05 04bd ea0d ab3e
00000190: 5ab8 0fbf 1f81 9ebe 7b2b fabe e934 4abf
000001a0: e3a2 2f3e e6a8 593e bca8 38bf eb10 4fbf
000001b0: 6b08 4cbf 1551 efbe 184b ac3d 4d95 6bbf
000001c0: a907 c33e 9e1c 843e 655f 0ebf 30b2 f5be
000001d0: 6d31 5ebf 75f4 873e 4662 2bbf cd46 c53d
000001e0: 81ea 733e 2ae8 41bf 25fe 03bf b38e 3f3e
000001f0: 6a5c 6fbf 7b0b 86be 2a36 9bbe b32e 33be
00000200: 72ec 0ebf 15b6 00bf f372 613e 6fe6 033e
00000210: 9d53 12be d69d d9be 6963 14bf ac43 0c3d
00000220: 2044 49bf 922c 613e 0058 ae3e 86a9 063e
00000230: e10c 223e d703 903e fcf5 403e 92f5 813e
00000240: 2ca8 4a3e 98c2 c93d 92c6 753e 0eb8 113e
00000250: 99a9 fdbe d06e b03d 229e 5abf 8b32 493e
00000260: 11ed 4ebf b838 253e 95ca cdbe e526 5e3e
00000270: baec 66be fc6d 8c3e e55c 7cbf c8a4 c4be
00000280: 8a8e 8f3e a35f cebe 7893 2f3e ea89 cabe
00000290: bf7a e3be adbc 8e3e 36d0 5ebe 3114 2cbb
000002a0: 6f7d 15bf 117f f1be 62fa 3c3e 68e0 4abe
000002b0: f921 37bf 688a 06bf f275 18bf 3dc2 f03d
000002c0: 03f2 bbbe 91d7 f0be 4084 d6be cda9 713e
000002d0: 2865 afbd 90b8 9c3e ef59 ef3d 1a9d c2be
000002e0: 3ec8 08be dbe5 31bf 1b7f 1bbf 519d 2fbf
000002f0: 742f 3cbf dd52 843e aeaf 23bf 4cce 40bf
00000300: 15b1 443e cd93 7a3e 483c 4c3e 3fc7 e5be
00000310: fcf0 e5be d34e 033e f7ff 4d3e f5a8 133e
00000320: 62f0 ae3d 11cc 56bf b9c8 6b3e 3909 d0bc
00000330: c030 83be e264 b4be ec4f 9ebe 60c1 a3bd
00000340: bb46 75bf ea30 013e ec91 823e 785a b43e
00000350: 6640 8e3e d32c 83bf 2076 693e 44d2 fbbe
00000360: 3e55 5c3e b3bc 4f3e ee43 6f3e 30be 6ebe
00000370: 2d1d 683e 13ce 063d bcb9 133d 4f4c 3b3e
00000380: c596 223e c0fd 643e 2aa8 67bf dfa6 0bbf
00000390: cf0c 323e 8e3f 6a3e cd60 5d3e bcd0 a7be
000003a0: 42c8 f83d e530 3ebf 8480 333e 1786 4fbf
000003b0: facb 6d3e 97ed 82bf bd5d 1abf 4279 e9be
000003c0: a10e 6abf 1b74 3abf 4551 a93e be1d 4bbf
000003d0: 66c5 9c3e ed6d 473e 05c6 36bf 9dff 7d3e
000003e0: 445b 603e a66e 363e d1b3 8b3c 0a1b 57bf
000003f0: 5017 10bf 0fec 16bf 519c 8f3e 65d2 253e
0.3475993 0.3206259 0.2749561 0.2489605 -0.52385193 -0.3160869 -0.58482736 0.04307305
0.26252726 0.25253192 0.30606115 -0.40812996 -0.688998 -0.58632356 0.2325182 0.2621164
0.21768755 -0.1445866 -0.65556437 -0.4445861 -0.22643581 0.13659069 0.17207767 -0.608198
0.1434512 -0.54312223 -0.27186945 -0.288223 0.28836474 0.26315665 0.19168377 0.30617338
0.20495127 -0.5992314 -0.7250397 -0.9722649 0.23420168 -0.32525212 -0.38351586 -0.32543448
-0.30867556 0.22217472 0.26514864 0.20585549 -0.39564842 -0.4746377 -0.83831996 -0.11145447
-0.48246235 0.13916667 -0.57698053 0.285061 0.20559956 -0.66879433 -0.5810868 -0.4267579
-0.23680583 0.26515093 0.2993029 -0.736242 0.31265137 0.08979418 0.25977486 0.36370534
0.068677455 -0.35311538 -0.23909663 -0.044868145 -0.39325133 0.332103 -0.5301625 -0.55837834
-0.16028053 0.26929423 -0.397276 0.27912077 0.31007308 0.2808529 -0.7822482 -0.2539038
-0.2089842 0.29702288 -0.41476044 -0.8339975 -0.54154086 -0.30557117 0.2795235 0.19139078
0.2819092 -0.3677656 -0.21797648 -0.4044972 0.22081658 0.28857613 -0.37907058 0.09400344
-0.20997944 0.29982835 -0.032231547 0.33409053 -0.56140673 -0.30957887 -0.48861298 -0.78986984
0.1715198 0.21255836 -0.7213247 -0.8088519 -0.79700345 -0.46741548 0.084127605 -0.9202469
0.38091782 0.25803083 -0.5561431 -0.4798751 -0.8679417 0.26553693 -0.6694683 0.09632645
0.23819925 -0.7574488 -0.5155967 0.18706779 -0.9350039 -0.26180634 -0.3031476 -0.17498283
-0.55829537 -0.50277835 0.22016506 0.12880872 -0.14289708 -0.42503232 -0.5796419 0.034244224
-0.78619576 0.21989658 0.34051514 0.13150606 0.15825225 0.2812793 0.18843836 0.25382668
0.19790715 0.09851569 0.2400153 0.14230368 -0.49543455 0.08614886 -0.8539754 0.19648187
-0.80830485 0.16134918 -0.4019362 0.21694525 -0.22551242 0.2742766 -0.98579246 -0.38406968
0.28038436 -0.4030734 0.17146099 -0.39558345 -0.44429585 0.27878323 -0.21759114 -0.0026257152
-0.5839452 -0.47167256 0.18454888 -0.19812167 -0.71536213 -0.5255494 -0.5955497 0.11755798
-0.36708078 -0.47039464 -0.41897774 0.2359993 -0.08564216 0.3060956 0.11687075 -0.38010484
-0.13357636 -0.69491357 -0.6074082 -0.6859942 -0.7350991 0.2584447 -0.6393994 -0.75314784
0.19208176 0.24470444 0.1994487 -0.44878575 -0.4491042 0.12823038 0.20117174 0.1441992
0.08541943 -0.8390513 0.23025788 -0.025395023 -0.2562313 -0.35233217 -0.3092035 -0.07995868
-0.9581105 0.12616315 0.25501955 0.35225272 0.27783507 -1.0248054 0.22798967 -0.49183857
0.21516892 0.20286827 0.23365757 -0.23314738 0.2266738 0.03291137 0.036065802 0.18290828
0.15877827 0.22362423 -0.90490973 -0.545515 0.17387699 0.22875807 0.21618958 -0.3277644
0.12147571 -0.7429336 0.17529494 -0.8106398 0.23222342 -1.0228757 -0.60299283 -0.45600325
-0.9142857 -0.7283341 0.33069816 -0.7934226 0.30619353 0.19475527 -0.71395904 0.2480454
0.21909815 0.17815647 0.017053517 -0.84025633 -0.5628557 -0.58953947 0.28048947 0.1619354
